Response14/modelStateDict_1000_shallow.pth (torch, 89271 bytes, 5 tensors)

conv1.weight f4 [1, 1, 3]
000000 6b b7 c4 3e e2 86 d2 3e 22 dc 3f bf
       0.38421187 0.41118532 -0.7494527

fc1.weight f4 [140, 140]
000000 ed 5e 35 3d c4 64 15 bc f9 a7 6c bc ca 54 f9 bb
       0.04427998 -0.009118263 -0.014444345 -0.0076089846
000010 1d f8 a0 bc 29 17 db 3c 64 fa b4 bd d7 05 e8 bd
       -0.01964956 0.026744442 -0.08836821 -0.11329239
000020 3c b5 b0 bd 54 93 e4 bc ae 42 ac bc eb 35 8f 3b
       -0.08628318 -0.027902283 -0.02102789 0.004370441
000030 59 69 99 bc d2 c0 a2 bc 22 2a 75 bc 6b 52 b4 bc
       -0.018726991 -0.019867335 -0.0149636585 -0.022011956
000040 ca c2 48 bb 85 3b d3 bc 47 91 43 bc 0c 83 c5 bb
       -0.0030633681 -0.025785217 -0.011936492 -0.006027585
000050 0b ab a5 bc f4 fa 93 bc 32 43 80 bc 3f da 03 3c
       -0.020223161 -0.018064 -0.015657041 0.008047639
000060 0c 3c c3 3c 20 96 6d bb d4 65 b3 3c 3f bb 7b 3c
       0.023832344 -0.0036252812 0.021899141 0.015364467
000070 e4 a3 07 3b 03 c9 3f 3c 2f b6 8b 3c d8 61 93 3c
       0.0020697052 0.01170564 0.017054645 0.017990991
000080 de 0c d2 3b 37 f0 b3 bc f7 dc 42 bd dd ee 07 bd
       0.0064102253 -0.02196513 -0.04757401 -0.033186782
000090 3d be df bb 9b bb f1 bc 31 81 10 bd 4c b2 33 bd
       -0.006828098 -0.029508403 -0.035279457 -0.04387121
0000a0 af 12 4c bd f9 bd 0f bd ab 91 ee bc 5a 73 53 3c
       -0.049822506 -0.03509328 -0.029122194 0.01290592
0000b0 00 7e e9 3b 3b 1f 02 3b 8d 57 e8 ba 42 92 2d 3b
       0.007125616 0.001985504 -0.0017726287 0.0026484882
0000c0 f2 de b0 39 da b9 25 bc 77 35 19 bc 13 46 24 bc
       0.00033735443 -0.010115111 -0.009351126 -0.010026473
0000d0 63 ca a9 bb 1f e0 f7 bb f1 60 99 3c 11 fa 49 3d
       -0.005181597 -0.007564559 0.018722983 0.049310748
0000e0 03 b7 89 3d fb 9b a1 3c 8d 29 a7 3c 9f 75 6c 3d
       0.0672436 0.019727698 0.020405555 0.05772936
0000f0 2f 3b 24 3d 31 35 59 3c 84 2e 55 bb 46 99 66 bd
       0.040095504 0.013257311 -0.0032528946 -0.056298517
000100 48 92 af bc 29 e6 97 3c da fc 86 3b 62 71 b7 bc
       -0.021432057 0.018542366 0.0041194977 -0.022392932
000110 a2 17 b3 3c 3b f1 28 3c f6 53 3f 3c fe 7b 23 bb
       0.021861855 0.01031142 0.011677733 -0.0024945731
000120 86 da 6a 3c 56 19 f1 3c c0 ca 3d 3d 82 be c3 3c
       0.014334327 0.029431026 0.046335936 0.023894552
000130 16 fc 3c ba 6b 9d 43 bb 18 ec f6 3c 3f 0a 97 3d
       -0.00072091946 -0.0029848467 0.030141875 0.07375001
000140 a5 cf 95 3d 67 f3 7b 3d 9a ad 19 bd b4 13 68 bd
       0.07314996 0.061511423 -0.037519075 -0.056659415
000150 a2 eb df 3b 50 42 49 3c 43 94 eb 3b 26 05 cc bb
       0.0068335095 0.012283877 0.007189305 -0.0062261997
000160 20 b9 14 bc c5 3f bf bb 2a 4b 92 3b 42 d5 54 bc
       -0.00907734 -0.0058364593 0.0044645267 -0.012990298
000170 2a bb ea 3a 6a 4c 49 bb f6 66 8e 3d 67 10 0c 3d
       0.0017908562 -0.0030715712 0.06953232 0.03419533
000180 78 4a d7 3a d5 f7 22 bd f6 9c 25 bd 64 9b 23 bc
       0.0016425392 -0.039787132 -0.040432893 -0.0099857785
000190 8a 10 98 3c db 73 a3 3b 5b 80 b9 bc b1 ff 2c ba
       0.018562574 0.0049881763 -0.022644212 -0.000659938
0001a0 9f 63 3d 3c dd 5a 4c bd a6 bd 01 bd da e1 1c bc
       0.011559396 -0.04989134 -0.031675003 -0.009575332
0001b0 cd dd 1b bc 4c 75 9d bb a9 e6 9d bc 61 57 b4 bc
       -0.009513331 -0.0048052426 -0.019275026 -0.022014322
0001c0 ce 23 1d 3c 97 da bc 3d 52 3a 2c 3d a2 e2 80 bd
       0.009591056 0.0922138 0.042047806 -0.06293227
0001d0 18 b1 52 3c d0 3b 94 bd 53 2b 94 bd c8 f7 53 bc
       0.012859605 -0.07237971 -0.07234826 -0.012937494
0001e0 b7 72 de bc d0 45 49 bd 05 d5 e6 bc 6f 3e ef bb
       -0.02715431 -0.049138844 -0.028177748 -0.007301144
0001f0 01 54 25 bd 53 87 52 bd 19 e6 d5 bb 9e d4 6b 3c
       -0.040363315 -0.051398586 -0.006527674 0.014393954
000200 94 82 1b bd 36 a5 93 bd 6b e7 b3 bd 12 1a 36 bd
       -0.037966326 -0.07209246 -0.08784374 -0.044458456
000210 29 7a 12 bd 42 64 99 3d f0 07 f7 3c 3c 90 9f 3d
       -0.035761032 0.07489826 0.030155152 0.077911824
000220 ac ef 15 3e eb bd a9 3d 9f c2 84 3d ee 80 e6 bd
       0.14642209 0.08288177 0.064824335 -0.1125506
000230 6c be 20 bb a8 e6 ab bc f6 38 c0 bc 07 3e 1f bd
       -0.0024527563 -0.020984009 -0.023464661 -0.038877513
000240 8d 06 08 bc ed 88 ad bd 91 7d 06 3d a7 f1 2e 3d
       -0.008302343 -0.08473382 0.032834593 0.042710926
000250 ce 13 04 bb 8a fe 41 bb 21 d2 c7 bb 5e ba a5 3b
       -0.0020153406 -0.002960118 -0.0060980474 0.005057617
000260 77 9b 7b 3d 69 03 4f 3d fd c0 d0 3c e9 5e a6 bc
       0.06142756 0.05054036 0.025482649 -0.020308929
000270 79 f4 58 bd c1 18 88 bd 88 7d 01 bd 39 e2 76 bc
       -0.052967522 -0.066453464 -0.031613857 -0.015068584
000280 7d 6e 7d bd 0c ba 5f bd 96 53 45 bc c8 d2 50 bb
       -0.061872948 -0.054620788 -0.012043854 -0.0031863917
000290 c9 ba dd ba 0e 30 1d bc 53 bb 00 bc d5 fa 5c bd
       -0.0016916628 -0.009593977 -0.007857162 -0.05395015
0002a0 fc 66 fd bc 94 a1 ab bc 0f 57 69 3b f3 e1 1f bd
       -0.030932896 -0.02095107 0.003560487 -0.03903384
0002b0 75 ed 5b bd 32 0b 2d bd 82 e1 26 3e eb 6c c8 3d
       -0.053693254 -0.042247005 0.16296962 0.097863995
0002c0 35 da 2a 3b e6 6b cf bb c0 83 b3 bc 64 73 20 bd
       0.0026070003 -0.006330001 -0.02191341 -0.039172545
0002d0 00 05 0d bc c8 6e 46 bc f0 cd 4a bb 47 42 cc bc
       -0.008607149 -0.012111373 -0.0030945502 -0.024933947
0002e0 9f 12 ff bc 0e 3d 71 3b fb 5e ab 3b 47 dd 68 3c
       -0.031136809 0.0036810073 0.0052298284 0.014212913
0002f0 49 41 66 3c 9c 47 92 bc 12 33 a2 b9 7a 30 5f bc
       0.014053651 -0.017856412 -0.00030937098 -0.013622398
000300 b3 c5 11 bd 97 4c 29 bd e5 0b 0e bd a4 16 74 bc
       -0.03558893 -0.041332807 -0.034679312 -0.014897976
000310 69 55 32 bb d8 ae 10 bd 35 a6 37 bd 57 98 15 bc
       -0.0027211553 -0.035322994 -0.04483624 -0.009130559
000320 c6 bb a5 3b 2e 92 42 bc 88 66 c7 bc b0 19 8c 3d
       0.0050577847 -0.011875672 -0.024340883 0.06840837
000330 95 82 82 3d ca ed e0 bb de 15 25 bc 2d 5a 50 bc
       0.06372563 -0.006864284 -0.010076014 -0.012716812
000340 65 7e d3 3b 89 4d 0d bd da 19 cb bc e4 40 42 3a
       0.0064542764 -0.03449777 -0.0247926 0.0007410182
000350 9a 0d ab bb c0 b7 9c bc 92 2e 94 bc ca c8 23 bc
       -0.0052201273 -0.019130588 -0.018088613 -0.009996602
000360 eb bd 97 bc ff 37 a9 bc 28 b8 2b bd 23 f1 c9 bd
       -0.018523177 -0.020656584 -0.041923672 -0.09860446
000370 71 85 cf bd 25 13 07 bc 48 91 84 3c 2c e6 7a 3d
       -0.10132874 -0.0082443105 0.016182557 0.061254665
000380 d2 ee a0 3d e8 c1 51 3d 12 83 35 3c 53 d4 02 3d
       0.07858051 0.051210314 0.011078613 0.03194077
000390 9e 03 64 3d 29 79 88 3d ec f5 a7 3c db 95 19 3d
       0.055667512 0.066637345 0.020503007 0.03749643
0003a0 c2 9d 57 bc a8 87 b4 bc 6f 16 54 3d f2 8c a2 3d
       -0.013160171 -0.022037342 0.051779207 0.079370394
0003b0 b6 bb 17 3e 84 32 a3 3d a7 33 c8 3d 96 8a a0 3d
       0.148177 0.079686195 0.09775477 0.07838933
0003c0 74 b2 2d 3d 2f 6a 29 3d 3d 73 84 3b f1 a0 23 3d
       0.042406514 0.04136103 0.004042058 0.039948408
0003d0 80 0b d1 bc 47 64 af bc 84 1a 73 3b 3b 34 51 ba
       -0.025518179 -0.02141012 0.0037094662 -0.00079805
0003e0 ea d4 27 39 3c 10 07 3a 4d a5 a6 bc cf 80 72 bb
       0.00016005678 0.00051522604 -0.020342493 -0.0037003045
0003f0 c5 e4 a1 bc 7a e6 3b bd 49 cb 09 be 9a db 71 bd
       -0.019762406 -0.045874096 -0.13456453 -0.05904732

fc1.bias f4 [140]
000000 c5 d9 a7 3c 36 a9 38 bd d9 6e 7d 3b 2d 6a a4 bd
       0.020489583 -0.045083247 0.0038670807 -0.08028064
000010 3a 89 0d bb dc 60 b3 3b 5e 27 83 3d 7d 14 97 3d
       -0.0021596686 0.005474193 0.06403993 0.07376955
000020 6f f9 98 bc 3c eb 34 bd 27 fa bc bc 28 81 f7 3c
       -0.018673627 -0.04416965 -0.0230685 0.030212954
000030 6d 9c e3 3a 08 df 46 3c b1 e8 b5 3b 01 05 af 3c
       0.0017365344 0.012138136 0.0055514206 0.02136469
000040 c2 3f 93 3d 65 e7 4d 3d 2d 89 2c bd f3 35 e3 3d
       0.07189895 0.050269503 -0.04212301 0.11094274
000050 81 8d 9e 3d 8e 77 b2 bd 86 45 0a bd 7f e8 49 3c
       0.077418335 -0.087142095 -0.03375771 0.012323498
000060 61 93 9b 3d de 1a bd bd f1 24 81 bc e8 83 72 af
       0.0759647 -0.0923364 -0.015764685 -2.2056634e-10
000070 19 d6 a1 3b 03 85 c9 3c 1a d8 cb 3c 30 f5 2b 3d
       0.0049388525 0.024599558 0.024883319 0.041981876
000080 81 2f 7a ac e0 7b a2 3c 78 f5 cc bb a5 58 f6 3c
       -3.5553507e-12 0.019834459 -0.006254848 0.030071566
000090 a1 cd 77 3c 7a 4a 09 3d df 0e 79 bc 6a 46 08 bc
       0.015124709 0.033518292 -0.015201299 -0.008317569
0000a0 58 21 c7 3d 6a f6 de bc ad 94 98 3d dd 38 36 3d
       0.09723157 -0.027217109 0.07450233 0.044487823
0000b0 a6 79 30 bd 5b 8c 49 3d 3d 64 89 3d 14 1b 23 3c
       -0.043084763 0.04920612 0.06708572 0.009955186
0000c0 c9 f5 a5 bd ae 7f b8 ae 56 35 79 3d 07 b3 1b 3d
       -0.081035204 -8.390032e-11 0.06084188 0.03801253
0000d0 61 3b a1 3d 61 91 2e 3d fd 59 5c 3d 34 da 4b 3d
       0.07872654 0.042619113 0.053796757 0.04976864
0000e0 7b 1d 6d 3c 75 4b a7 3d 19 a8 bc b3 05 87 0b 3d
       0.014472361 0.08168689 -8.785009e-08 0.03406431
0000f0 27 8c 38 3b 3e 42 e8 3b 16 3c f5 bc 34 1a 26 bd
       0.002815971 0.007087975 -0.029935878 -0.040552333
000100 b5 09 ab bd 56 aa ee bc d4 01 6a bd 25 37 d0 bc
       -0.08351461 -0.029133957 -0.05713065 -0.02541692
000110 90 1b 87 bc 3b 41 b7 3d 02 e3 6f 3d fb 55 96 bc
       -0.016492635 0.089479886 0.0585661 -0.018351546
000120 42 e8 87 bd a8 26 a8 3c 60 72 ad bb db 74 fa bc
       -0.066360965 0.020526245 -0.0052931756 -0.0305733
000130 2f a3 6f bc 4d 77 22 bd 69 20 13 3d 39 1f bc bc
       -0.014626308 -0.039664555 0.03591958 -0.022964107
000140 c0 4c f7 3c f2 aa 27 b0 1a 42 e9 bb 67 93 40 bc
       0.030187964 -6.0997174e-10 -0.0071184756 -0.011753893
000150 44 7a da bd 10 e0 9d 3d 4d 77 f8 bd 86 ee 47 bd
       -0.106678516 0.07708752 -0.1213213 -0.048811458
000160 51 8a 4d bb 2d 6c 01 bd 39 a6 9b 3d dd c9 33 3d
       -0.003136296 -0.031597305 0.07600064 0.043893684
000170 f2 58 76 bd a2 cb 84 3d 3d 3d c3 bb f2 21 bc bc
       -0.06014342 0.064841524 -0.005958228 -0.022965405
000180 75 d8 05 3d 06 7f 3c 3b 64 46 e0 bc c3 7d 3d bc
       0.032677133 0.0028762235 -0.027377315 -0.011565628
000190 a0 59 ca 3b 34 12 4e 3d 9d 7d 4b bb e0 1a 6e b6
       0.006175235 0.05031033 -0.0031050213 -3.5480407e-06
0001a0 40 54 7f 3c 99 dc a1 bd 6b cb 32 3c 12 ad 6b 3d
       0.015584052 -0.07903404 0.010912756 0.0575381
0001b0 b0 69 a8 3b 5d f9 00 3d 70 6d 1f 3c 49 31 88 3d
       0.005139552 0.03148781 0.009730682 0.066500254
0001c0 37 02 1d 3b be d6 12 bd f7 26 80 3c 36 05 d7 bd
       0.002395762 -0.035849325 0.01564358 -0.10499041
0001d0 11 29 8f 3c f3 8c 73 3b 5f 63 20 3d 4d 79 74 3b
       0.017475637 0.003716287 0.039157268 0.0037303746
0001e0 b9 37 c1 bc f7 0f 4c bd 85 8d bc 3b 81 8d 35 ba
       -0.023586141 -0.049819913 0.005754175 -0.0006925688
0001f0 dc 2e aa 3d 34 e1 89 3b 1b ad b8 bc bc 6b 8b ba
       0.08309719 0.0042077545 -0.02254348 -0.0010636966
000200 fb b9 bc bc ce dc 8d b5 67 02 88 b5 b5 f3 68 bd
       -0.023037901 -1.0569581e-06 -1.0133489e-06 -0.056873042
000210 55 2a 35 3c d2 94 14 bd c2 18 4a bd d8 0d 62 bc
       0.011057456 -0.03627474 -0.049340017 -0.013797246
000220 2d 9f 8a 3d e8 83 6a bd 01 1f 31 3d 46 4d 8d 3d
       0.067686416 -0.0572547 0.04324246 0.06899504

fc2.weight f4 [14, 140]
000000 1d 67 c4 bd 0a ac d1 3d e9 a8 ce 3d 8b bf 09 3d
       -0.0958998 0.10237892 0.10090811 0.033629935
000010 63 8c 2c 3c 1c ce b6 3d 82 32 5b 3c 5c 31 ff bc
       0.010531518 0.08926031 0.013378741 -0.031151466
000020 38 7d 99 3d ef dd 35 bd 0a b7 90 bd 39 b5 9a bc
       0.07494587 -0.044401105 -0.07066162 -0.018885242
000030 7f a4 a0 3d 0f 93 b0 bd 81 5c 31 be 72 c8 df bc
       0.07843875 -0.08621799 -0.17320444 -0.02731726
000040 95 04 1b 3e a4 d0 07 bd b9 3f 8a bd 2d 92 c2 bc
       0.15138467 -0.03315796 -0.067504354 -0.023751343
000050 5c 70 89 bd 19 33 d4 bd aa ab 97 3d 5b 6b 83 bb
       -0.06710884 -0.103613086 0.07405789 -0.0040106005
000060 b7 15 dc 3d d0 e4 60 bd dd d5 ab 3d d9 46 49 af
       0.10746329 -0.054905713 0.083904006 -1.8306014e-10
000070 ac 5f da bc 54 1c b3 bc b3 d9 7e bb 43 a3 06 3e
       -0.026656948 -0.021864094 -0.0038887083 0.13148217
000080 20 41 38 37 0b 74 59 bd b2 1f 2e be 03 59 68 3c
       1.0982418e-05 -0.053089183 -0.17004278 0.014181378
000090 15 f6 c6 3c d7 47 90 ba 53 97 4a bc 52 88 81 bd
       0.024287263 -0.0011007738 -0.01236518 -0.06324829
0000a0 02 b2 51 3c 38 c4 77 3d 8c 54 12 3d 55 e6 ad 3c
       0.012798788 0.060489863 0.03572516 0.021227995
0000b0 f5 80 55 3c 42 06 0f bd 2e 50 4f bc 18 c7 ff 3b
       0.013031234 -0.034918077 -0.012653394 0.0078057162
0000c0 9a a7 57 bd 2b c8 83 36 32 b2 92 3d 69 22 0c bd
       -0.05265007 3.927407e-06 0.07162894 -0.034212504
0000d0 31 83 11 3e 92 69 46 bc ef 2d 98 bd 00 81 0c bc
       0.14210202 -0.012110131 -0.07430636 -0.008575678
0000e0 08 49 54 bd 9c 28 01 3e 1a c3 26 38 7b 20 23 3d
       -0.05182746 0.12613147 3.9759187e-05 0.039825898
0000f0 19 c8 0b be e5 92 48 bd 46 ac ba 3b 5c 17 b7 bd
       -0.1365055 -0.048968215 0.005696806 -0.08940002
000100 85 9b 12 3d f0 4b f3 3d db 62 ee bd 0f fe e8 3d
       0.035792846 0.11879718 -0.11639949 0.11376583
000110 6a 42 94 bd 5e 62 2c 3c f7 d5 e9 3c ff 10 a5 bc
       -0.0723923 0.010521499 0.02854441 -0.020149706
000120 dd 9c 95 bc 9c 80 06 bd 50 07 55 3d 9c ea 26 bd
       -0.018263275 -0.032837495 0.052008927 -0.040751085
000130 90 73 7c 3d e8 18 b1 3d 08 f1 78 3c 20 0f a6 3d
       0.061633646 0.086473286 0.015194185 0.081083536
000140 54 14 98 3d c1 01 11 a9 73 81 25 bd 4a 2b 97 3d
       0.07425752 -3.219799e-14 -0.040406656 0.073813036
000150 30 45 b9 3c 1d 17 4d 3e f3 aa f2 bd fd 68 88 3c
       0.022615999 0.20028348 -0.11849012 0.016651625
000160 94 25 6c 3c d9 63 89 bd c6 45 f9 3c 89 5a 81 bc
       0.014413256 -0.067084976 0.030428778 -0.01579024
000170 5e 46 27 bd 0f 77 95 3d fa c0 02 bd 94 39 59 bd
       -0.04083859 0.07298099 -0.031922318 -0.053033426
000180 ab c7 31 bd 2c 3e 53 bd 33 e1 b6 3d 24 b3 56 bc
       -0.04340331 -0.051572964 0.08929672 -0.013104234
000190 37 2a d3 3c dd 4d c1 3d 10 9b d5 bc 06 78 82 ba
       0.025776966 0.09438679 -0.026074916 -0.0009953983
0001a0 62 64 09 bd a9 5c e1 bd 35 25 80 bc 45 50 1f 3c
       -0.033542998 -0.11004002 -0.015642742 0.009723728
0001b0 7d 62 2b bd dc 4f a0 3d 3d c6 bf 3d 64 b9 59 bd
       -0.041841973 0.07827732 0.09363983 -0.053155318
0001c0 1b 58 32 bd 37 64 80 3d e2 4e 66 bc 27 79 34 bd
       -0.043541055 0.062691145 -0.014056893 -0.044060852
0001d0 8d 0d 40 bd a8 25 38 bd 97 25 2e bd da 64 b2 bd
       -0.046887923 -0.044957787 -0.042516317 -0.08710642
0001e0 41 8b 80 bc a7 8a 89 3d 8e a2 e8 39 a8 e1 8e 3d
       -0.015691401 0.06715899 0.000443716 0.06976634
0001f0 2f 22 49 3d 77 fb 29 bc 3e a7 75 3d 1e 7b 3a bd
       0.049104866 -0.010374895 0.059973948 -0.04552757
000200 51 e8 15 3e 3d ea f1 b8 b1 6c 24 36 86 61 3f be
       0.14639403 -0.00011535406 2.450117e-06 -0.18689546
000210 71 5d e4 bd 8b 12 e4 bd 0d dc bc bd 57 09 97 3d
       -0.11150635 -0.11136349 -0.09221659 0.07374828
000220 2b b1 bd 3c 06 a7 91 bd 5f 2d 3b 3d f1 3a 41 3e
       0.02315577 -0.07111935 0.045697566 0.1887014
000230 ae ee 38 bd 54 8b 80 3c 3c 21 aa bd 8e bb ea bd
       -0.045149498 0.015691437 -0.0830712 -0.114615545
000240 67 76 98 bd 41 92 89 3d aa ce 7c bd a4 f9 a1 bd
       -0.074444585 0.06717349 -0.061720528 -0.07908943
000250 ca 69 c0 3d cc 9a 19 be c1 f2 a4 3d 9c 08 77 bd
       0.09395178 -0.15000457 0.08054114 -0.060310945
000260 de d7 cd 3d 75 21 6d bd df ec d4 bd 0c 65 93 bd
       0.10050939 -0.057893235 -0.10396742 -0.071970075
000270 d6 c3 4d 3d 0d d2 57 bd aa 44 fa 3d b0 3a ea bd
       0.05023559 -0.052690554 0.12220128 -0.11436975
000280 04 56 ae bd 4b de eb 3d b2 cd fa 3d 95 73 8c bd
       -0.085125 0.115170084 0.122462645 -0.06857983
000290 74 ec f4 bd 27 27 12 3e d8 d3 74 3d 53 9e 85 b4
       -0.11959162 0.14272748 0.059772342 -2.4888377e-07
0002a0 23 4a 05 bd 77 c3 a0 bd 2a 09 04 bd 3c 2e 74 bd
       -0.032541405 -0.07849782 -0.032235302 -0.059614405
0002b0 da 46 cb b0 49 cf 83 bd fc d4 8f 3c 79 65 29 bd
       -1.4790331e-09 -0.06436021 0.017557614 -0.041356537
0002c0 ed cb 1b bd e6 e5 02 bc 53 36 48 bd 0a 5a 12 bd
       -0.038036276 -0.007989382 -0.048879933 -0.0357304
0002d0 17 88 23 bd 6b 3c 8c bd d4 bf 9b bd c9 d8 82 bd
       -0.039924707 -0.06847461 -0.07604948 -0.06389005
0002e0 59 24 07 3e c1 37 8f bd 72 11 c3 bd e2 99 59 bd
       0.1319746 -0.06993056 -0.09524812 -0.05312527
0002f0 61 3a c9 bd 6d 5e 17 b0 5b 61 a8 bd 5b 78 8d bd
       -0.09825588 -5.5067667e-10 -0.08221694 -0.069077216
000300 5a 95 1e bd 3c d0 86 bd 06 82 87 bd f5 f1 91 bd
       -0.03871665 -0.06582686 -0.06616597 -0.07126228
000310 2b b7 5f bd a1 4c 4b bd 82 7f 44 b2 53 74 ce bd
       -0.054618042 -0.049633626 -1.14376935e-08 -0.10080781
000320 f3 05 b7 bd 8c 8a 90 bd 9b a4 0c 3e 5b d8 0f be
       -0.089366816 -0.07057676 0.13734667 -0.14047377
000330 82 90 11 3e 20 08 cf 3d f4 33 57 3c 36 32 e0 3d
       0.14215282 0.101089716 0.013134945 0.10947077
000340 e3 18 80 bd 40 df c9 bd e9 ef a4 bd 3e b9 5a bd
       -0.06254747 -0.09857035 -0.08053572 -0.053399317
000350 7c 34 0a 3e d1 18 83 bd df 6e eb bc dd f3 8d bd
       0.13496584 -0.06401218 -0.02873939 -0.06931279
000360 4c b9 bc bd b5 95 e0 3d 1d ae a4 bc 23 dc bf 3d
       -0.0921503 0.10966054 -0.020102555 0.093681596
000370 35 ed 37 bd 5b 4d 7b ac e5 d0 82 bd 61 05 a9 3d
       -0.044903953 -3.5712186e-12 -0.063875 0.08252979
000380 a5 11 07 be 0d 64 3a 3b 33 c4 20 3e 15 c9 76 3b
       -0.13190325 0.0028440983 0.15699844 0.0037656475
000390 0d 70 2f 3c 4c 0b a8 bc e5 3b 33 bd 30 76 96 bd
       0.010707867 -0.0205132 -0.04375829 -0.07346761
0003a0 47 82 0f 3e e7 12 8c bd c4 42 5c bd b8 37 5d bc
       0.1401454 -0.06839543 -0.05377461 -0.013502054
0003b0 24 a4 7f bd e9 3b 76 bd 4c bd 7c 3d 81 a4 a7 bd
       -0.062412396 -0.06011573 0.061703965 -0.081856735
0003c0 37 08 5b bd 87 e4 2a bd 7e fe 01 3e bb 5e ee 37
       -0.05347463 -0.041721847 0.12694737 2.8415923e-05
0003d0 48 26 76 bd 01 4a 5c 3d 89 fd 04 bd 5f e6 85 bd
       -0.0600951 0.053781513 -0.032468352 -0.065380804
0003e0 30 af 8d bd 52 8f 24 3d 64 98 82 3d 17 57 9c bd
       -0.0691818 0.040175743 0.063767225 -0.076337986
0003f0 62 05 39 3a 9f fc bb 3d 42 f4 46 bd 5c b6 12 3e
       0.0007057992 0.09179043 -0.048572786 0.14327377

fc2.bias f4 [14]
000000 5f 33 08 3f b2 2d 16 3f 69 d2 db 3d c2 4e cc 3d
       0.53203386 0.58663476 0.10733492 0.09975959
000010 7f 62 8e 3e a9 9b d7 3c 7a 30 28 3d a6 64 75 3d
       0.27809522 0.026319342 0.041061856 0.05991044
000020 82 51 c0 3c 83 6f 7f 3e a4 b5 74 3e 00 25 31 3d
       0.023476366 0.24944882 0.23897415 0.043248177
000030 c8 7e 8f 3d 86 69 f5 3c
       0.070066035 0.029957544
