Response14/state_dicts/10_runs/modelStateDict_1000_shallow_4.pth (torch, 89287 bytes, 5 tensors)

conv1.weight f4 [1, 1, 3]
00000000: 7c15 ab3e 9c7c cd3e f068 3bbd
0.3341483 0.40134132 -0.045754373

fc1.weight f4 [140, 140]
00000000: 5341 0d3c c64b 263d 9c5b d13d e7f9 c8bd
00000010: 611e 0ebe d720 fcbc 7d89 55bd 48f3 b83a
00000020: 9953 2d3d 17e5 803d 4d3d 303d 0d45 2ebd
00000030: 0a3c 94bd 7cdf 0b3d f8d5 7d3d acbe b63d
00000040: 2bae b4bd 7308 d23d 0905 c93d 3cde 27bd
00000050: e575 eebb 3f01 14bd de96 d9ba a21b 02be
00000060: dffb cebc a1a8 d7bb e355 3b3c 1664 e23c
00000070: f762 413d 37df 263d 5f58 4f3c 7d82 713b
00000080: 6d0a 903c 4cac 033a 5c67 6e3d ab06 103d
00000090: 406d a6bc 7fb8 41bb 3ba4 a7bb 2e8c 0e3d
000000a0: ce6f 79bd 03c4 b3bd d93b 0f3c a65d 0abd
000000b0: 2ca1 11bc 1c68 73bd dc61 06bd a4fa 963d
000000c0: 997f 203c 8bac 763d d200 1dbd 3801 7b3d
000000d0: 2ddd 963d 4d27 26bd 5126 62bd 1662 0f3d
000000e0: 2f1a e53c f184 f2bc 410e 05bd ddf6 3fbb
000000f0: bc63 0b3d a6b8 0e3b 2f53 cd3c 91e7 e3bc
00000100: 2cc9 053d bb9b 2d3b 8801 4fbd 3cc8 80bd
00000110: a07a 7fbb 2c5b 9c3c 3f18 743c 30cb 363c
00000120: 9456 9b3d b012 d53c ccb9 433b 35c3 b6bd
00000130: 93f1 43bd 6bf6 f2bc 7ac0 23bd 6b22 04bd
00000140: a940 a1bb e152 16bd a2b8 b93d ceab ae3d
00000150: 1e3d 253d c899 bd3c 4bd8 34bd 51a3 9dbb
00000160: 5263 873c 6473 ba3c b972 a0bc 9a49 91bc
00000170: a414 c73c b086 80bc 6c74 90bd 58e5 233e
00000180: 5013 37bc f904 ae3d 5119 ac3c e33e 973d
00000190: de70 8abd 6e93 713d 18d0 89bd 1869 8fbd
000001a0: 1954 173d df1c 93bd 223c 813d bce3 453d
000001b0: 1a83 67bd 766d 43bd 540a 4ebc 844e ad3d
000001c0: 4a11 b3bc a222 babc 68c9 a7bd 2cf7 753d
000001d0: f29c b3bc 9b33 843d 6deb c63d 7613 12bd
000001e0: 7a39 773d bdd5 f5bc 2c5f 02bd 6f1e 8e3c
000001f0: 82d9 0ebc a4aa a3bc 3108 763c 67c4 dabc
00000200: 7840 6dbc 2b48 40bb d5f1 fe3b 274a 303d
00000210: 8166 1bbe d784 4b3d 5a73 993c 4326 f93a
00000220: f8f3 ebbc ddba b63c 9566 85bd 2b19 fcbc
00000230: ce4d c53c e339 323c 3539 853d ef2e 663d
00000240: 4974 1bbe 8052 0dbd 614c 3f3d b4a8 f03c
00000250: cbde 4d3d 5a8a 553d df5e e4bc b9d3 a5bd
00000260: 7870 9cbd 66a9 563c a71a 0ebd 8abf 9dbd
00000270: fa4b 7dbd fc08 6c3c 9269 bd3d 9d03 923d
00000280: 7d0e 0bbd 3833 86bd 9b72 0ebc b278 ea39
00000290: fa5d 74bc 171b 28bd 0d1c b4bc a69e 93bc
000002a0: 195d 313b 8e11 53ba 435c 94bc 7d4a 71bc
000002b0: 916e 7a3c 7631 543c 1b60 61bc 5b33 87bb
000002c0: 46d3 f4bc 1c83 e5bb bc43 1cbc c69e e03c
000002d0: 8bd4 0dbd 2548 1fbd 7fa8 893d de24 5abb
000002e0: f4b3 b1bc 75db 34bd 3af8 c5bb b981 8fbd
000002f0: 5d1b e3bb fcbe fcbb 15b9 9d3d 0c1e 983d
00000300: 7914 dc3c dc88 1d3d f681 053d 9514 fd3c
00000310: 7f12 053d 8531 4cbd 4022 9d3d 8e1f 553c
00000320: eb72 3dbd 37d6 1fbd 982c 923c 8fa1 963d
00000330: b1ac b73d 3bf9 223d a714 e6bb aa61 1ebd
00000340: 7221 5fbb 2594 4abd bcaf a73d 8670 c73c
00000350: 9047 193b d8a5 663d f429 09bb cd19 93bd
00000360: 36e8 7cbc 717b 5ebd b6bd 7abd 87cf 6fbd
00000370: 736a 36bb 6a46 723d fd31 dc3c 9662 b13d
00000380: 66bb a5bd 36c2 383d 4b12 b4bb bbaf 963d
00000390: 98d6 533d 655f 15bd ad8c 1e3c be50 93bd
000003a0: 49aa 123c be73 a2bd 3bf0 ddbd be6f 1c3e
000003b0: 3e16 a13b 2452 1c3d 5431 b5bd 6950 f1bc
000003c0: b8cc 67bc 1cc0 aebd 2a96 3c3c 639e 9fbc
000003d0: 00a8 07bd 6219 143c a224 93bd be0c 393c
000003e0: fcc0 c9bd 7c59 40bd 29af 3dbd 9f09 e03d
000003f0: 6af8 8fbb 1ced 44bc fe09 883c 152d ff3d
0.008621532 0.040599607 0.10222551 -0.0981329 -0.13878776 -0.030777378 -0.052133072 0.0014110589
0.042316053 0.062936954 0.04302721 -0.04254632 -0.07238014 0.03414868 0.061971635 0.089230865
-0.088222824 0.10255518 0.098154135 -0.040983424 -0.0072772377 -0.036134 -0.0016600748 -0.12705854
-0.025266586 -0.0065813814 0.011434051 0.027635615 0.04721352 0.040740218 0.012655347 0.0036851459
0.017583096 0.00050229277 0.05820404 0.03516261 -0.020315766 -0.002955943 -0.0051160133 0.034801655
-0.06089764 -0.08777621 0.008742296 -0.033780716 -0.008888524 -0.05942546 -0.03280817 0.07372025
0.009796047 0.060223144 -0.03833086 0.06128046 0.07366405 -0.040564824 -0.055212323 0.03500565
0.027966587 -0.029604407 -0.032484297 -0.002929143 0.03403066 0.002177754 0.02506408 -0.02782038
0.032662556 0.0026490528 -0.05053857 -0.06288192 -0.0038983002 0.019086443 0.014898359 0.011156842
0.07584873 0.026009887 0.0029865382 -0.089239515 -0.047837805 -0.029658517 -0.03997848 -0.032259386
-0.004921038 -0.036700133 0.09068419 0.08528863 0.04034149 0.023144618 -0.044151586 -0.0048107286
0.016526852 0.0227601 -0.019585954 -0.017735291 0.024301834 -0.015689224 -0.07053456 0.16005456
-0.011174038 0.08497042 0.021008166 0.073850416 -0.06759809 0.05897849 -0.06729144 -0.07002467
0.036945436 -0.07183241 0.063102975 0.048312888 -0.056521513 -0.047711812 -0.012575705 0.08462241
-0.02185883 -0.022721592 -0.08192712 0.060050175 -0.021925423 0.064551555 0.09712873 -0.03566309
0.06035755 -0.030009145 -0.031829044 0.017348496 -0.00871885 -0.019978829 0.015016601 -0.02670498
-0.014480703 -0.002933989 0.0077802935 0.043039467 -0.15175821 0.049687233 0.018731762 0.0019008595
-0.028802857 0.0223059 -0.065137066 -0.03077372 0.024084952 0.010878059 0.06505052 0.056197103
-0.15181078 -0.034502506 0.0467037 0.029377319 0.0502613 0.052133895 -0.02787727 -0.080970235
-0.07638639 0.013101911 -0.034693386 -0.07702549 -0.061840035 0.014406439 0.092486516 0.071295954
-0.033949364 -0.06552738 -0.008694316 0.00044721883 -0.014914984 -0.04104146 -0.021986032 -0.018019985
0.0027063547 -0.0008051627 -0.0181104 -0.014727232 0.01528515 0.0129512455 -0.0137558235 -0.004125995
-0.0298859 -0.007004155 -0.0095376335 0.02741946 -0.034626525 -0.03888716 0.06721591 -0.0033286135
-0.021692254 -0.044154603 -0.006041554 -0.070071645 -0.006930752 -0.007713197 0.07701317 0.07427606
0.02686523 0.038460597 0.032594644 0.030893603 0.032488342 -0.049851913 0.07672548 0.0130080115
-0.046252172 -0.03902265 0.01784353 0.073550336 0.08968485 0.039788466 -0.007021505 -0.03866736
-0.0034047035 -0.049457688 0.081878155 0.024345648 0.0023388602 0.056310505 -0.0020929547 -0.071826555
-0.015436223 -0.05431694 -0.06121608 -0.058547523 -0.0027834445 0.059149183 0.026879305 0.08661382
-0.08092384 0.04510709 -0.0054953448 0.07357737 0.051718324 -0.03646793 0.009677094 -0.07193135
0.008951732 -0.07932232 -0.10836836 0.15277001 0.0049159816 0.038164273 -0.08847299 -0.029457288
-0.01414793 -0.08532736 0.011510411 -0.019484704 -0.0331192 0.009039255 -0.071847215 0.011294542
-0.09851262 -0.04696034 -0.046309624 0.10939335 -0.004393627 -0.012019422 0.016606327 0.124597706

fc1.bias f4 [140]
00000000: 9a90 b13d 4805 dc3d 82bf 843d 7827 343b
00000010: a5cd c23d 0c2a c7bd d977 ef3d e856 2039
00000020: 2266 5cbd 1397 81bd f433 aa3d 4109 f6bd
00000030: f982 ad3d ef9d ca3d 6e0f 893d 791a 0c3e
00000040: a42e bebc f167 c73d b4fe 843d d681 44bd
00000050: 24f6 863d b205 cc3d 0d6c 873c 447e 073e
00000060: ecd6 e23d 34d5 dcbc a91a 843d 7920 d83d
00000070: 9e98 483d 4ffc 25bd a349 1f3d c057 d83d
00000080: deb9 abbd 3da6 d23d da9a 573c f03c c63d
00000090: ca0b 613d dcd7 8a3d e308 bebd ecb8 cfbd
000000a0: 4354 adbd 0e69 b23d 0d59 ab3d f5b3 9c3d
000000b0: e15b 82bd 9b8b b1bd 102f 863d 8c49 55bd
000000c0: 42c0 a13d 6fa9 cd3d 435e dd3d 995e 08bd
000000d0: 0f02 e83d e425 64bd d516 c33d 7437 a03b
000000e0: 51e3 353d ab3a 993d ffc7 723c d311 c9bd
000000f0: 4d43 c73d a73e d93d cd92 9fbc 24fb b83d
00000100: a790 12bd 4ced 853d 727a bb3d 394a f4bd
00000110: f047 073e 9ea7 b63d ab21 e33d 03c6 573d
00000120: 78dc 343c 1935 b33d 727d 1abd 88ec 8d3d
00000130: 0986 d3bc 7a31 d4bc d563 b93d 20f1 9b3d
00000140: 1001 443d dc70 ad3d c89a 953d 56d5 2b3d
00000150: 2c18 50bd 93c3 bfbc 5cdb 653d 78f2 2bbd
00000160: 17a0 a2bd 4d80 a43d 60dd 843d 263d 2a3d
00000170: d0b6 a33d c1cd eabc 2f69 d1bc b9e3 8c3d
00000180: 400c ef3c d1cb 78bd 1532 c43d 5d18 893d
00000190: 91de b13d 64af 773d e25f bf3d 6128 143d
000001a0: 9e12 c33d cff4 803c d418 9abd ba11 8d3d
000001b0: 1ed3 633d 77f2 cb3c 0fcb b1bd d0ab e23d
000001c0: 04b3 6a3d 6f29 dfbc 7e79 bfbd f6ef 95bd
000001d0: 6ee2 453d 93e5 2fbd 37f2 01bc d02c 43bd
000001e0: 8a2b a03d c3d2 95bc f4b1 843d 9e18 c13d
000001f0: 3831 08bc 90b6 b53d a902 a23c 1d34 2fbc
00000200: a0db 193d 5d66 59bd b9d9 343d 50c7 163d
00000210: 866e 293d 3741 76bd 924a a33d 5e97 ad3c
00000220: 4d51 b9bc a153 e8bd 454a 0fbe 7621 3a3d
0.08670159 0.10743195 0.0648184 0.0027489346 0.0951188 -0.09724817 0.11692781 0.00015291164
-0.05380834 -0.06327643 0.083106905 -0.12013484 0.08472247 0.09893405 0.06692396 0.13681974
-0.0232156 0.09736622 0.06493893 -0.047975384 0.06589916 0.09962024 0.016531015 0.1323176
0.11076149 -0.026957132 0.064503975 0.10553069 0.048973672 -0.040523823 0.038888585 0.10563612
-0.08385061 0.10285614 0.013159478 0.09679592 0.054942884 0.06779453 -0.09279039 -0.10142693
-0.08463337 0.08711444 0.083665945 0.076515116 -0.06365181 -0.08669206 0.06551945 -0.052072093
0.078979984 0.100420825 0.108089946 -0.03329334 0.11328518 -0.055700198 0.09525839 0.004889423
0.04440624 0.07481893 0.014818191 -0.09817853 0.097296335 0.10607653 -0.01947918 0.09032276
-0.035782482 0.065394014 0.09154214 -0.11928219 0.13211036 0.08918689 0.11090406 0.052679073
0.011038892 0.08750362 -0.03771729 0.069298804 -0.025820749 -0.025902499 0.090522446 0.0761435
0.047852576 0.08468792 0.07304913 0.0419515 -0.050804302 -0.023408687 0.0561174 -0.041979283
-0.07940691 0.08032284 0.064875364 0.041562222 0.07993853 -0.028662564 -0.02556285 0.06879372
0.029180646 -0.06074125 0.09579865 0.066941 0.08685029 0.06047 0.0934446 0.03617132
0.09525035 0.015741734 -0.07524267 0.06888147 0.05562126 0.02489589 -0.086813085 0.11067927
0.05729963 -0.027241437 -0.09349345 -0.073211595 0.048311643 -0.04294355 -0.007931284 -0.04765016
0.078208044 -0.018288976 0.06479254 0.094285235 -0.008312516 0.08872712 0.01977666 -0.010693577
0.037562966 -0.053076137 0.04415295 0.036811173 0.04136517 -0.060120787 0.079732075 0.021190342
-0.022621775 -0.11344076 -0.13993175 0.045442067

fc2.weight f4 [14, 140]
00000000: 0a2d ff3d 47cf e23c 1eaf 2b3e d9ea df3d
00000010: adfe 263e 0a16 26be 7ad8 eb3d 0548 8dbd
00000020: 9342 07bd 157d 6fbd 7bc3 253e 1a1b 15be
00000030: 822f 153e ada9 203d 8abb b63d 562d 083e
00000040: f9b2 cfbd 24a8 c1bb 2b48 503e b2e0 27be
00000050: d9d4 f23d 8e5d 033e 83eb 0e3d 0b55 0c3e
00000060: 79fd fc3d bb33 cdbd b750 a43d 35f0 ee3d
00000070: e911 b2bd 4dd1 5fbb a15c 9dbd 000d 303e
00000080: 7597 b6bd 918c 823c 2455 4a3d 54e5 1a3e
00000090: df59 6d3d 61c4 013e 5f4d b2bd 0446 1b3e
000000a0: be39 e5bd c3ce 953c 666d 113c 8258 273e
000000b0: c69a c2bd 4361 2dbd 4c7a 11bd 151d bfbd
000000c0: 8045 453d 9d91 27bd 7671 543d 6b06 243c
000000d0: 7d7e 653e 6c9f bebd 575d 723d 9f15 2fbe
000000e0: a02c fdbc a3be dd3d e9ac fc3b cd1d 28be
000000f0: f018 6e3c 5c33 bc3d 3088 6abd 06cd 483e
00000100: 176b 9bbd a004 2d3e cd24 b23d de33 29bd
00000110: 0f6b 4b3b b67f 943c 8cc3 433d e689 433d
00000120: 2020 87bc abb7 423d 6afb edbd f90b e63d
00000130: bb92 1f3d 228e 3fbb 4b77 013e a285 6b3d
00000140: 80b1 bb3d 7520 843d 9e23 1d3d 5a00 e43c
00000150: 33ea aabb 93c2 173e e503 423e f1f9 a43d
00000160: 53a6 bf3b ab13 2d3e c02c 3b3e 3dea c23d
00000170: abad 8c3d c7a9 c73c 7f72 79bd eae8 433d
00000180: 0273 96bd a8f4 80bd 9873 a13d 4dbd 093e
00000190: 691a 2b3c 83d7 093e d4db aa3d 3704 f3bd
000001a0: 3928 c5bd ba30 9ebd 5487 f0bd 0395 2e3e
000001b0: a903 6d3d 2d13 993b f7e5 833c 5f42 30bd
000001c0: 3611 013e f6a3 ccbd b3d5 fcbd 0e9e 1fbe
000001d0: 8103 c93c 75b5 dfbd 1101 2abd ccf4 ab3c
000001e0: b696 0abc 946b 81bc 8fc3 1f3d 1545 903d
000001f0: eabf 8abd 7d5f 563e bb73 c5bd 8ccb dbbd
00000200: 55bf dc3d 400c a3bd c249 30bd a096 9d3c
00000210: 94b8 c3bc 5863 0e3e d1eb 2b3e 01b3 7dbd
00000220: bb71 30bd 8bcc 4abd 300e 92bd 635d 85bb
00000230: cbeb 4c3e 7299 6a3e 242a 8c3c 6e54 dfbd
00000240: 3562 e83d 3a33 13be 5707 833c 1c79 afbc
00000250: b8e7 ce3b 60b7 01be fdd4 5f3e 43e3 6fbd
00000260: adda 81bc 0bf5 1dbe 055e 1d3d 1e00 e4bd
00000270: b3e9 adbd 3610 0b3e 03a4 9c3c 6f33 bebd
00000280: c1a1 423e b190 553c fc05 ddbc 46d2 93bb
00000290: a5e2 56bc 5d32 94bc 74a6 d9bd 723f 8d3d
000002a0: 8267 5bbd fa17 a8bd ae05 36bd 405c 53bd
000002b0: c2c2 173c 4e6c b33d 9771 abbd 7098 9c3d
000002c0: 75a7 f7bd a4d6 1a3e 7b7f 11be f834 58bd
000002d0: e099 a6bd 239d 183e 266c bb3d 702f 963d
000002e0: 714b 503b 27d2 89bd d633 91bd 98d2 053e
000002f0: 3382 273d d044 963d 8b0c 623e 814a 7f3c
00000300: 9613 1d3c 2c0d 103d 9c43 363d fb4a 033e
00000310: 23b0 33be a8d3 973d 74f5 283d ac8b 24be
00000320: 671c aa3d 178d b93c 46a6 2dbd 5ae0 113e
00000330: 5c17 1dbd bad7 583e e6f7 303e 8a19 14bd
00000340: b1e2 293e 41df 7bbd 253c 9d3d 722a 3cbc
00000350: 13a2 ddbd f6f9 063e 03ea 223e 2a54 3c3e
00000360: 5efb 0dbe 6f0e 22bd de2b 3b3e 0d44 ca3d
00000370: 7722 10bd 562a 5f3e b49f 793d 5283 ddbb
00000380: f617 13be 1dd1 23be bf14 0b3e 5584 9cbd
00000390: 17e7 e5bd 7d77 a43d 30df 733e d4ac ecbd
000003a0: 3bc1 243e c62d 03be 3515 4bbd fb1d ac3d
000003b0: 56f4 98bd b1fb 9ebd 5ba4 acbb 2cfe d13d
000003c0: 25e9 df3d 08e3 093e f25b 5d3e 9e7d 163e
000003d0: 9bae 2dbd 5341 a6bd 7a86 aebd c06d c33d
000003e0: 38b4 513d d191 a53d 9cf1 643c 4594 e63d
000003f0: ed81 0a3e d535 35bd a88c a23d 686c d2bd
0.124597624 0.027686728 0.1676602 0.109334655 0.16308089 -0.16219345 0.11515899 -0.06898502
-0.033022474 -0.058468897 0.16187851 -0.1456112 0.14568904 0.039224315 0.08922489 0.13298544
-0.10141558 -0.0059099365 0.2034003 -0.16394308 0.11857004 0.12828657 0.03489257 0.13704316
0.123530336 -0.100196324 0.08023208 0.116669096 -0.08694822 -0.0034151853 -0.07683683 0.17192459
-0.08915607 0.015936168 0.049397603 0.15126544 0.057947036 0.12672569 -0.087061636 0.15163428
-0.11192654 0.018287068 0.00887618 0.16342357 -0.09502177 -0.042329084 -0.035517022 -0.09331719
0.048161983 -0.040910352 0.051866017 0.010011296 0.22411533 -0.09307751 0.059171047 -0.17098092
-0.030905068 0.10827377 0.007711042 -0.16417618 0.014532313 0.091894835 -0.057258785 0.1960946
-0.07588785 0.16896296 0.086984254 -0.04130923 0.0031039154 0.018127304 0.04779391 0.047738932
-0.01649481 0.04753844 -0.11620219 0.11232752 0.038958292 -0.0029229005 0.12643163 0.05750049
0.09164715 0.06451503 0.038364045 0.027832199 -0.005215907 0.14820318 0.18946798 0.08055485
0.005848685 0.16902034 0.1827879 0.09517334 0.06869062 0.024372948 -0.060900208 0.047829546
-0.07346155 -0.062966645 0.07883376 0.13451119 0.010443308 0.13461117 0.0834271 -0.11866038
-0.096268125 -0.077241376 -0.11744562 0.17049031 0.05786482 0.0046714754 0.016100867 -0.043032046
0.12604222 -0.099922106 -0.123454474 -0.15587637 0.024537804 -0.10923282 -0.041504923 0.020990752
-0.008458784 -0.015798368 0.03900486 0.07044426 -0.06774886 0.20934863 -0.096412145 -0.10732183
0.10778681 -0.07961321 -0.04303909 0.019236863 -0.023891725 0.13905084 0.16789176 -0.06193829
-0.04307721 -0.049511474 -0.07131612 -0.0040699705 0.20011823 0.22910097 0.017109938 -0.109047756
0.113468565 -0.1437501 0.01599471 -0.021420054 0.006314244 -0.12667608 0.21858592 -0.058566343
-0.015851343 -0.15425508 0.038419742 -0.11132835 -0.0849184 0.13580403 0.019121176 -0.09287154
0.19007017 0.013034985 -0.026980393 -0.0045111505 -0.01311556 -0.018090421 -0.106274515 0.06896867
-0.05356551 -0.08207698 -0.04443901 -0.05160165 0.0092627425 0.08760892 -0.08371275 0.07646263
-0.12092487 0.15120941 -0.14208786 -0.05278489 -0.08134818 0.14903693 0.09151487 0.07333267
0.0031783248 -0.067295365 -0.07089965 0.13068616 0.040895652 0.07337344 0.22075097 0.015581728
0.009587189 0.03516881 0.04449807 0.12821572 -0.1754766 0.07413417 0.041249707 -0.16068906
0.083061986 0.022650285 -0.0423949 0.1424574 -0.038352355 0.21176043 0.17282066 -0.03615717
0.16590382 -0.06149221 0.07677487 -0.011484729 -0.10821929 0.1318129 0.15909581 0.18391481
-0.1386542 -0.039564546 0.18278453 0.09876261 -0.03518912 0.21793494 0.06094332 -0.0067600394
-0.14364609 -0.15997739 0.13582133 -0.07642428 -0.112257175 0.08030603 0.23815608 -0.11556402
0.16089337 -0.1281043 -0.04958077 0.08404156 -0.074684784 -0.0776285 -0.005268616 0.102535576
0.10933141 0.13465512 0.21617106 0.14696357 -0.042402845 -0.08117928 -0.08521743 0.095424175
0.05119726 0.08084453 0.01397362 0.11258749 0.13526125 -0.04424079 0.07936984 -0.10274583

fc2.bias f4 [14]
00000000: dd24 b73d 58e4 a03d 9a35 ae3d 7a65 733d
00000010: 1906 ae3d 8951 253d 6c4c 453c d56f 2f3d
00000020: f92b 953c 1ddc 703d eab8 e63d 6893 05bd
00000030: bf7f 803d d632 473d
0.08942578 0.07856053 0.085063174 0.059422947 0.08497257 0.04036096 0.012042146 0.04283126
0.018209444 0.058803666 0.11265738 -0.03261128 0.06274366 0.048632465
