Response14/state_dicts/10_runs/modelStateDict_1000_shallow_0.pth (torch, 89287 bytes, 5 tensors)

conv1.weight f4 [1, 1, 3]
0	0xbe908c4e	-0.28232044
1	0xbed7416f	-0.4204211
2	0xbcc3c357	-0.023896856

fc1.weight f4 [140, 140]
0	0x3ccae538	0.024767503
1	0xbd98abf8	-0.074546754
2	0xbd882bcd	-0.06648979
3	0x3e21c56a	0.15797964
4	0x3d6a5a67	0.05721512
5	0xbe376554	-0.17909747
6	0x3e72de8e	0.2371771
7	0x3c7c823e	0.0154119115
8	0x3dba4262	0.09094693
9	0xbde29aa9	-0.11064655
10	0xbcce68a9	-0.02519639
11	0xbe0256ba	-0.12728396
12	0xbd6c1389	-0.057635818
13	0x3cf8b2b0	0.030358642
14	0xbdc5c1cf	-0.09656107
15	0x3dd5902c	0.10427889
16	0xbd7178aa	-0.058952965
17	0x3dca26fa	0.098707154
18	0x3e3573ab	0.17719905
19	0xbc924ac6	-0.01785792
20	0xbb4b9f08	-0.0031070132
21	0x3df6f13e	0.12057732
22	0x3d81e8d7	0.06343239
23	0x3db86226	0.09003095
24	0x3de40a4b	0.11134776
25	0x3d044987	0.032296684
26	0x3d956554	0.072947174
27	0x3c7d4cdd	0.01546022
28	0x3d0e2aba	0.034708716
29	0x3e0777a0	0.13229227
30	0xbb6e4f84	-0.0036363313
31	0x3e14cf1e	0.14532134
32	0xbe0dbb01	-0.13840868
33	0x3dfbdbf0	0.12297809
34	0x3c8def95	0.017326156
35	0xbd63b5fa	-0.05559347
36	0xbc703ef1	-0.014663444
37	0x3dc2b4de	0.09507154
38	0x3de56561	0.11200977
39	0x3e156245	0.14588268
40	0x3cb835b9	0.022486554
41	0xbd1f173a	-0.03884051
42	0x3d66d522	0.056355603
43	0xbd1b7182	-0.037950046
44	0x3e223d5c	0.15843719
45	0x3c43309d	0.011913446
46	0xbe331055	-0.17486699
47	0x3e02901d	0.12750287
48	0x3dcf3c1f	0.10118889
49	0x3e14f543	0.14546685
50	0x3df689b8	0.120379865
51	0xbc1f244c	-0.009713244
52	0xbde0f542	-0.10984279
53	0xbdeec408	-0.11658484
54	0xbd25f942	-0.040520914
55	0x3b7bfdaa	0.0038450756
56	0x3d7f258a	0.06229166
57	0xbdb5e717	-0.088819675
58	0xbd6f09be	-0.0583589
59	0x3e082b67	0.13297807
60	0xbe168013	-0.14697294
61	0x3df6aaca	0.12044294
62	0x3dea5f7e	0.11443995
63	0x3de1e669	0.110302754
64	0xbe4c450c	-0.19948214
65	0x3d3aaeab	0.045576733
66	0x3e1ef043	0.1552134
67	0x3d496ad5	0.04917415
68	0xbd3fd431	-0.04683322
69	0x3da87a8d	0.082265
70	0x3d2cafbd	0.042159785
71	0xbdcf0965	-0.10109214
72	0xbe418e35	-0.18901904
73	0x3caa6c72	0.020803664
74	0xbdddc50a	-0.10828598
75	0xbd96e60e	-0.07368098
76	0x3dac371f	0.08408951
77	0x3cb26c25	0.021780083
78	0x3e240df6	0.1602095
79	0xbe143424	-0.14473015
80	0xbd0efb2f	-0.034907516
81	0xbd9a9f6e	-0.0754994
82	0x3e27dacb	0.16392057
83	0xbdac4e59	-0.08413381
84	0x3ccacd30	0.024756044
85	0xbe3acd3e	-0.18242356
86	0xbd98c1a5	-0.0745881
87	0x3e29447b	0.1653003
88	0x3e1966be	0.149806
89	0xbde7bd7f	-0.113154404
90	0xbd80529f	-0.06265759
91	0xbd02f42a	-0.031971134
92	0xbc20cba3	-0.009814176
93	0x3dc2cdb7	0.09511893
94	0xbdb9d865	-0.09074477
95	0x3e154a3b	0.14579098
96	0x3e10e749	0.14150728
97	0x3e121dd0	0.14269185
98	0x3c950dcb	0.018195054
99	0x3bb1dda9	0.0054280353
100	0x3d9b3822	0.07579066
101	0x3d56bacd	0.05242424
102	0x3df3b3d1	0.11899532
103	0x3cf80f4e	0.030280735
104	0xbdaf689e	-0.08564876
105	0xbd9f18fb	-0.077684365
106	0x3e096171	0.13416077
107	0xbe065ccc	-0.13121337
108	0x3e1bebd4	0.1522668
109	0xbe06e253	-0.13172273
110	0x3df407fa	0.11915584
111	0x3d60ee8b	0.054914992
112	0xbdbafa9e	-0.09129833
113	0xbd7222e2	-0.059115298
114	0x3cb4c4de	0.02206653
115	0x3e0e994b	0.13925664
116	0xbe00a667	-0.12563477
117	0xbddadbb3	-0.106864356
118	0xbb65aa43	-0.003504411
119	0xbdf6f2da	-0.12058039
120	0xbc8ad996	-0.016949456
121	0x3df9ea01	0.12202836
122	0x3dfe19d3	0.12407269
123	0xbcf86de5	-0.03032584
124	0x3d02a562	0.031896003
125	0x3de5b701	0.11216546
126	0x3c5d6b9a	0.013514424
127	0x3db8f462	0.09030987
128	0x3d3b57f1	0.045738164
129	0xbdffcb75	-0.12489978
130	0x3d905bdd	0.070487715
131	0xbd941392	-0.07230295
132	0x3e1deba7	0.15421925
133	0x3da59baa	0.08086331
134	0xbd28c291	-0.041201178
135	0x3dbe2772	0.09284867
136	0x3e25f0b8	0.16205108
137	0xbd827b17	-0.06371134
138	0xbdc4c3e1	-0.096076734
139	0x3cd1b8f0	0.02560088
140	0x3d70df94	0.05880697
141	0xbdf67418	-0.12033862
142	0x3d99fc70	0.07518852
143	0x3db4b960	0.0882442
144	0x3caee4fb	0.02134942
145	0x3ced4690	0.02896431
146	0x3cb66cb3	0.022268629
147	0x3dc60e30	0.09670675
148	0x3b62f080	0.0034628212
149	0xbc5899f1	-0.013220296
150	0xbdf6d0cf	-0.12051546
151	0xbe048a7c	-0.12943453
152	0xbe12a92e	-0.1432235
153	0xbde0ae45	-0.10970739
154	0x3d94a9cc	0.07258949
155	0xbd9cb517	-0.07651728
156	0xbd07d403	-0.033161175
157	0x3de70d24	0.11281803
158	0x3d6c43a5	0.0576817
159	0xbd7ae5a3	-0.061254155
160	0x3dbf3f59	0.093382545
161	0x3d2ae3cc	0.04172115
162	0xbe0eaae6	-0.1393238
163	0xbba241a2	-0.0049516717
164	0xbded6700	-0.11591911
165	0xbc5d0cd8	-0.013491832
166	0xbc9510b5	-0.018196443
167	0x3c95fbeb	0.0183086
168	0x3d65e056	0.056122147
169	0x3cb313c6	0.021860015
170	0xbd5b0e57	-0.053480472
171	0x3d674237	0.05645963
172	0xbc91707e	-0.017753836
173	0xbcc93f80	-0.024566412
174	0xbd289b21	-0.041163567
175	0x3de8457f	0.1134138
176	0xbb2b8e92	-0.0026177508
177	0x3de2463f	0.11048555
178	0x3d90bcee	0.070672855
179	0xbdc71f9a	-0.097228244
180	0xbd8d6601	-0.06904221
181	0x3d823d01	0.06359292
182	0xbce22a02	-0.027607922
183	0xbd668b15	-0.056284983
184	0xbcd0ec54	-0.025503315
185	0xbbc613db	-0.0060448474
186	0x3d0f1157	0.034928646
187	0xbd25af79	-0.040450547
188	0xbd26472b	-0.040595215
189	0x3cdeb91c	0.027187876
190	0xbcf9c005	-0.03048707
191	0x3ceaa932	0.028645132
192	0xbce88de0	-0.028387964
193	0xbd6c75f4	-0.057729676
194	0xbd64be58	-0.05584559
195	0xbd1b9b0c	-0.03798966
196	0xbd5d8f00	-0.054091454
197	0x3c3d7284	0.011562947
198	0x3aa53453	0.0012604095
199	0x3d935ba1	0.07195211
200	0x3e03c3e8	0.12867701
201	0x3d2b19ad	0.041772533
202	0xba811b86	-0.0009850122
203	0xbd72e009	-0.059295688
204	0xbd5ab474	-0.05339475
205	0xbc497c87	-0.012297756
206	0x3c33f5a9	0.010983863
207	0x3c8ffab4	0.0175756
208	0x3cb01887	0.02149607
209	0xb9f34fa9	-0.00046407923
210	0xbcb68ff7	-0.022285445
211	0xbd1d58a2	-0.038414605
212	0xbd8419c1	-0.06450225
213	0xbc7943b1	-0.015213893
214	0xbceb562d	-0.028727615
215	0x3cd78323	0.026307648
216	0xbcc11a20	-0.023572028
217	0xbcd8f1bf	-0.026482461
218	0x3d2565df	0.040380355
219	0xbd695a18	-0.056970686
220	0x3d446084	0.047943607
221	0x3df130da	0.11776896
222	0x3dffe885	0.124955215
223	0x3d99e9a1	0.07515264
224	0x3dbc78b2	0.09202708
225	0x3d6724b5	0.05643149
226	0x3ca7cc72	0.02048323
227	0x3bfff8c4	0.0078116376
228	0xbce8fbcb	-0.028440377
229	0xbdfa4c04	-0.1222153
230	0x3d1ffdbe	0.039060347
231	0xbdcb093f	-0.09913873
232	0x3e0a41a5	0.13501604
233	0x3e2cc949	0.16873659
234	0xbd2de64d	-0.04245596
235	0xbdb654d6	-0.089029
236	0xbd950cf4	-0.07277861
237	0xbb4ff561	-0.003173195
238	0xbc4170dc	-0.011806693
239	0x3d1cc10f	0.038270053
240	0x3d816072	0.063172236
241	0x3c9dac70	0.019247264
242	0x3d3330ca	0.0437477
243	0x3d41a81b	0.04727946
244	0x3ca9deec	0.02073618
245	0xbd8d27a5	-0.06892327
246	0xbae8e5b3	-0.0017768651
247	0xbd6db8b5	-0.05803748
248	0xbd0f5357	-0.03499159
249	0xbc224db6	-0.009906223
250	0x3c8c32a6	0.017113995
251	0xbd4b6348	-0.04965523
252	0xbc9ab9f1	-0.018887492
253	0xbcd4d175	-0.025978783
254	0x3d14b8f7	0.03630921
255	0x3d7bb111	0.06144816

fc1.bias f4 [140]
0	0x3dbdfcf2	0.09276761
1	0xbcf3e46d	-0.029772008
2	0x3c854b7c	0.016271345
3	0x3bb54ee4	0.005533086
4	0x3ce4bce2	0.027922098
5	0xbbfa35a2	-0.007635788
6	0xbcdbdeb4	-0.026839592
7	0xbc8ef590	-0.017451078
8	0x3d8ce8cd	0.06880341
9	0xbc9f9bd0	-0.019483477
10	0x3d9b7604	0.07590869
11	0xbd011b6d	-0.031520296
12	0xbd64383e	-0.0557177
13	0x3d7d668a	0.061865367
14	0x3c8c35b8	0.017115459
15	0x3b9a0ebf	0.004701465
16	0xbc74abea	-0.014933566
17	0x3c811526	0.015757155
18	0x3db7449a	0.089486316
19	0x3d3fd0c9	0.046829972
20	0xbe8f66ca	-0.2800811
21	0x3e43960b	0.19100206
22	0xbcd618a5	-0.026134798
23	0xbd471847	-0.048607137
24	0x3d509465	0.05092277
25	0xbd12d737	-0.035849776
26	0x3ea4c0d4	0.32178366
27	0xbcdf04cd	-0.027223969
28	0xbd3c829f	-0.046023007
29	0x3d03cda1	0.032178525
30	0x3d8b802b	0.068115555
31	0xbdcbd50a	-0.09952743
32	0xbc439fa0	-0.011939913
33	0x3d824a35	0.0636181
34	0x3cea803a	0.028625596
35	0xbc519391	-0.01279153
36	0x3bcd24cb	0.0062604896
37	0xbdcdc3d2	-0.100471154
38	0xbd80bdb5	-0.06286184
39	0xbd2d59eb	-0.04232208
40	0xbc2f77f2	-0.01070975
41	0xbb90f660	-0.0044239014
42	0x3ccf27ba	0.025287498
43	0xbd3ce4db	-0.04611669
44	0xbcb8ade8	-0.022543862
45	0xbbc82a59	-0.006108564
46	0x3a6aae6e	0.00089523837
47	0xbd737ef1	-0.059447233
48	0xbc9e2ee4	-0.019309469
49	0xbd4c7352	-0.049914666
50	0xbd13a8fc	-0.036049828
51	0x3c3044cd	0.010758591
52	0x3de1faee	0.11034189
53	0x3e9d2ba2	0.30697352
54	0xbc36e83b	-0.0111637665
55	0xbd83cfaa	-0.06436093
56	0xbcc8c7bb	-0.024509301
57	0xbe742ee8	-0.23846018
58	0x3d923e9a	0.071408466
59	0xbc2e2f2f	-0.010631367
60	0x3ca9c6aa	0.020724613
61	0xbd1cca28	-0.03827873
62	0x3db30f62	0.087431684
63	0x3d4099de	0.04702174
64	0xbdb27df5	-0.08715431
65	0x3e16941f	0.14704941
66	0x3d1a0d02	0.03761006
67	0x3c4006fd	0.011720416
68	0xbcb4a981	-0.022053482
69	0x3ce37609	0.027766244
70	0xbda39606	-0.07987599
71	0xbda80499	-0.08204002
72	0xbcd97d6b	-0.026549062
73	0xbd7b30fe	-0.06132602
74	0x3d18d0c8	0.037308484
75	0xbb46488f	-0.003025565
76	0xbd89c891	-0.06727708
77	0xbd751e9b	-0.05984364
78	0xbd6995ef	-0.057027753
79	0xbcb4f8f9	-0.022091376
80	0x3e43d1fc	0.19123071
81	0xbc5e7246	-0.01357705
82	0xbd9360a7	-0.07196169
83	0x3cc3d8a0	0.023907006
84	0xbc3550e7	-0.011066652
85	0x3de7d1ad	0.11319289
86	0xbccc992c	-0.024975382
87	0x3c9ec83b	0.019382587
88	0xbe4c2980	-0.19937706
89	0x3de40615	0.111339726
90	0xbc6b26de	-0.014352528
91	0xbcc8466f	-0.024447648
92	0xbd3ae72e	-0.045630626
93	0x3e11f4f4	0.14253598
94	0x3d108431	0.035282318
95	0x3c296a1b	0.010340239
96	0x3c0611b0	0.008182928
97	0x3daf7ebc	0.085690945
98	0xbc4405b9	-0.011964255
99	0x3d4f8eee	0.050673418
100	0xbd47fd51	-0.048825566
101	0xbd208a5c	-0.03919445
102	0x3ad992ba	0.0016599514
103	0xbd2f037d	-0.042727936
104	0x3b466688	0.0030273516
105	0xbcba117a	-0.022713412
106	0xbc9c4f9f	-0.019080935
107	0x3dbd5433	0.09244575
108	0xbd4fa552	-0.05069477
109	0xbd34e17c	-0.04416035
110	0x3e892d01	0.26792148
111	0x3ce3086a	0.027713973
112	0xbce34038	-0.027740583
113	0x3ca73540	0.020411134
114	0xbca3970b	-0.019969484
115	0x3d87da97	0.066334896
116	0xbbcd0d5b	-0.0062576956
117	0xbc24e72c	-0.010064881
118	0x3e073db5	0.13207133
119	0x3b369a87	0.0027863102
120	0xbcb1a52f	-0.021685211
121	0xbdb8fe96	-0.090329334
122	0xbd90c858	-0.070694625
123	0x3c2c8f18	0.010532163
124	0x3e38d503	0.18050008
125	0xbd10bf6e	-0.03533881
126	0xbcb7a9b5	-0.02241979
127	0xbcdd694e	-0.027027752
128	0x3d55d53c	0.05220531
129	0xbc54e2cc	-0.012993526
130	0xbc8ed812	-0.017437015
131	0xbd934fbd	-0.07192943
132	0xbd6d7b2a	-0.057978787
133	0xbd329827	-0.043602135
134	0xbdaa8101	-0.08325387
135	0x3d1bb59b	0.03801499
136	0xbc41ef72	-0.011836873
137	0xbcfe4b7f	-0.031041859
138	0xbd05282a	-0.032509007
139	0x3d89aa03	0.0672188

fc2.weight f4 [14, 140]
0	0xbd46fbf0	-0.04858011
1	0xbe11e767	-0.14248429
2	0xbdf66610	-0.120311856
3	0x3d9c539c	0.07633135
4	0x3ce6da66	0.028180312
5	0xbdb37278	-0.087620676
6	0x3dff0ded	0.12453828
7	0xbdadcf7b	-0.084868394
8	0x3e2d3ed7	0.16918503
9	0xbbdf73bc	-0.0068192165
10	0x3e00d569	0.1258141
11	0x3d765d54	0.0601476
12	0xbd11e934	-0.03562279
13	0xbd00e789	-0.03147081
14	0xbc618c61	-0.013766379
15	0xbdb6ae19	-0.08919925
16	0xbbfb1f10	-0.007663615
17	0x3d90afff	0.070648186
18	0x3dc88d99	0.097926326
19	0xbe116841	-0.14199926
20	0xbe31fd33	-0.17381744
21	0x3e048e8e	0.12945005
22	0xbc898099	-0.016784953
23	0x3dbf5b5e	0.09343599
24	0xbd6ef640	-0.05834031
25	0xbcbbafba	-0.022910941
26	0x3e5c4ea6	0.21514377
27	0xbd799429	-0.060932312
28	0x3ddbef69	0.10739023
29	0xbd4f11be	-0.05055403
30	0x3cacf75e	0.021114048
31	0xbe124e28	-0.14287627
32	0xbca9f51d	-0.020746762
33	0x3dfbf636	0.123028204
34	0x3cb8f956	0.02257983
35	0x3c5cb415	0.013470669
36	0x3cf8096d	0.030277932
37	0xbdb69adf	-0.08916258
38	0xbd93eaef	-0.072225444
39	0xbd973666	-0.073834226
40	0x3d21675a	0.039405204
41	0xbc4cf197	-0.012508771
42	0xb9dde13c	-0.00042320217
43	0xbd853bef	-0.06505572
44	0xbe218070	-0.15771651
45	0xbd5b08a5	-0.05347504
46	0xbd2d8f0b	-0.042372745
47	0x3d7da315	0.061923105
48	0xbe03e79a	-0.12881318
49	0xbcd513cf	-0.026010422
50	0x3b8bac16	0.0042624576
51	0x3db90cd0	0.09035647
52	0x3d251d0b	0.0403109
53	0x3e3ebfda	0.18627873
54	0x3b98c506	0.004662159
55	0xbcb694f9	-0.022287833
56	0x3e042eb1	0.12908436
57	0xbdca0c55	-0.098656334
58	0xbd371230	-0.04469508
59	0x3da200a1	0.07910276
60	0x3c032e3c	0.008006629
61	0x3e1f75b5	0.15572245
62	0x3c887ab9	0.016660081
63	0xbd5bdb58	-0.05367598
64	0xbdb0f3ca	-0.08640249
65	0x3dd44176	0.10364048
66	0x3e0d9e20	0.13829851
67	0x3dd7e6c4	0.10542062
68	0x3dd8997f	0.10576152
69	0xbd22a538	-0.039708346
70	0xbcd1f219	-0.025628136
71	0x3b56eb60	0.0032794103
72	0xbe240290	-0.16016603
73	0xbe05d494	-0.13069373
74	0x3ddedc07	0.10881811
75	0xbd2572c9	-0.04039267
76	0xbcb59c3e	-0.022169229
77	0xbc172347	-0.009224719
78	0x3c8492e5	0.016183326
79	0x3d7c5066	0.06160011
80	0x3e168230	0.146981
81	0xbbc4c2ca	-0.006004666
82	0xbde1e030	-0.110290885
83	0xbd882e69	-0.06649477
84	0x3d03d58e	0.032186083
85	0x3e198d06	0.14995202
86	0x3c295aba	0.010336572
87	0x3d369ec5	0.04458501
88	0xbe1c047c	-0.15236086
89	0x3e30856f	0.17238401
90	0x3c10f801	0.008848191
91	0xbe2552a2	-0.16144803
92	0x3d467983	0.048455726
93	0xbca3e918	-0.020008609
94	0x3dac765e	0.08421014
95	0xbd8452a6	-0.064610764
96	0xbd94facd	-0.07274399
97	0xbd814779	-0.063124605
98	0x3e0273df	0.12739514
99	0x3d36f69f	0.04466879
100	0x3d36b628	0.04460731
101	0x3c35ebe6	0.011103606
102	0x3ddac0a0	0.106812716
103	0xbddc0eef	-0.10745036
104	0xbc452846	-0.012033528
105	0xbdda5941	-0.10661555
106	0x3d7ed6dc	0.062216625
107	0x3b643038	0.003481878
108	0xbcdb22d0	-0.026749998
109	0x3d706c86	0.058697246
110	0x3e23b471	0.15986802
111	0xbc9a144b	-0.018808505
112	0xbd168692	-0.03674943
113	0x3bcdb437	0.006277587
114	0x3d9df68e	0.07713042
115	0x3d468dbf	0.048475023
116	0xbda5e182	-0.08099653
117	0xbc7b0757	-0.015321574
118	0x3d27726b	0.0408806
119	0xbd2d50d2	-0.042313404
120	0x3d62b2b7	0.055346217
121	0x3d5d21df	0.05398738
122	0xbdc15c8e	-0.094414815
123	0x3b0e20b1	0.0021686966
124	0x3df1dc75	0.11809627
125	0x3d6bc08d	0.057556678
126	0xbd415860	-0.04720342
127	0x3bf6bd03	0.007529856
128	0x3c18ebdd	0.009333578
129	0xbdd9f475	-0.106423296
130	0x3d32c0fc	0.043641075
131	0xbdac1a00	-0.084033966
132	0xbd7a2e89	-0.061079536
133	0xbd198035	-0.037475783
134	0xbe01db99	-0.12681426
135	0x3e0415de	0.12898967
136	0xbd632888	-0.055458575
137	0x3d93b2bc	0.07211825
138	0xbd97ceea	-0.074125126
139	0xbd69071a	-0.05689154
140	0x3e1bdab5	0.15220149
141	0xbdcca57a	-0.099925
142	0x3cea157e	0.028574701
143	0x3d9520dd	0.07281659
144	0x3d92665f	0.07148432
145	0x3d080e4f	0.03321677
146	0xbd25cce3	-0.0404786
147	0xbd0b0304	-0.033938423
148	0xbddf4f38	-0.10903782
149	0xbd1e6d11	-0.038678233
150	0x3be16bec	0.0068793204
151	0x3de1bf19	0.11022777
152	0xbdc5d4e5	-0.09659747
153	0x3e3ba2df	0.18323849
154	0xbcb64f0e	-0.022254493
155	0xbd8b1863	-0.06791761
156	0x3c8b76e2	0.017024461
157	0xbccbb290	-0.024865419
158	0x3e16ae37	0.14714895
159	0xbdd0e295	-0.10199467
160	0xbd4ad7ef	-0.049522337
161	0x3e3633b3	0.17793159
162	0x3c7b90bb	0.015354331
163	0xbd398ebc	-0.045302138
164	0x3d496578	0.049169034
165	0xbe08fcb0	-0.13377643
166	0x3df0c146	0.11755614
167	0x3d153f92	0.03643758
168	0xbe19ce22	-0.1502004
169	0x3e2d70bc	0.16937536
170	0x3da61e2e	0.08111225
171	0xbd58a25c	-0.052889213
172	0x3c8cded6	0.0171961
173	0x3d9452fc	0.072423905
174	0x3e37bae7	0.17942391
175	0xbdd6379a	-0.10459824
176	0x3de43eab	0.111447655
177	0xbd83d35f	-0.064368
178	0xbde5d4fc	-0.11222264
179	0xbb1875d1	-0.0023263583
180	0xbe10c324	-0.1413694
181	0x3e11b3be	0.14228722
182	0xbdfe36f6	-0.12412827
183	0x3d6b7440	0.05748391
184	0x3d1a10f7	0.037613835
185	0xbc944fb2	-0.018104408
186	0xbdb8eae6	-0.09029178
187	0xbe13bf5a	-0.14428464
188	0xbdbdf55f	-0.092753164
189	0x3be41c16	0.006961356
190	0x3d9aa3ad	0.0755075
191	0xbdb4d639	-0.08829922
192	0x3d9d8299	0.07690925
193	0x3e444f2e	0.1917083
194	0xbc1afbfc	-0.009459492
195	0xbd28984e	-0.041160874
196	0xbe24e63a	-0.1610345
197	0xbc30c036	-0.010788014
198	0xbb95789a	-0.004561496
199	0xbe01fde1	-0.12694503
200	0xbe02a7f2	-0.12759379
201	0xbda880d5	-0.08227698
202	0x3d1f8a41	0.03895021
203	0x3dc0630e	0.09393893
204	0xbd773e6c	-0.060362265
205	0x3d443b69	0.04790822
206	0x3e2bc83d	0.16775604
207	0xbd835c93	-0.064141415
208	0x3dad6677	0.08466809
209	0x3d0b9c23	0.03408445
210	0x3dcad2a9	0.099034615
211	0xbc9f522a	-0.019448359
212	0xbcdb58ce	-0.026775744
213	0xbd10858d	-0.035283614
214	0xbe1a0ea0	-0.15044641
215	0xbdd00e81	-0.101590164
216	0xbc82884e	-0.015934136
217	0xbd0c04a1	-0.034184102
218	0xbd9b21f1	-0.07574833
219	0xbd809c46	-0.06279807
220	0xbd5ba88f	-0.053627547
221	0x3d27e0a2	0.04098571
222	0x3d8cb8cf	0.06871187
223	0x3dcba596	0.099436924
224	0xbde01704	-0.1094189
225	0xbe27212b	-0.16321246
226	0xbe28dab7	-0.16489683
227	0x3da8d254	0.08243242
228	0xbca3ed08	-0.020010486
229	0xbd85c3b0	-0.06531465
230	0x3cffb6b6	0.031215053
231	0xbcd80275	-0.02636836
232	0xbcc0e3b2	-0.023546074
233	0x3e468f71	0.19390656
234	0x3dbcfb9c	0.09227678
235	0xbca46c4a	-0.020071167
236	0x3e0cfc40	0.137681
237	0x3acbc3e2	0.0015546049
238	0xbd89e3ad	-0.06732879
239	0xbb9bab52	-0.0047506476
240	0xbe075872	-0.13217333
241	0x3cf7adaa	0.030234177
242	0x3e2a230a	0.16614929
243	0x3b417efd	0.0029525154
244	0xbcee6bd7	-0.029104156
245	0x3d9c207f	0.07623386
246	0xbd94ab5a	-0.07259245
247	0x3d6af57f	0.05736303
248	0xbe0a1071	-0.13482834
249	0xbe0cc28c	-0.13746089
250	0x3e19b32d	0.15009756
251	0x3daee5d6	0.085399315
252	0xbe2656ea	-0.16244093
253	0xbd06f468	-0.032947928
254	0xbda43fe7	-0.08020001
255	0x3e02a8e1	0.12759735

fc2.bias f4 [14]
0	0x3e4ab485	0.19795425
1	0x3dfd1043	0.12356617
2	0x3ca12bf1	0.019674273
3	0x3d7f9bbd	0.062404383
4	0x3e0b6e3b	0.13616268
5	0x3c69891e	0.014253883
6	0x3c51b093	0.012798446
7	0x3d84fa6e	0.06493078
8	0x3d385c7c	0.045010075
9	0x3de66308	0.112493575
10	0x3e35eaeb	0.17765395
11	0xbd3f1356	-0.0466493
12	0x3b3605fa	0.0027774558
13	0x3c372f15	0.011180659
