Response14/state_dicts/10_runs/modelStateDict_1000_shallow_3.pth (torch, 89287 bytes, 5 tensors)

conv1.weight f4 [1, 1, 3]
000000 82 2c cf bd 0f 2a c3 bd 50 22 ac be
       -0.10115911 -0.095295064 -0.33619928

fc1.weight f4 [140, 140]
000000 0e 68 4e 3d c7 84 37 3d 67 55 45 3c 48 1f 25 3b
       0.050392203 0.04480436 0.012044287 0.0025195647
000010 21 f9 f6 bc b3 4f 9a 3c 76 2a 0e bd 40 5d 9b bc
       -0.03014809 0.018836832 -0.034708463 -0.018965364
000020 2c 7d fb 3c 2e 5f 39 3d 4c 15 12 3d 2f a9 63 3c
       0.030699335 0.045256786 0.03566484 0.013895317
000030 35 2f 2c bc 1d 3c 69 3d 95 48 44 3d bc d7 1e 3d
       -0.010509302 0.056942094 0.047920782 0.03877996
000040 2e 91 aa bc ba a2 02 3a c2 36 84 3b 92 6c 97 bc
       -0.02082118 0.00049833546 0.004034848 -0.018484388
000050 cc 77 db bb 81 12 4e 3c 66 5d 8b bd 29 bb 69 bd
       -0.0066976305 0.012577654 -0.06804924 -0.057063255
000060 5f cf 14 bc 95 fb 05 3d 29 9b ac bb 33 c0 05 bd
       -0.009082644 0.03271063 -0.00526752 -0.032654
000070 20 23 60 bd 08 57 5e bd 09 23 4b bd 9d df c1 bc
       -0.054720998 -0.05428222 -0.04959396 -0.023666197
000080 70 3a c7 3b 94 45 54 bc 02 67 05 bb 6c 3e 11 3d
       0.0060799643 -0.012956042 -0.0020355587 0.03545992
000090 48 e5 0f 3c ba 7e 7a bc ad 8d 80 3c 01 f7 a6 bc
       0.008782692 -0.015289003 0.015692556 -0.020381453
0000a0 81 65 e3 3a 1f cb 3f bc 05 2f a6 bc 7e b1 06 bd
       0.0017348976 -0.011706143 -0.020286093 -0.032884113
0000b0 cf 0a 13 3d 33 27 76 bd 91 aa b9 3b d8 e6 f4 3c
       0.03589898 -0.060095977 0.005666085 0.029895231
0000c0 82 55 ab 3d a2 50 5d 3d 74 0e b5 3c 27 b3 39 3d
       0.08365919 0.054031976 0.022101618 0.04533687
0000d0 32 9c 89 3d af 9b 29 3d c3 f4 20 3d 07 6b 5c 3c
       0.06719245 0.041408237 0.039295923 0.013453252
0000e0 0c 0a a8 bc ac 98 09 3d 66 06 8c bd 36 e3 8a bd
       -0.020512603 0.033592865 -0.06837158 -0.06781618
0000f0 c8 58 7e bd 85 a5 29 3c e6 22 d2 bd e5 80 16 bd
       -0.062096387 0.010354404 -0.102605626 -0.036744017
000100 e2 92 91 bd d9 ce 8a 3c 61 01 63 3d ce 60 ec 3b
       -0.07108094 0.016944336 0.055421237 0.0072136885
000110 6e ff 80 3d 96 22 08 3d fb e3 8f bb 34 89 60 3c
       0.06298719 0.03323611 -0.004391191 0.013704587
000120 04 76 cb 3c 25 df ab bc dc 7c 26 bd 76 a8 16 3d
       0.024836548 -0.020980427 -0.04064642 0.03678175
000130 10 eb bb 3c c5 e3 c0 bc bb 00 6f bb 5c 74 a1 ba
       0.022939235 -0.023546109 -0.0036468941 -0.0012318003
000140 c2 d9 18 3b a5 a3 a6 bc 7c e3 33 3d e4 e1 87 3c
       0.0023323153 -0.020341704 0.043918118 0.016587205
000150 bf 68 ff 3c ce 70 a9 bc 1d dd 85 3c 65 1d c2 bc
       0.031177877 -0.020683672 0.016340787 -0.023695657
000160 54 81 32 bb 09 e2 00 bd 80 8d 08 bd b9 af ff bc
       -0.002723773 -0.031465564 -0.03333807 -0.03121172
000170 b1 8a 84 bb db 08 92 bd e5 f6 1e bd 16 c5 00 3d
       -0.0040448536 -0.07130595 -0.038809676 0.031437956
000180 55 0f 5e 3c c5 7f 51 3d c9 09 13 3b c4 26 17 3c
       0.01355346 0.05114724 0.0022436252 0.009225551
000190 73 86 4e bd 0c ca 87 bd 54 be 9f 3c 62 4d 70 3d
       -0.05042119 -0.06630334 0.019499935 0.058667548
0001a0 44 97 e7 3b 30 ba 2b bb 57 14 fe 3b 24 55 72 bd
       0.007067593 -0.0026203506 0.0077538895 -0.059163228
0001b0 46 aa 82 bd 7e e2 91 bc 79 9d 8d bc 18 25 4e 3b
       -0.06380133 -0.017808195 -0.017287003 0.0031455215
0001c0 51 3f 0d bd 4f 85 ad bc d6 44 1c 3d cf 6f 22 3d
       -0.03448421 -0.02118173 0.038151585 0.03965741
0001d0 e9 e9 f0 bc e0 73 cd bb 65 2e 65 3d a9 06 28 bd
       -0.029408412 -0.006269917 0.05595245 -0.041021977
0001e0 06 59 31 bd 04 b6 12 3d 1a 21 00 3d c3 62 cb 38
       -0.04329779 0.035818115 0.031281568 9.69819e-05
0001f0 20 d2 33 bd f8 86 29 bd 4c 3d 27 bd e7 b2 80 bc
       -0.043901563 -0.04138848 -0.04082994 -0.015710307
000200 0d 96 67 bc a7 48 f7 ba d7 fc 0d 3d ed 39 84 3d
       -0.014134896 -0.0018866257 0.034664955 0.06456361
000210 37 7a 60 3d 01 9f b4 3c fc 42 c9 3c 51 0c 84 3d
       0.054804053 0.022048475 0.024568073 0.06447662
000220 4a 4a 16 3d 55 df bd bc a4 d1 7b bd 41 3d 45 bd
       0.03669194 -0.023177782 -0.061479226 -0.04815412
000230 fd 59 b6 bc b1 a4 bc bc 82 a1 42 bc bc d9 05 bc
       -0.022259707 -0.02302775 -0.011879327 -0.008169588
000240 db 3a 29 3b b2 2f 30 3d eb 0e d8 3b 2a 9c 20 3d
       0.0025822434 0.043014236 0.0065935752 0.03921143
000250 b9 c6 3e 3d dd bb 8d bd d5 5a 55 bd 5b 34 f0 bb
       0.046576235 -0.06920598 -0.052088577 -0.00733046
000260 e9 0c 5a bd 4b 35 b8 3c f3 12 82 bd 74 fb cf bb
       -0.05323497 0.02248635 -0.063512705 -0.006347114
000270 44 c7 7c bd 16 1a 15 3d 7e ba 9f 3c a7 36 aa 3c
       -0.061713472 0.03640183 0.019498106 0.020778013
000280 d9 19 2d bd 71 03 fc 3c ff 9e 7a 3d e8 32 1d 3d
       -0.04226098 0.03076336 0.061186787 0.038378626
000290 99 92 45 bd b1 98 a5 3d d3 17 81 bb 9e 91 10 3d
       -0.04823551 0.08085764 -0.0039396076 0.03529512
0002a0 33 73 8f 3c 1b 1f 18 3d fd f8 51 3d bc e9 9a bc
       0.017510986 0.03713904 0.051262844 -0.018910281
0002b0 a0 81 a6 3c 83 43 2c 3c 47 a5 92 3c 60 2f b2 3c
       0.020325482 0.010514143 0.017901076 0.021751106
0002c0 ae 54 b9 3c 50 bc 89 3b 3b 40 6d 3b ad 17 b3 3c
       0.022623386 0.004203357 0.0036201614 0.021861875
0002d0 6b 85 f0 bc 04 4b 1c bd 5f 5f 33 3c 71 b2 a2 bd
       -0.029360494 -0.038157478 0.010948031 -0.07944191
0002e0 ce bd 48 3d d6 23 45 3d ef 66 d9 3c 6d 85 4b 3d
       0.049009137 0.04812988 0.02653834 0.04968779
0002f0 4b 66 16 3d 0c a9 08 bc d6 4d 21 3d f1 7e a8 bd
       0.036718648 -0.008341085 0.03938087 -0.08227337
000300 bc 44 ab bd 5e c1 8a 3a 28 99 9a 3d 85 4c 76 3d
       -0.083627194 0.0010586192 0.075487435 0.06013157
000310 0f 0b 31 bd 56 cb 8e bd 39 19 8e 3d 15 8b 9d bd
       -0.043223437 -0.06972377 0.069384046 -0.076925434
000320 da e3 89 3d a4 b3 ba 3d a8 1a 0b 3c 1c 70 a9 bd
       0.06732912 0.09116295 0.008490242 -0.08273336
000330 45 df 23 3d a7 f0 9c 3d 66 0f 34 3d 70 36 85 3c
       0.04000785 0.07663088 0.043959998 0.01626131
000340 f2 ad f7 3c 84 a8 54 bd ff a7 5b bc f2 d1 9c 3d
       0.03023431 -0.05191852 -0.013406753 0.076572314
000350 1f 53 f1 bc 0a 1e 0d 3c c4 28 99 bc 3b 95 cf 3c
       -0.02945858 0.008613119 -0.018696196 0.025339713
000360 d1 e5 2f 3d bb 6c 7a 3c 6c 70 1b 3c 87 64 55 3c
       0.04294378 0.015284712 0.009487253 0.013024456
000370 ab 5d 4f 3b 50 00 e2 bd 94 55 c7 3b 94 36 52 bd
       0.0031641524 -0.11035216 0.0060831998 -0.05132158
000380 f3 4c 04 bb 7c 33 84 3d 44 63 81 3d 30 ec bf 3c
       -0.0020187467 0.06455132 0.063177615 0.023428053
000390 fd 00 c1 bc 7c 0a 85 3d 4c 45 67 3d a1 80 d6 3c
       -0.023560042 0.0649614 0.05646257 0.026184382
0003a0 56 03 48 bd a2 a6 62 3d b2 55 2e bb 03 7c 1b bd
       -0.048831306 0.055334695 -0.0026601371 -0.037960064
0003b0 4d 61 38 bd fa 69 24 bc f7 b4 7c 3d d4 75 eb 3c
       -0.04501467 -0.010035032 0.06169602 0.028742708
0003c0 c4 c1 45 3c 00 9e 5b 3d c0 a1 07 3d cf 4d 78 bc
       0.012070123 0.053617477 0.03311324 -0.01515527
0003d0 d4 29 a7 3c c3 26 b0 bd 73 a4 98 bd cf 1a e6 3c
       0.020405687 -0.08601143 -0.07453241 0.028088955
0003e0 a4 4a 9f 3d 84 7b 12 bd 89 50 23 3c 31 5e e2 3c
       0.077779084 -0.035762325 0.009967932 0.027632805
0003f0 a4 e7 60 3d 9c 27 b3 bc 49 57 17 3d fc 92 92 bc
       0.05490841 -0.021869473 0.036948476 -0.017892353

fc1.bias f4 [140]
000000 3b cf 48 3e 3f fe 0b 3e 47 16 6e bd 5d 3d 30 3e
       0.19610302 0.13671206 -0.058126714 0.17210908
000010 f0 48 05 3d 20 71 dd bd 79 e0 a0 3c 2f 91 04 bd
       0.03254026 -0.108125925 0.019638287 -0.03236502
000020 f9 ee b0 bc 3e 11 6f bc 29 f1 82 3d 35 d5 3e 3d
       -0.021598326 -0.014591513 0.06393654 0.04659005
000030 2a d0 f1 bd 5b 4e 97 bd 10 52 15 bd da 4b 34 bd
       -0.11807282 -0.07387992 -0.036455214 -0.04401765
000040 0b 44 cb 3c 1e ca a3 3d 3a 2a 2d bd 75 e4 6e 3e
       0.024812719 0.07997535 -0.0422766 0.23329337
000050 bd 29 13 bd 6a e9 42 bd ad 30 8b 3d 87 05 14 3e
       -0.035928477 -0.047585882 0.067963935 0.14455234
000060 93 66 64 3d 91 b4 a4 3d 2e ac 7c 3c be d5 fd bc
       0.055761885 0.08042253 0.01542191 -0.03098571
000070 fe 4e 5e 3d d8 10 9e bd 46 18 9c bc 66 69 8e 3d
       0.05427455 -0.077180564 -0.019054543 0.06953697
000080 ea 94 7a 3d d8 17 6b bd ab a6 d3 bd da 08 7c 3d
       0.06117717 -0.057395786 -0.10334524 0.06153188
000090 b9 31 d3 bd 7c 9a 4f bd 54 d6 61 bd 1a 0f 58 3c
       -0.10312218 -0.050684437 -0.05513604 0.013187194
0000a0 f3 b1 b1 bd fe 9f 08 3e 18 da 39 bb 1c 3c dd bc
       -0.08676519 0.13342282 -0.0028358754 -0.027006201
0000b0 fd a5 8b 3d 18 13 5d bd c0 5b 2d 3e b8 ee 2f bd
       0.06818769 -0.053973287 0.16929531 -0.04295227
0000c0 62 1f 9b bd 1b 33 72 bc e6 3a ee 3d 96 66 bd 3d
       -0.07574345 -0.014782692 0.11632328 0.09248082
0000d0 0b ab fb 3b d2 63 37 bd a3 65 e0 bc a8 72 e6 bd
       0.007680302 -0.04477293 -0.027392214 -0.11252338
0000e0 e4 46 08 3d af e6 05 3e 99 ee c1 3d 68 75 15 3d
       0.03327073 0.1307628 0.09469337 0.03648892
0000f0 3c 0f ea bd 81 be 34 3c d3 84 85 bd 41 00 97 bb
       -0.11428687 0.011031748 -0.06519475 -0.0046081846
000100 52 f1 8b 3d ee e2 7c 3d 52 be df 3c 11 10 1a 3d
       0.068331376 0.061739855 0.027312431 0.03761298
000110 5c 22 cd 3d 4d c9 9a bc e3 6c 5c 39 cb bf 2f bd
       0.10016319 -0.018894816 0.00021021398 -0.042907517
000120 15 45 02 3d 24 d5 94 bd fc 7f 35 b9 4d ba 55 bc
       0.031804163 -0.07267216 -0.00017309183 -0.013044906
000130 10 8a 86 bc 96 98 4a bc 99 dd dc bd 92 63 b8 bd
       -0.016423255 -0.012365481 -0.10784454 -0.090033665
000140 91 ea 17 3e 12 e3 89 bd 8f 30 86 3d aa 40 e8 3c
       0.14835574 -0.06732763 0.065522306 0.028351147
000150 c3 89 15 be dc b0 8a 3d f4 52 b6 bd 66 c3 ac 3c
       -0.14603333 0.067720145 -0.08902541 0.021089267
000160 6b cd 70 bd a9 0c 38 bb 82 74 c2 3d 8b 6a 2e bd
       -0.05878965 -0.0028083718 0.09494878 -0.042582076
000170 9a 1c a7 bd 0a 82 69 3d 72 ad 05 3d e0 17 19 3c
       -0.08159752 0.05700878 0.032636113 0.009344071
000180 c2 7a 7f bd 2b 02 b2 bc 33 74 4f bc 82 6a 3a bd
       -0.06237293 -0.02172955 -0.012661981 -0.04551173
000190 7c 44 c0 3d 3c df 49 bd fd 6a b9 3c 8f f8 e5 3d
       0.09388062 -0.04928516 0.022634024 0.112290494
0001a0 d7 3f 44 bd 4e e0 80 3d fd e9 dd bc f4 77 0d 3e
       -0.047912445 0.06292783 -0.027089113 0.1381529
0001b0 45 2a 13 3c d8 c8 09 3e cc 6b 6e bc df c2 24 bc
       0.008982246 0.13455522 -0.014552068 -0.0100562265
0001c0 c1 01 d7 3d 29 3b cb 3c 5f 19 62 bd 6a cd e1 3d
       0.104983814 0.024808483 -0.055199977 0.11025508
0001d0 59 7d bf 3d 4d 5b f5 3d 5c eb e9 3d a7 6f d4 3d
       0.0935008 0.11980305 0.11421844 0.103728585
0001e0 d3 e6 1f 3e f8 75 7e 3d 5b db 6e 3d d8 21 11 bd
       0.15615396 0.062124223 0.058314662 -0.035432667
0001f0 1a 57 f7 3c 33 32 2c bd 32 d0 89 3c 2e c4 9a 3d
       0.0301929 -0.04204006 0.016822908 0.075569496
000200 21 4a 90 3e 04 68 35 3e c1 24 75 bd 4c 21 0d 3d
       0.28181556 0.1771546 -0.059849504 0.034455582
000210 76 47 c6 bc c1 60 2b bd 0a 6f 9c bd 12 7c cc 3c
       -0.024203997 -0.04184032 -0.076383665 0.024961505
000220 67 bf b4 3d de d7 c3 bd 7b 91 9a 3d 51 ef 49 3d
       0.088255696 -0.09562658 0.075472794 0.049300496

fc2.weight f4 [14, 140]
000000 0d 45 c7 3d c5 0c 80 3d a1 f0 b8 bd be e3 dd 3d
       0.09729967 0.062524356 -0.09030271 0.10834454
000010 53 48 82 bc 56 6f fa 3d 2e a4 4c bc 8a 81 8b bd
       -0.015903627 0.12228267 -0.012490315 -0.06811817
000020 1a 0d 59 bc d0 83 9d 3d 30 be 31 3c 17 a1 3c 3c
       -0.013247753 0.07691157 0.010848567 0.011513016
000030 09 da 11 3d bb cf 4d 3d 1c d8 e5 bb b5 d4 a7 3c
       0.035608325 0.050246935 -0.0070142876 0.020487169
000040 54 4e ed bc 3b c4 7a 3d d6 83 fc 3d 79 a6 2e 3e
       -0.028968014 0.061222296 0.12329833 0.17055692
000050 39 94 56 bd 92 b4 86 bd 24 3b 28 bd 1d 06 2f 3d
       -0.05238745 -0.0657741 -0.041072026 0.04273044
000060 4a 88 a5 bd c6 9d 2d 3d 87 22 91 3d d9 aa 77 3c
       -0.08082636 0.042386793 0.07086664 0.015116417
000070 54 83 42 3d b7 9e 02 be cc d4 43 3c 31 a4 01 3d
       0.047488526 -0.12755857 0.01195259 0.031650726
000080 53 52 af 3d 94 64 a7 bd 69 92 7e bd 36 b3 3a 3d
       0.08560624 -0.08173481 -0.062151346 0.045581065
000090 dc 3b f5 bd 37 de a8 bd 80 6a bd bd 75 da a0 bd
       -0.11974308 -0.08245509 -0.09248829 -0.07854167
0000a0 10 d0 39 3c f0 27 a5 3d 90 81 f8 3b 45 b8 25 bc
       0.01134111 0.08064258 0.0075838044 -0.010114734
0000b0 a3 cd ec bc c0 85 31 bd 22 99 24 3e b3 dd cf bd
       -0.028906649 -0.043340445 0.1607404 -0.10149708
0000c0 9c d7 51 3d 4b 61 12 bc 2d 33 df 3c 8f ec a1 3d
       0.05123101 -0.008934329 0.027246082 0.07906448
0000d0 6b ca 14 bd bb 5c c3 bd ec 2c 78 bc 10 4a ba bd
       -0.036325853 -0.09539171 -0.015147429 -0.090961576
0000e0 b2 f1 1f 3d 25 04 a0 bd 8f e5 da 3b 76 34 9b 3c
       0.039048858 -0.078132905 0.0066801975 0.018945914
0000f0 96 3d fd bd 74 a0 3c bd 3a 88 2b 3d 07 14 eb bd
       -0.12365262 -0.046051458 0.041877963 -0.11478429
000100 1d 7c e5 3d b7 0b 0d 3d 47 22 07 3d b2 14 bc 3d
       0.11205313 0.034435 0.032991674 0.09183635
000110 95 3f a1 3d 57 e5 d9 3b 5a 2f 71 bc 0f f7 92 3c
       0.078734554 0.006649654 -0.014720762 0.017940072
000120 fa ae ee bd d5 0e 91 bc a4 a0 f6 bb 9f 7c 82 bd
       -0.11654468 -0.017707268 -0.007526474 -0.06371426
000130 ff fc e7 bd 7c 82 62 bd c1 e3 7b bc 09 52 fe bd
       -0.11327552 -0.05530022 -0.015374125 -0.12417991
000140 7d 68 1f 3e 90 d1 b9 3c 25 f6 80 3c 0c 83 b7 bc
       0.15567203 0.022682935 0.01574237 -0.022401355
000150 2b bb 13 be 87 b1 f4 3d d3 19 bd bd f2 01 01 bb
       -0.14426868 0.11947923 -0.09233441 -0.0019684997
000160 af 31 4b bd 22 cd 42 3d 19 70 92 3d 3d 0b 7c 3c
       -0.04960793 0.04755891 0.07150287 0.015383539
000170 73 89 22 bd 54 b3 ce bc 74 2c d3 bd 11 5b e7 bd
       -0.039681863 -0.025231995 -0.10311213 -0.112966664
000180 e7 56 65 bd e0 a4 36 3c df 6e ce 3c 98 8a 43 bd
       -0.05599108 0.011147708 0.025199352 -0.047739595
000190 68 2a 08 3c 5c 67 91 bd 5f b4 f3 3d 55 81 08 3e
       0.008310892 -0.07099792 0.118996374 0.13330586
0001a0 83 c5 b6 bd d0 42 ef 3c 3f 8b 4e bd 08 99 15 3e
       -0.08924391 0.029206663 -0.050425764 0.14609158
0001b0 6c fa 82 3c 2c 23 2f 3d 6f 6b 5c 3d 7b fe a1 3d
       0.015988551 0.042758152 0.053813394 0.079098664
0001c0 48 71 0d bc dd 0d 4b 3d cb 54 f9 bd 56 32 b7 3d
       -0.008632965 0.049573768 -0.12174376 0.08945148
0001d0 51 16 19 be df 04 18 3e 8c f4 fd 3d c0 ed 0a 3e
       -0.1494992 0.14845608 0.12400159 0.13567257
0001e0 9c ac f7 3d e9 3a 29 3e 21 bb c1 3d e1 5a 53 bd
       0.120934695 0.16526379 0.0945952 -0.05160034
0001f0 99 50 bd 3d 56 47 d3 bc 97 07 37 3c 08 ff 0a 3e
       0.092438884 -0.025790852 0.011171243 0.13573849
000200 6f d0 a5 3e a2 a1 39 3e f9 58 b1 bd 75 44 8c 3d
       0.32385585 0.18128064 -0.08659548 0.06848995
000210 2c a0 2c be ed 99 e2 bd af 56 7d bd 58 92 7e 3d
       -0.16857976 -0.11064515 -0.061850246 0.062151283
000220 27 d9 e2 bd 67 b3 55 bd 8b 91 df 3d 70 59 64 bd
       -0.11076575 -0.052173045 0.10916432 -0.055749357
000230 19 2c 8b 3a 2f 67 37 3e ba d3 29 be e9 a8 44 bd
       0.0010618 0.17910455 -0.16584674 -0.048012648
000240 50 bb a6 bc 80 dd 38 bd 93 45 b9 3d e4 5d 0d be
       -0.02035299 -0.045133114 0.09046473 -0.13805348
000250 ff ec c8 bd 5f 4c 9b bc b7 1d b2 3d db 80 02 3e
       -0.098108284 -0.018957315 0.08697074 0.12744467
000260 f2 f5 fa bd ba f9 f1 bd 6b 23 d7 bd c2 8f aa bd
       -0.122539416 -0.1181521 -0.10504802 -0.08328201
000270 57 73 0a 3e 3f a7 02 3d 9d d7 f7 bd 70 ec dd 3c
       0.13520561 0.03189778 -0.12101672 0.027090281
000280 b2 f8 17 bd f9 09 a4 bd 83 7b d7 3b bd 81 a1 3d
       -0.03710241 -0.08009715 0.006576003 0.07886074
000290 aa 15 70 3d 24 89 d1 3d 7e cd a9 bd 45 af d5 bd
       0.05861441 0.102312356 -0.08291148 -0.10433821
0002a0 cb a0 f6 3d e4 5d e2 3d 68 dd 2e bd 7c 27 70 3d
       0.120423876 0.110530645 -0.04269162 0.058631405
0002b0 ce e3 88 bc 3c 3c 0c 3e 59 7d 02 be 61 97 2e be
       -0.016710188 0.13694853 -0.12743129 -0.17049934
0002c0 38 7a 37 3d 01 1f 91 bd 06 f0 91 3c 62 9f d0 3d
       0.04479429 -0.07085992 0.017814647 0.1018665
0002d0 08 62 0b 3e 28 a4 bc 3d 79 23 b4 3c 26 a5 06 be
       0.13611615 0.09210998 0.02198957 -0.13148937
0002e0 e6 65 23 3e f0 d5 5d bc a4 98 c5 3d 47 a9 23 be
       0.1595684 -0.013539776 0.096482545 -0.15982543
0002f0 6b 61 0d be 98 a9 94 bd 6c 55 34 3e 95 c6 d2 3d
       -0.13806693 -0.0725891 0.17610711 0.10291783
000300 37 57 e0 3d 96 ba ad 3d de da 80 bd d5 92 53 3d
       0.10954135 0.08482854 -0.062917456 0.0516537
000310 30 9b c5 3d 5c de 28 3e f9 0c 50 3e 3c 1c 1b be
       0.0964874 0.16491073 0.20317449 -0.1514749
000320 b8 a9 ea bd ea ab 3c bd 3b 61 06 3e 58 c4 c7 3d
       -0.114581525 -0.046062388 0.13123028 0.097542465
000330 22 08 1c 3d 8c 5e 2a 3e 31 69 70 bd c7 4f 9d bd
       0.038093694 0.1663763 -0.05869407 -0.07681232
000340 86 4f 12 3d 25 10 17 bd 63 23 d5 bc 3d 2f 91 bd
       0.03572037 -0.03688063 -0.02601785 -0.07089088
000350 57 58 d7 3c 98 91 8b bb 6e 96 8a bd 8a 18 4d bb
       0.02628724 -0.0042592995 -0.067669734 -0.0031295144
000360 c2 aa 06 bd 62 b0 72 bd e1 24 2a bd bf 52 18 be
       -0.03287769 -0.059250243 -0.041539077 -0.14875315
000370 de b6 e1 3d 44 ea 4d 3d 8c ae 76 3d e1 65 20 3d
       0.11021207 0.05027224 0.060225055 0.03915966
000380 54 85 0e bd 41 53 05 3e 86 83 d5 bc 6b 7e c3 3d
       -0.03479512 0.1302004 -0.026063692 0.09545597
000390 f6 f5 aa bd 56 b6 0c be 24 3d a7 3d d4 df b6 3d
       -0.083476946 -0.1374143 0.081659585 0.089294106
0003a0 5b ee 69 bd 28 ad 91 bd f3 23 be bd eb 15 57 bd
       -0.05711208 -0.07113105 -0.092842005 -0.052511137
0003b0 e4 e2 49 3e 1b a0 37 3b 41 26 5d bc e6 5d 09 be
       0.19715458 0.0028019014 -0.01349789 -0.13414726
0003c0 fc 21 1c 3e 9d 05 f6 3c 9e 08 08 be b6 07 15 3e
       0.15247339 0.030031973 -0.13284537 0.14553723
0003d0 8a 3b 1d be 0e 08 92 3d 74 83 e5 bc 7b ff 8f 3d
       -0.15354744 0.071304426 -0.028016783 0.07031151
0003e0 b6 98 a9 bd bc bb 01 3e b2 92 c0 bd 0d 62 d8 bd
       -0.082810804 0.12669271 -0.0940298 -0.10565577
0003f0 e6 75 f8 3d 40 19 03 be a8 fe 2c bd 9d 4f 31 3c
       0.12131862 -0.12802601 -0.042235047 0.010822204

fc2.bias f4 [14]
000000 08 bf 03 3e d5 3d a6 3d 84 06 95 3d a7 d9 e6 3c
       0.12865841 0.08117262 0.072766334 0.028179957
000010 eb 84 e3 3d 10 b1 4a 3d e8 58 96 3c 4d 29 01 3d
       0.111093365 0.049485266 0.01835294 0.031533528
000020 e9 c4 e1 3c 5c c7 05 3e c8 cd 2f 3e 1d 15 ba 3c
       0.027559714 0.13064331 0.17168343 0.022715146
000030 f2 59 da 3c cf 86 01 3d
       0.026654217 0.031622704
