Response14/state_dicts/10_runs/modelStateDict_1000_shallow_5.pth (torch, 89287 bytes, 5 tensors)

conv1.weight f4 [1, 1, 3]
0	0x3e1fc6bb	0.15603153
1	0x3ec2ac9d	0.38022318
2	0x3e3a6558	0.18202722

fc1.weight f4 [140, 140]
0	0xbdd603c7	-0.10449939
1	0x3ce61eb7	0.028090818
2	0xbc3ea077	-0.0116349375
3	0x3cfcbb7e	0.030851122
4	0x3d09779a	0.033561327
5	0xbc336d25	-0.010951315
6	0x3d58a34a	0.0528901
7	0xbd1856f9	-0.03719232
8	0xbc9ab77b	-0.018886318
9	0x3d88173a	0.06645055
10	0x3d6dd4c9	0.058064256
11	0x3d6c1b53	0.057643246
12	0x3cf09e9b	0.029372504
13	0x3d93b18a	0.07211597
14	0x3d59ab78	0.05314204
15	0x3d9b927c	0.07596299
16	0xbd97fd9b	-0.07421418
17	0xbdb79b8d	-0.08965216
18	0x3ccda5b8	0.025103435
19	0xbdb50e49	-0.08840615
20	0xbd80e896	-0.06294362
21	0xbd6db242	-0.058031328
22	0xbb8b0a90	-0.0042432025
23	0x3a2d327c	0.0006606949
24	0x3bc9b196	0.006155203
25	0x3b5b4faf	0.0033464243
26	0xb6af5b80	-5.2260584e-06
27	0xbb8bc0b5	-0.004264916
28	0xbc41942d	-0.011815113
29	0xbc556112	-0.013023632
30	0xbc847a59	-0.016171621
31	0xbc2ecda0	-0.010669142
32	0xbc3673cb	-0.011136006
33	0xbc709109	-0.014683017
34	0xbc50774a	-0.012723753
35	0xbadf0212	-0.0017014167
36	0xbc1d20b7	-0.009590319
37	0xbc42b505	-0.011883979
38	0x3bb9d57f	0.0056712027
39	0x3b8bdd57	0.004268329
40	0x3bcd25c1	0.006260604
41	0x3bca1654	0.0061672125
42	0x3bdbc2d4	0.006706575
43	0x3b8879b1	0.0041648974
44	0x38dc1368	0.00010494032
45	0xbb511251	-0.0031901787
46	0xbba30b6e	-0.0049757278
47	0xbb892117	-0.004184853
48	0xbb6af943	-0.0035854138
49	0xbba00fbd	-0.0048846886
50	0xbbf4d4c0	-0.007471651
51	0xbc2fe69a	-0.010736132
52	0xbc571182	-0.013126733
53	0xbc73e0ac	-0.014885109
54	0xbc4cc457	-0.012497983
55	0xbc25d01c	-0.010120418
56	0xbc27f0fc	-0.010250326
57	0xbc691314	-0.01422574
58	0xbc29f053	-0.010372239
59	0x3b876562	0.004131959
60	0x3ad93db0	0.001657417
61	0xbc459592	-0.012059586
62	0x3b82c548	0.003990803
63	0xbc539657	-0.012914262
64	0xbb14e21c	-0.002271778
65	0xb93319c6	-0.00017080372
66	0x3bcb68e1	0.006207571
67	0xbb36bbd4	-0.002788295
68	0xbc6cc728	-0.014451779
69	0xbc814bb4	-0.015783168
70	0xbc1c9b08	-0.009558447
71	0xbc0d6b8e	-0.0086316
72	0xbc05e0c5	-0.008171265
73	0xbb8ef99f	-0.0043632532
74	0x3aab7c64	0.0013083336
75	0x3a955907	0.001139433
76	0x3af23acd	0.0018480659
77	0x3ad8ec5f	0.0016549936
78	0xbd94b7eb	-0.07261642
79	0xbd6c0c3d	-0.05762886
80	0x3d76514b	0.06013612
81	0xbb9c2504	-0.004765155
82	0x3d996173	0.0748929
83	0x3becc212	0.0072252834
84	0x3db6c6cd	0.08924637
85	0x3c911b36	0.01771317
86	0xbd716f98	-0.058944315
87	0x3d8338ef	0.064073436
88	0x3da54293	0.08069339
89	0xbe031c64	-0.12803799
90	0xbdf9b725	-0.12193135
91	0x3ccb80d3	0.024841702
92	0xbce728b7	-0.028217657
93	0x3dc373b8	0.09543556
94	0xbd3f284f	-0.0466693
95	0x3d3bbab9	0.04583237
96	0xbd555525	-0.052083153
97	0xbd901672	-0.07035531
98	0xbd1b31eb	-0.037889402
99	0x3d6df9e4	0.058099642
100	0xbd952270	-0.07281959
101	0x3cc03a0d	0.02346518
102	0x3cd0ef98	0.025504872
103	0xbcf9e756	-0.030505817
104	0x3c8e4b7e	0.017369982
105	0xbd03c695	-0.032171804
106	0xbc830d59	-0.015997576
107	0xbc817ab0	-0.015805572
108	0xbc850b91	-0.016240867
109	0xbc6bd069	-0.014392951
110	0xbbc51cc1	-0.0060153906
111	0xbade4583	-0.0016957972
112	0x3a1021cd	0.0005498201
113	0x3b4f9fdd	0.003168098
114	0x3acfbd98	0.001584935
115	0xbc062758	-0.008188091
116	0xbca842b9	-0.020539628
117	0xbcb57464	-0.022150226
118	0xbc830a41	-0.0159961
119	0xbc3486fc	-0.011018511
120	0xbcb1246b	-0.02162381
121	0x3cb5b732	0.02218208
122	0xbc6045e5	-0.013688539
123	0xbc6ffa93	-0.014647144
124	0xbb66c554	-0.0035212832
125	0xba9dbe12	-0.0012034795
126	0xbb747519	-0.003730124
127	0xbc67ab77	-0.0141400015
128	0xbbfbd54b	-0.0076853386
129	0xbb0de2f6	-0.0021650172
130	0xbbb4c682	-0.005516828
131	0x3c435d03	0.011924031
132	0x3bc0c525	0.0058828765
133	0xbbc0964e	-0.0058772927
134	0x3c5981eb	0.013275604
135	0x3b8a9cb8	0.004230108
136	0x39be14a0	0.0003625499
137	0xb96c256a	-0.00022520652
138	0xbb6a1194	-0.0035716044
139	0xbc197f1b	-0.009368683
140	0x3dc137d8	0.094344795
141	0x3e0f0588	0.13966954
142	0x3e1782bf	0.1479597
143	0x3c1576c5	0.009122555
144	0x3caaa4fd	0.020830626
145	0xbd9125d0	-0.0708729
146	0xbcd2d9d1	-0.025738629
147	0xbbb30d9e	-0.00546427
148	0xbab10f66	-0.0013508617
149	0xb91bc0ce	-0.00014853777
150	0xba864139	-0.0010242827
151	0xbb7b2826	-0.003832349
152	0xbc009688	-0.007848389
153	0xbc350ab0	-0.011049911
154	0xbb864686	-0.0040977625
155	0xbb3c19d6	-0.0028701923
156	0xbc601dd1	-0.013678984
157	0xbc216992	-0.00985183
158	0xbbe1c3b8	-0.0068897866
159	0xbc01c105	-0.007919555
160	0xbc91a86d	-0.017780507
161	0xbbcb65a0	-0.006207183
162	0xb9a38c44	-0.0003119429
163	0xba5a548d	-0.0008328639
164	0xbaa77e1e	-0.0012778675
165	0xbacd986f	-0.0015685688
166	0x3aec2f91	0.0018019547
167	0xb8a46da7	-7.840554e-05
168	0xba39734a	-0.00070743694
169	0xb9665c24	-0.00021968834
170	0x360bc7a0	2.082881e-06
171	0x328e5a68	1.6572088e-08
172	0xac7d1a48	-3.5968051e-12
173	0x3aa84c2f	0.0012840087
174	0xbc133e85	-0.008987074
175	0xbc789181	-0.01517141
176	0xbc67c598	-0.014146231
177	0xbc3fba5f	-0.011702149
178	0xbc1a262f	-0.009408518
179	0xbbee6362	-0.007275031
180	0xbae4ec89	-0.0017465513
181	0x3b30e019	0.0026989041
182	0x3b116dfe	0.0022190805
183	0xbb9f93d5	-0.004869918
184	0xbc2cc07d	-0.01054394
185	0xbc804235	-0.01565657
186	0x3b7f21d2	0.003893007
187	0xbc821bbc	-0.015882365
188	0xb99eb4a3	-0.00030270693
189	0x3c3f0d09	0.011660823
190	0x3bf14ff6	0.0073642684
191	0x3c62c320	0.013840467
192	0xbc3d5a6f	-0.011557206
193	0xbc9a14e4	-0.01880879
194	0xba786a9c	-0.0009476335
195	0x3c0cb2ad	0.0085875215
196	0xbc301151	-0.010746316
197	0xbc978c55	-0.018499533
198	0xbc7713a2	-0.015080364
199	0x3c1b9041	0.009494842
200	0xbcc21362	-0.023690883
201	0xbcd96f25	-0.026542256
202	0xbc62fda9	-0.013854423
203	0xbc9d9cd7	-0.019239826
204	0xbca57cd7	-0.02020113
205	0xbc1ae879	-0.00945484
206	0xbcc4bdec	-0.024016343
207	0xbbdabc3a	-0.0066752704
208	0xbb3f0955	-0.002914985
209	0x3cd3c33c	0.025849931
210	0x3d02ea04	0.031961456
211	0xbc038799	-0.0080279345
212	0xbc5cc51f	-0.013474732
213	0xbb1b770d	-0.0023722083
214	0x3c809b35	0.015699008
215	0x3bccf7d3	0.006255129
216	0x3bd3aebb	0.0064600385
217	0xbbdb1779	-0.006686148
218	0xbc7e2fa7	-0.015514291
219	0xbc9fffc8	-0.019531146
220	0xbbda21e8	-0.006656874
221	0xbc4a5bbd	-0.012350974
222	0xbc74fe37	-0.014953188
223	0xbce05ba3	-0.027387446
224	0xbce4a679	-0.027911412
225	0xbcfb8450	-0.03070274
226	0xbd0b4f87	-0.03401139
227	0xbd0dc60d	-0.034612704
228	0xbd0a1287	-0.033709075
229	0xbc82cf77	-0.015968068
230	0xbd148f7e	-0.036269657
231	0xbc7e68bb	-0.015527899
232	0x3b4c9f81	0.0031223001
233	0xbc695d71	-0.01424347
234	0xbd83df6e	-0.064391
235	0xbcaa867f	-0.020816086
236	0xbc92d081	-0.017921688
237	0xbd0493eb	-0.032367628
238	0xbd11d32b	-0.035601776
239	0xbcc0154b	-0.023447653
240	0xbcf57e02	-0.029967312
241	0xbd225f90	-0.039641917
242	0xbc92dc09	-0.017927187
243	0xbce1b54b	-0.027552268
244	0xbc4adab3	-0.0123812435
245	0xbc2510f9	-0.010074847
246	0xbcd6ab6f	-0.026204793
247	0xbc4fcd24	-0.012683187
248	0xbca39938	-0.019970521
249	0x3c4b1db2	0.012397217
250	0xbc8000fc	-0.01562547
251	0xbc69b12e	-0.014263434
252	0xbbeb82ba	-0.0071872147
253	0xbcb769bf	-0.02238929
254	0xbcf41653	-0.029795801
255	0x3ba3fbe8	0.005004395

fc1.bias f4 [140]
0	0xbc685560	-0.014180511
1	0xbcaf91dc	-0.021431856
2	0xbce1d736	-0.02756844
3	0xbbb7ab35	-0.0056051263
4	0xbe10d36f	-0.14143156
5	0xbb5bd132	-0.0033541438
6	0xbce20ac5	-0.027593026
7	0x3dc4a5f3	0.09601965
8	0xbd4db402	-0.050220497
9	0xbd76b668	-0.06023255
10	0xbcbebe6e	-0.023284163
11	0xbe0745a0	-0.13210154
12	0xbdb80bf6	-0.08986656
13	0xbb39d67f	-0.002835661
14	0xbccdd2ad	-0.025124872
15	0xba6fc3d5	-0.0009146308
16	0x3d223395	0.039599974
17	0xbd8191a9	-0.063266106
18	0xbd06c8a1	-0.03290618
19	0x3cef636b	0.02922221
20	0x3c11b544	0.008893315
21	0xbbcc920a	-0.006242995
22	0xbc99dbcc	-0.018781565
23	0xbd2fbd3f	-0.04290509
24	0xbd82f7fe	-0.06394957
25	0xbced37c9	-0.028957264
26	0xbbbc5394	-0.005747268
27	0xbcfd23ab	-0.030900797
28	0xbbd8550d	-0.0066019357
29	0x3ce96f1c	0.028495364
30	0xbc7a5c08	-0.015280731
31	0xbdab2a94	-0.083577305
32	0xbc5e8661	-0.013581843
33	0xbbed5a1c	-0.007243408
34	0x3e0b0b9b	0.13578646
35	0xbcf3e6cf	-0.029773144
36	0x3d08ac65	0.033367533
37	0xbdb8ddf0	-0.09026706
38	0xbcc03e27	-0.023467137
39	0xbbac5e89	-0.005260293
40	0x3c1f927f	0.009739517
41	0x3d32cd6e	0.043652944
42	0x3ccc1683	0.024913078
43	0x3d98895c	0.07448074
44	0x3c5d394a	0.013502428
45	0x3dc717d4	0.09721342
46	0xbcd5ae4c	-0.026084088
47	0xbc92d11b	-0.017921975
48	0x3d2cf9f7	0.042230573
49	0x3d18c3f5	0.037296254
50	0xbd559fa5	-0.052154202
51	0xbd0faa80	-0.03507471
52	0xbccbc513	-0.024874246
53	0xbc8d1761	-0.017223062
54	0x3d188e38	0.037245005
55	0x3d84c395	0.06482617
56	0xbd95a7d9	-0.07307405
57	0xbd120d07	-0.035656955
58	0xbd17fe78	-0.037107915
59	0xbc0b0e32	-0.008487271
60	0xbd0d493f	-0.03449368
61	0xbdc0a566	-0.09406547
62	0xbd9b87a6	-0.07594232
63	0x3c83ec2a	0.016103823
64	0x3ca4180a	0.020030994
65	0xbc726d61	-0.014796586
66	0x3b82af08	0.0039881505
67	0x3b333b00	0.00273484
68	0x3bb26507	0.0054441723
69	0xbc04c9f0	-0.008104786
70	0x3bdcc915	0.006737838
71	0xbd18afee	-0.037277155
72	0xbca08fee	-0.019599881
73	0xbbf3e0fc	-0.0074425917
74	0xbcf8e17e	-0.03038096
75	0x3c253451	0.010083274
76	0x3cedb0a2	0.02901489
77	0x3d6cab24	0.0577804
78	0xbd1e28a4	-0.038612977
79	0x3d2ce123	0.042206895
80	0xbcd06272	-0.025437567
81	0xbe23d920	-0.16000795
82	0xbcebd1c7	-0.028786553
83	0xbc46bf0b	-0.012130509
84	0xbb0f2f39	-0.0021848215
85	0xbb9d1eb1	-0.0047949185
86	0xba8dcb2c	-0.0010817996
87	0x3c98b358	0.018640205
88	0xbc24bf5d	-0.01005539
89	0xbcf484a3	-0.029848402
90	0xbdfff4e9	-0.12497885
91	0xbc86e9f3	-0.016468978
92	0xbd756466	-0.0599102
93	0xbba86faa	-0.0051402645
94	0x3d68bcd3	0.0568207
95	0xbcc736d1	-0.02431813
96	0xbc88cd05	-0.016699323
97	0xbd41d0b7	-0.047318187
98	0xbd555f22	-0.05209268
99	0xbcdeece9	-0.027212577
100	0xbad36834	-0.0016129077
101	0xbb92e5a2	-0.004482941
102	0xbca6a73b	-0.020343414
103	0xbda5cf0b	-0.08096131
104	0xbbd8801f	-0.00660707
105	0xbb9507bf	-0.0045480425
106	0x3c82194d	0.015881205
107	0x3d3ab837	0.045585837
108	0xbd1dc257	-0.038515415
109	0xba12a3c7	-0.0005593863
110	0x3d977ccf	0.07396852
111	0x3c1735fe	0.009229181
112	0xbcbc3a33	-0.02297697
113	0xbc1eaeca	-0.009685228
114	0x3dcbe986	0.099566504
115	0x3d2164c4	0.03940274
116	0xbca05dca	-0.019575972
117	0x3d875af1	0.066091426
118	0xbc24ddd9	-0.010062658
119	0xbbfc9f8d	-0.0077094496
120	0xbccf95d4	-0.025339998
121	0xbd5404f7	-0.051762547
122	0xbd030c93	-0.031994414
123	0xbdfa8cf5	-0.12233917
124	0xbd5249b7	-0.05133983
125	0xbccf4249	-0.025300162
126	0xbd03b99d	-0.032159436
127	0x3d6baa00	0.05753517
128	0x3c44a590	0.012002364
129	0xbd09962e	-0.033590488
130	0xbcdb9be7	-0.026807738
131	0x3d9cc4f2	0.07654752
132	0xb87cdb3c	-6.028566e-05
133	0x3c91de61	0.017806234
134	0xbd012c0e	-0.031536154
135	0xbc9c9084	-0.01911188
136	0x3d99602d	0.07489047
137	0xbc82972f	-0.01594123
138	0xbbb6a86f	-0.005574278
139	0xbd5b3802	-0.05352021

fc2.weight f4 [14, 140]
0	0x3dc1d1e4	0.094638616
1	0xbb8449bc	-0.00403711
2	0xbd3aff2a	-0.0456535
3	0x3c8d171f	0.017222939
4	0xbe5282ed	-0.20557757
5	0x3c4c809d	0.012481836
6	0x3dc257e3	0.09489419
7	0x3e1264d6	0.14296278
8	0xbdcb3875	-0.09922878
9	0xbd021377	-0.031756844
10	0xbc94f46f	-0.018182961
11	0xbdee3de8	-0.116329014
12	0x3d91d053	0.07119813
13	0x3c23b245	0.009991233
14	0xbb9aab20	-0.0047201067
15	0x3cf3e638	0.029772863
16	0x3c4c5c75	0.012473215
17	0xbdda1cae	-0.106500015
18	0xbe206722	-0.15664342
19	0xbd49d542	-0.049275644
20	0x3dcb6dea	0.09933074
21	0xbd73d1d4	-0.05952628
22	0xbd153be8	-0.036434084
23	0xbd5432db	-0.051806312
24	0xbdfa0b69	-0.122092076
25	0x3e10918a	0.14118019
26	0xbd11ec39	-0.03562567
27	0xbd83cc03	-0.064353965
28	0x3d30453f	0.04303479
29	0x3dab78e8	0.083726704
30	0xbb1cb000	-0.0023908615
31	0xbe2b0c9a	-0.16704026
32	0x3db6a19a	0.08917542
33	0x3d6a57c4	0.057212606
34	0x3e226b59	0.15861262
35	0x3d8e18cc	0.069383234
36	0xbdab4035	-0.08361856
37	0xbdc26e7d	-0.0949373
38	0xb9ff7568	-0.00048724865
39	0xbdb21c18	-0.08696765
40	0xbe04783e	-0.12936494
41	0x3d5cc6bc	0.053900465
42	0x3bad1d5c	0.005283041
43	0x3c810723	0.015750473
44	0x3dc86781	0.09785367
45	0x3dc7491b	0.09730741
46	0xbd9727bf	-0.07380628
47	0xbd88e5ad	-0.06684432
48	0x3cad2027	0.021133495
49	0x3de423d2	0.11139645
50	0x3cb6ed3d	0.02232992
51	0xbd92814d	-0.071535684
52	0xbdc61a3d	-0.09672973
53	0xbd029fb6	-0.031890593
54	0x3d8211b1	0.063510306
55	0x3d8f9ce3	0.07012346
56	0xbde02f6c	-0.10946545
57	0xbdac0c90	-0.084008336
58	0xbd214993	-0.039376806
59	0x3d400c3b	0.046886664
60	0x3dc70197	0.097171
61	0xbd9b844d	-0.07593594
62	0xbd98029f	-0.07422375
63	0xbdae862e	-0.085216865
64	0x3d030829	0.031990204
65	0x3cc5aa39	0.02412902
66	0xbd290e1e	-0.04127323
67	0x3c6d0cb9	0.014468365
68	0xbdf88dcf	-0.12136423
69	0xbca8f5f8	-0.0206251
70	0xbb5653ee	-0.0032703835
71	0xbd8750f0	-0.066072345
72	0x3d9de977	0.077105455
73	0xb9f50dde	-0.00046740373
74	0xbdb6c7f3	-0.08924856
75	0xbd0f081c	-0.034919843
76	0x3db348d1	0.08754123
77	0xbd88540e	-0.06656657
78	0x3dedd229	0.116123505
79	0x3deeb677	0.11655896
80	0x3d7995ac	0.060933754
81	0xbe73a41d	-0.23793073
82	0xbda42ce9	-0.080163784
83	0x3c3d407c	0.011551019
84	0x3d16cc93	0.03681619
85	0xbdbeb2b3	-0.09311428
86	0x3d4a747d	0.049427498
87	0x3db3ba8e	0.08775817
88	0x3d29f2fb	0.04149149
89	0xbe1c31f5	-0.15253432
90	0xbe17a357	-0.14808403
91	0xbde9ea28	-0.11421615
92	0xbdb42140	-0.087954044
93	0x3d2c276d	0.042029787
94	0xbc5e0c50	-0.01355274
95	0x3d24c71b	0.040228944
96	0xbcfb395c	-0.030667
97	0x3e0cbc5c	0.13743728
98	0xbdbaa6c9	-0.09113843
99	0x3def6cb5	0.11690656
100	0xbd4db693	-0.050222944
101	0xbc5959c3	-0.01326603
102	0x3d86447f	0.06556033
103	0xbe281e2e	-0.16417763
104	0x3d86885a	0.06568976
105	0xbc841aa7	-0.01612599
106	0x3db4e9e6	0.08833675
107	0xbdcf2797	-0.10114973
108	0xbdff2aa5	-0.12459306
109	0x3d9f9394	0.0779182
110	0x3c090d84	0.008365039
111	0x3d98812c	0.074465126
112	0xbdee7c3e	-0.11644791
113	0x3d9213c6	0.07132678
114	0x3df3adcb	0.11898383
115	0x3dd8db0f	0.10588657
116	0x3cb932b1	0.02260718
117	0x3e089ec3	0.13341813
118	0xbc8774a6	-0.016535114
119	0xbc2f77b8	-0.0107096955
120	0xbdee5914	-0.11638084
121	0x3dab4135	0.08362047
122	0xbd2a16f5	-0.0415258
123	0x3d9f061c	0.07764837
124	0xbdc41fd1	-0.09576381
125	0xbdb98497	-0.09058493
126	0x3d2fbe11	0.04290587
127	0x3dc5d1f1	0.09659184
128	0x3d0cdb84	0.034389034
129	0xbd9f54ba	-0.07779832
130	0x3d16714d	0.036729146
131	0x3db4d3c0	0.088294506
132	0x3d79f7ec	0.061027452
133	0x3db1d0ad	0.0868238
134	0xbd5e108a	-0.05421499
135	0xbd904916	-0.0704519
136	0x3dfba0e2	0.12286545
137	0x3a170e07	0.0005762283
138	0xbdbc3b55	-0.09191004
139	0x3c9cb844	0.019130833
140	0x3c740fc5	0.014896338
141	0xbe1f37f1	-0.15548684
142	0xbb8d11e5	-0.0043051117
143	0x3d20b1ad	0.039231945
144	0xbd62c7dd	-0.055366386
145	0xbcce0645	-0.025149474
146	0xbd4989bd	-0.049203623
147	0x3c223cb6	0.00990217
148	0xbdf9c7bd	-0.121963
149	0x3d3c7a32	0.046014972
150	0x3d6116c6	0.05495336
151	0xbe5b94a6	-0.21443424
152	0xbdeeb703	-0.116560005
153	0x3d3cdf0f	0.046111163
154	0x3c62d51a	0.013844753
155	0x3e15d77f	0.14632986
156	0x3e14c848	0.14529526
157	0xbd6618fa	-0.056176163
158	0x3d23f4e3	0.040028464
159	0xbd4ccbe8	-0.049999148
160	0xbe0c7da5	-0.13719805
161	0x3cb3b1ea	0.021935422
162	0x3d09c655	0.03363641
163	0x3b0c349a	0.0021393658
164	0xbc9eaea7	-0.01937039
165	0xbcec0523	-0.028811043
166	0xbc103270	-0.008801088
167	0x3b4f2072	0.0031605032
168	0x3b1d3a7b	0.0023991156
169	0x3d260e45	0.040540952
170	0x3d9ce64d	0.07661114
171	0xbe0449a8	-0.12918723
172	0xbd9cbaa7	-0.076527886
173	0xbcf5bdc6	-0.029997718
174	0x3dc73d8b	0.09728535
175	0xbe1c5da0	-0.1527009
176	0x3dbe085d	0.09278939
177	0xbd528df6	-0.051404916
178	0x3d5e200a	0.054229774
179	0x3cd16aff	0.025563715
180	0x3dca7a06	0.098865554
181	0x3da73c4a	0.08165796
182	0xbb1d9a90	-0.0024048425
183	0x3d6f0452	0.05835373
184	0x3d4dd226	0.05024924
185	0x3df3a5de	0.11896871
186	0x3bfdf413	0.007750043
187	0x3e07bf9a	0.13256684
188	0x3e43ec07	0.19133006
189	0xbde45782	-0.11149503
190	0xbdc54ffc	-0.096343964
191	0x3d5c4b75	0.0537829
192	0x3d2b12c4	0.041765943
193	0x3bb4680b	0.005505567
194	0x3b434e8b	0.0029801454
195	0x3e10b7d4	0.14132625
196	0xbe098e28	-0.13433135
197	0xbd18f097	-0.03733882
198	0xbdfbae73	-0.12289133
199	0x3c5edf05	0.013602977
200	0xbdc8735b	-0.09787627
201	0xbda16283	-0.07880118
202	0xbd837143	-0.06418087
203	0x3e23ebe1	0.1600795
204	0x3c1bb40d	0.009503377
205	0xbc4e316f	-0.012585028
206	0x3d7aef06	0.061263107
207	0x3d58f244	0.052965418
208	0x3af9db03	0.0019062463
209	0x3e2b4339	0.16724862
210	0xbd434b83	-0.047679435
211	0x3dd1ca2e	0.10243641
212	0x3e136d9d	0.14397283
213	0xbd73252e	-0.05936163
214	0x3ce7e983	0.02830959
215	0x3d7f8668	0.06238404
216	0x3dd5b660	0.10435176
217	0x3dd19449	0.10233361
218	0x3d8a69b7	0.06758445
219	0xbd4ea2be	-0.05044817
220	0x3c433f0b	0.011916886
221	0x3da602c7	0.081059985
222	0x3c661e2c	0.0140452795
223	0xbe059250	-0.13044095
224	0x3bd7ddf9	0.0065877405
225	0xbc4b1954	-0.012396175
226	0x3c9cc64b	0.019137522
227	0x3da43f76	0.08019917
228	0xbd15f706	-0.036612533
229	0xbd2e614e	-0.042573266
230	0xbdfceb25	-0.12349538
231	0x3c904316	0.017610114
232	0xbd6a7129	-0.057236824
233	0x3db39eef	0.087705486
234	0x3dcbbe8e	0.09948455
235	0x3d6883e5	0.05676641
236	0xbd830b26	-0.06398611
237	0xbde240ca	-0.11047514
238	0xbcb439e6	-0.022000264
239	0x3d93922c	0.072056144
240	0xbc627e2d	-0.013824028
241	0xbd1bcf06	-0.03803923
242	0xbd8cdf0b	-0.068784796
243	0x3e02af53	0.12762193
244	0xbd9705e1	-0.07374168
245	0x3c6123e6	0.013741469
246	0x3dc3151f	0.09525513
247	0x3c06c87b	0.008226509
248	0xbcc77cd4	-0.024351515
249	0xbd926abd	-0.07149265
250	0x3d46fe35	0.048582274
251	0xbdfb30ac	-0.12265143
252	0xbcf736bf	-0.030177472
253	0xbd952aa8	-0.07283527
254	0x3db59cee	0.088678226
255	0xbc165890	-0.009176388

fc2.bias f4 [14]
0	0x3e27af53	0.16375475
1	0x3e0e40a5	0.13891847
2	0x3ce9e80f	0.028553037
3	0x3ccb72d0	0.02483502
4	0x3e1b4ca2	0.15165952
5	0x3c37adcf	0.011210873
6	0xbc4cde27	-0.012504137
7	0x3d5608ac	0.052254364
8	0x3d021187	0.031754997
9	0x3dcbc5cc	0.09949836
10	0x3e6823be	0.22669885
11	0x3c8f3630	0.017481893
12	0x3ddb68cf	0.1071335
13	0x3c9f0b78	0.019414648
