Response14/state_dicts/10_runs/modelStateDict_1000_shallow_2.pth (torch, 89287 bytes, 5 tensors)

conv1.weight f4 [1, 1, 3]
000000 4f 6f f7 bd d9 b6 08 bd 4f 92 b6 be
       -0.12081777 -0.033377502 -0.356585

fc1.weight f4 [140, 140]
000000 23 bb 2e bd 5c 62 ec bc 9f 28 05 bc 9c 28 48 3c
       -0.042658936 -0.028855495 -0.008127361 0.012216713
000010 89 20 64 bc 74 1d 2e 3d 19 68 f9 3d f8 cc 89 3d
       -0.013923773 0.042508557 0.12178058 0.06728548
000020 f5 65 90 bb 59 a0 7a bd fb 09 8c bd 1b 9f 55 bd
       -0.0044066855 -0.061188076 -0.06837841 -0.052153688
000030 87 57 26 bd 64 3f 54 bd d7 f8 ab 3c 01 87 ab bc
       -0.040610816 -0.051818267 0.02099268 -0.020938398
000040 66 03 7f 3d 34 2e 3d 3c 6f 57 33 3c bb 03 e9 bc
       0.0622591 0.01154666 0.010946139 -0.028444162
000050 85 07 ae bc ea 3e 42 bb 7f 3e 82 bc 63 b2 d3 bc
       -0.02124382 -0.002963955 -0.015898941 -0.025841897
000060 45 86 ab bb 70 3d c6 3b f7 7e 38 3d 0b eb 4e 3d
       -0.005234512 0.0060498044 0.045042958 0.050517123
000070 eb d7 16 3d 06 dc 9b 3b 48 ca 9e bc 60 a3 10 3d
       0.03682701 0.0047564534 -0.019383565 0.035312057
000080 9f 05 2b 3d 9b 3f 47 3d 57 2a 19 3d 03 bf 06 bc
       0.041753408 0.048644643 0.037393894 -0.008224252
000090 2c 48 8f 3c 15 0c b5 3c 22 5c 48 3c 7d 39 76 3c
       0.017490469 0.022100488 0.012228997 0.015028355
0000a0 a1 31 5d 3c ef be 81 3d 20 d4 e2 3c e1 e5 f9 bc
       0.013500602 0.06335246 0.02768904 -0.030505123
0000b0 1b 05 29 bc 68 2c b9 3b 69 8c fa bb 41 19 02 bd
       -0.010316159 0.0056510456 -0.0076461327 -0.031762365
0000c0 6d 0b 15 bd 45 f5 89 bb a2 46 14 bc e8 8f 90 bd
       -0.03638785 -0.0042101466 -0.009050043 -0.07058698
0000d0 2f c0 1a bd 29 c0 0c 3c c8 e2 18 bc 9f 05 10 bc
       -0.037780937 0.008590736 -0.009331413 -0.008790403
0000e0 b7 25 75 3c cd 7a 84 3d d2 a2 5c bd d4 b8 a0 3d
       0.014962605 0.06468735 -0.053866215 0.07847753
0000f0 f2 a6 ba bc 6f 78 26 bd 3b 47 9c 3d 9b 53 17 bd
       -0.022784684 -0.0406422 0.07630774 -0.036944967
000100 c1 f1 23 bd b6 3d bd bc 28 4b af bc e9 f4 e2 bd
       -0.040025476 -0.023100715 -0.021398142 -0.11081869
000110 60 9a 9c 3d f1 de bb 3d 93 dd d3 bc c0 a0 b2 3a
       0.07646632 0.09173382 -0.02586249 0.001362823
000120 85 e0 29 3d 81 fb 24 3d 2c 24 83 bc d2 cb 3e bc
       0.041473884 0.040278915 -0.016008459 -0.011645274
000130 46 65 1a 3d 8d 7e 4c bd f1 5e 84 3c 2a 94 3a 3d
       0.037694238 -0.049925376 0.016158553 0.045551457
000140 0b ec 2d bc 30 fa 66 3b ca ce 22 bd 67 28 31 bd
       -0.010615359 0.0035244338 -0.03974799 -0.04325142
000150 7d d4 9a 3a a2 69 51 bb 77 24 06 3c 86 57 b5 3c
       0.0011812594 -0.0031953831 0.008187405 0.022136461
000160 3d 43 4f 3c 6b e6 50 3c 36 96 24 3d 9b 1e 30 3d
       0.012650308 0.012750248 0.040182315 0.042997938
000170 0f 39 d1 3c dd ae 9c 3c 94 3d 31 3c 0a ea 62 3d
       0.025539903 0.01912635 0.010817904 0.05539898
000180 48 21 be 3d 0f c4 8f 3c 76 38 06 3c 62 75 7f bd
       0.09283692 0.017549543 0.008192172 -0.062367804
000190 df 2f 74 3c cf 2f f3 3b 5f 68 d0 bc 1c 5c 92 3c
       0.0149039915 0.0074214707 -0.025440393 0.017866187
0001a0 c4 12 77 bd f2 a1 98 bc 8e 8f 8e 39 22 48 5e 3d
       -0.06032063 -0.018631909 0.00027191307 0.05426801
0001b0 61 cc ab 3c df 4d 89 3d d3 77 42 3c 09 cd 91 3d
       0.020971479 0.06704306 0.011869389 0.071191855
0001c0 50 a6 28 3c d3 37 f1 3c d4 55 1b 3d 61 b7 16 bd
       0.010293558 0.029445564 0.03792365 -0.036795978
0001d0 3a 7f 0c 3d 61 37 91 bb 8a eb 30 3d 7c ab b7 3d
       0.03430102 -0.0044316505 0.043193378 0.08968255
0001e0 9b ed 98 3d cd ac 75 3d 77 43 1f bd 3c 12 23 3c
       0.07467195 0.05997925 -0.0388827 0.009953078
0001f0 59 7f de 3c a8 92 01 3d a0 dc 9a bd 3a 9b 7d bc
       0.027160333 0.031634003 -0.07561612 -0.015478903
000200 4b 19 1d bb 8b 18 b9 bc b4 91 0c bd cf 22 96 bc
       -0.0023971375 -0.02259471 -0.03431864 -0.018327145
000210 32 bd 20 bd 8a 07 88 bd ae 26 76 bd 52 0e a2 bd
       -0.03924293 -0.06642063 -0.06009548 -0.07912888
000220 58 a1 33 bd 1e 83 12 bc 2c 7f 38 bd 78 a2 42 bc
       -0.04385504 -0.008942394 -0.045043156 -0.011879556
000230 02 59 a7 3c ec 13 0a 3c 0b 46 81 bb 59 f5 4d bc
       0.020428184 0.008427601 -0.0039451174 -0.0125707025
000240 49 0b fc 3c ee da 1f 3d b2 38 e6 3b 70 55 52 3c
       0.0307671 0.039027147 0.0070258016 0.012837753
000250 47 5f 96 bd 4c 81 8b bd 15 ec 99 3d 24 2c e5 bb
       -0.073423915 -0.06811771 0.07515732 -0.0069937874
000260 c1 b2 77 bc 3a 9e 87 3d 0d a6 3f bc 38 49 88 bc
       -0.015118302 0.06621976 -0.011697304 -0.016636476
000270 a6 1d 4c 3d f1 0e 3d bd 16 19 0f bd 34 90 23 3d
       0.049832962 -0.046156827 -0.034936033 0.039932445
000280 6c 38 7d bb 79 31 5d bb 38 ac 0c 3d a5 69 f3 3c
       -0.0038638366 -0.0033751412 0.034343928 0.029713461
000290 bd cf eb ba 8a b8 5e bc f0 d5 0d bd 31 7d ba bc
       -0.0017990988 -0.013593802 -0.034627855 -0.022764774
0002a0 7f 49 3e bd 95 32 0e bd 24 ce ec bb 79 2e 8d bb
       -0.04645681 -0.034716208 -0.0072267223 -0.0043085185
0002b0 3b 69 03 3d 26 32 1d 3c 6b 91 26 3d 3c 22 07 3d
       0.032082777 0.009594476 0.040666025 0.032991633
0002c0 c9 01 4e 3d 73 9a 87 3d 1d f6 03 3d 9e 15 68 3c
       0.05029467 0.06621256 0.032217134 0.01416531
0002d0 3c 72 08 bd af fc 10 bd 83 5f cb bc 7c f9 e0 3b
       -0.033312067 -0.035397228 -0.024825817 0.0068656784
0002e0 41 bc a5 3b f3 da a3 bd 2c a4 a1 bd a4 89 0f bd
       0.005057842 -0.080007456 -0.078926414 -0.035043374
0002f0 2f 5a 92 3c 9a 49 07 bc d3 4f 78 3d d9 a6 c3 3d
       0.017865269 -0.008257294 0.060623 0.09553308
000300 07 b5 33 3d 91 6c dc 3d c5 24 32 3d ec 6a b6 3d
       0.043873813 0.10762895 0.043492097 0.089071125
000310 21 08 86 3d 5b 17 23 bd 55 c1 b0 3d d7 ea 1b 3c
       0.06544519 -0.039817195 0.08630625 0.009516439
000320 08 9e 3c 3d c5 9c 05 3c 81 0a 9f 3d 2e ab bf bc
       0.046049148 0.008155053 0.07765675 -0.023397055
000330 ad 47 80 bd 9e bb cb 3d 13 e6 25 3d 5e 68 da 3c
       -0.06263671 0.099478945 0.04050262 0.026661094
000340 1a 3c 74 3c 5f 1f 8b bd a4 0d aa bd ce 8b 48 bd
       0.014906907 -0.06793093 -0.08303383 -0.048961453
000350 4f 17 68 3d 2e 8b 94 bc 98 38 0e 3c eb 40 6a bc
       0.056662854 -0.018132772 0.008680485 -0.014297704
000360 8d a7 9a bb 6c 14 43 bc 8c 6c 2c bc b4 ea c8 3c
       -0.0047196806 -0.011906724 -0.0105239265 0.024525978
000370 87 0f 26 3b 77 12 f7 bb 8e a9 84 bc 96 9c a1 bc
       0.0025338845 -0.007540043 -0.016194131 -0.019727986
000380 fe a1 f0 bc e7 5f a3 bc 00 ca 66 bc b3 24 f9 bc
       -0.029374119 -0.01994319 -0.0140862465 -0.030413007
000390 4a c0 dd bc 40 bc 8c b5 4f 04 88 3c 41 51 f4 3b
       -0.02706923 -1.0485601e-06 0.016603617 0.0074559753
0003a0 ef 29 ec 3b 96 54 71 bc 6f 86 ec 3b 91 c4 60 bb
       0.0072071473 -0.0147296395 0.007218174 -0.003429685
0003b0 ce cd 08 3d 47 a2 79 bd 92 0a d1 bc e0 b4 5c 3c
       0.033399396 -0.060945775 -0.025517736 0.013470858
0003c0 80 79 a2 bc 28 c9 93 3d f3 c8 0f bd 2a 7e 3f bd
       -0.019833326 0.07216102 -0.03510375 -0.04675118
0003d0 13 a5 2c 3d da 22 5d bc 90 13 88 bb f2 2c 81 bd
       0.042149615 -0.013497079 -0.0041527227 -0.06307401
0003e0 ef 1c a0 bd 6e d2 51 bd 7c cf df 3b 85 e0 35 bd
       -0.07818019 -0.051226072 0.006830154 -0.04440357
0003f0 0c 39 af bc 41 b6 a0 bb 1f d8 7f 3d eb 7b cb bc
       -0.021389507 -0.004904539 0.06246197 -0.024839362

fc1.bias f4 [140]
000000 0e 38 be bc eb b8 c1 3d ec 8e 1d bd c5 dc 85 3d
       -0.023220088 0.094590984 -0.03846638 0.06536249
000010 29 67 8b bd ca 7e a0 3d 4e ae 64 3d 0f 65 1f 3e
       -0.068067856 0.07836683 0.055830292 0.15565895
000020 61 4f 07 3c 85 c0 06 be c7 aa 6c 3d 29 5c 12 3e
       0.0082586715 -0.13159378 0.057780053 0.14292969
000030 10 93 87 bd 17 17 89 3d 33 94 b5 3d c7 18 75 bd
       -0.06619847 0.06693857 0.088661574 -0.059838083
000040 a3 81 03 3e 6a 48 73 3d 5d a2 6a bb d2 b7 ab 3b
       0.12842421 0.05939523 -0.0035802342 0.005240419
000050 6b 34 a2 3d 9a ae c3 3c ec a8 b6 3c b0 33 a4 bd
       0.07920154 0.023886967 0.022297345 -0.08017671
000060 82 c6 39 3d 0a 15 8e 3c ea 68 87 3d 37 99 12 bd
       0.045355327 0.017344017 0.06611808 -0.03579065
000070 e9 73 92 3d 70 97 cd 3c 2b 9c e9 3d e1 6a 18 3c
       0.07151014 0.025096625 0.1140674 0.009302826
000080 24 29 01 3d 2d d4 93 3d 3f 9a 34 bd 0d 72 f4 bc
       0.031533375 0.07218204 -0.044092413 -0.02983954
000090 3c 5e 93 bc 89 85 81 bd ad 76 fd bc eb 2a 9d 3d
       -0.01798927 -0.06324298 -0.030940378 0.076742016
0000a0 a8 d6 92 3d 18 3f 24 3d 49 5c 9a 3d 3c cd 9c 3d
       0.07169849 0.040099233 0.07537133 0.07656333
0000b0 3c 25 92 bc cd e7 91 3d 5b ee 81 bd 75 00 3f 3b
       -0.01784002 0.071242906 -0.06344291 0.002914456
0000c0 2e 7f 9a bd d2 94 7f bd b6 29 ba 3d cc 83 94 3d
       -0.07543789 -0.062397785 0.09089987 0.07251701
0000d0 cb c6 9d 3d 4b 78 30 bc 91 27 8a bd 14 1d 8c bd
       0.077039324 -0.010770868 -0.06745828 -0.06841484
0000e0 c0 58 27 bd 3b 6c bc bc 02 b0 98 3d a0 52 13 bd
       -0.040856123 -0.023000827 0.07455446 -0.03596747
0000f0 d8 01 6c bd 9a 6a f8 3b 83 26 40 3d d8 8e 98 bd
       -0.057618946 0.0075810673 0.046911728 -0.0744912
000100 9d 59 93 3d 7b 49 3a bd 8e b7 c0 3d 2c fd ce 3d
       0.07194827 -0.045480233 0.0941001 0.101068825
000110 e0 50 af 3d c4 d4 2e bd f9 2c bc 3c 8f 97 10 be
       0.085603476 -0.042683378 0.022970663 -0.14120315
000120 15 fd b8 3d d4 7b 64 3d a9 03 cb 3c 19 56 21 bd
       0.090326466 0.055782154 0.024782019 -0.03938875
000130 39 57 a6 3d 3b 2c 81 3d 4d d7 5b 3a d4 d8 23 3d
       0.08122105 0.063072644 0.00083862693 0.040001705
000140 d3 c0 9a 3c c6 ba 27 bd f5 84 ab 3d 0e 66 cf bd
       0.018890774 -0.040949605 0.08374969 -0.10126887
000150 c9 6e 98 bd 90 da 07 3d e6 c4 76 bd b3 70 74 bd
       -0.074430056 0.03316742 -0.06024637 -0.05967779
000160 73 85 86 3d 3e 24 94 3d 6f 1f 18 3d 98 74 27 3d
       0.06568422 0.07233475 0.037139352 0.040882677
000170 d9 cc 77 3d a1 46 62 bd ce 48 b3 3d 60 74 e6 3d
       0.060498092 -0.05524314 0.08754121 0.112526655
000180 31 cf be bd cc 58 b8 bd b5 7b 90 bd ab 8e 8d bd
       -0.093168624 -0.09001312 -0.07054845 -0.069119774
000190 8a 2c ea bc 8d 2d 91 3d 73 5e 9a 3d e1 d7 8b 3d
       -0.028585691 0.07088766 0.07537546 0.06828285
0001a0 99 16 92 3d 41 7a 49 bd ad 36 9c 3d 2a f0 a0 3d
       0.071332164 -0.049188856 0.07627616 0.07858308
0001b0 b5 04 b5 3d 13 a7 f4 3d e6 b0 9c bb c2 84 95 3d
       0.088387884 0.119459294 -0.00478183 0.07300712
0001c0 35 f2 bc 3d 01 d3 92 bd de 82 c4 3d 79 56 99 3d
       0.09225885 -0.07169152 0.095952734 0.074871965
0001d0 61 7c 82 3d 93 76 88 bd 56 f1 ba 3d b1 86 04 bd
       0.0637138 -0.06663241 0.091280624 -0.032355014
0001e0 19 31 a6 bd 74 6a a4 3d e6 6d 83 3d 8c 4d 78 bc
       -0.081148334 0.08028117 0.06417446 -0.015155207
0001f0 f8 e1 e9 bd dd ab ef bd 1b 6c 82 bd 04 6f 5f bd
       -0.11420053 -0.11702702 -0.06368276 -0.054549232
000200 ec cc 9a bc 01 6e a3 bd c6 57 20 bd c8 32 f2 3c
       -0.018896542 -0.07979966 -0.039146207 0.02956523
000210 14 d0 88 3d f3 a7 fa bd 49 48 93 bd 17 29 b3 3d
       0.06680313 -0.12239065 -0.07191522 0.08748072
000220 b6 58 a8 3d c2 b7 8c bd 3e db 0e be c1 ce 38 3e
       0.08220045 -0.068709865 -0.13950822 0.1804762

fc2.weight f4 [14, 140]
000000 36 63 08 be c6 e6 e2 3d 23 87 40 bd 85 0d fc 3d
       -0.13319096 0.11079173 -0.047003876 0.12307266
000010 ec 7e 38 bd f2 fd 71 3c d5 32 44 bd 8e 57 01 3e
       -0.045042917 0.014770018 -0.04790004 0.12631056
000020 5a 28 87 bd 17 35 3b bd 92 92 25 bd 12 db 6c 3e
       -0.06599493 -0.045704927 -0.040422983 0.23130444
000030 e1 e5 a6 bd 52 08 bf 3d 00 e1 10 bc f8 c9 04 bd
       -0.08149315 0.09327759 -0.008842707 -0.032419175
000040 8e 3a 57 3e 50 e3 ff 3d 30 0b 59 3c 5d bc a1 3d
       0.2101843 0.12494528 0.013247296 0.078972556
000050 10 f6 2f 3d 1d 72 14 bd 3d 8a 52 bd 40 e4 d4 bd
       0.042959273 -0.03624164 -0.051401366 -0.10395098
000060 05 7c 33 bd d4 17 fd 3d c7 f6 37 3e c2 a4 dc 3b
       -0.043819446 0.123580605 0.17965232 0.006733508
000070 e8 2d 04 3e 74 da 0d bd f9 c6 1a 3e 97 55 9e 3d
       0.12908137 -0.03463216 0.15114965 0.07731169
000080 71 a0 f5 3d 59 98 1b 3e 95 25 d7 3b a8 b3 13 bb
       0.119934924 0.15194835 0.0065657594 -0.0022537503
000090 14 a9 be 3c 27 d9 cb bd b0 46 98 bc a9 0a fa 3c
       0.023273982 -0.09953528 -0.018588394 0.030522661
0000a0 d2 1b 6f 3d ef 0e 41 3b 9d ca 03 bd a7 b3 de 3d
       0.05837614 0.0029458364 -0.03217565 0.1087411
0000b0 39 46 b1 bd 15 96 3d 3d d8 8f 38 bd 1b ec ed bd
       -0.08655972 0.046285708 -0.045059055 -0.11617299
0000c0 6b ad 84 bd b8 ca 6c bd 31 a9 f5 3d 4e 9e 85 3d
       -0.06478389 -0.057810515 0.11995161 0.06524335
0000d0 2c a7 5a bc 5b 0f 5e 3d eb 57 cb bd e8 c5 d8 bd
       -0.013345521 0.054213863 -0.099288784 -0.105846226
0000e0 00 50 66 bd a7 7d ca bd bb 31 c3 3d d1 f6 97 bd
       -0.056228638 -0.098872475 0.0953097 -0.07420123
0000f0 32 91 fd bc d3 1c cc 3c 9a ee 14 3b 26 50 c3 bd
       -0.030953024 0.024916088 0.0022725225 -0.095367715
000100 a0 75 53 3e 45 70 9c 3c f4 e6 3e 3d 17 fc 39 3e
       0.20650339 0.019096503 0.046606973 0.18162571
000110 f3 ee ef 3d 64 e7 42 bc 4f 50 b8 bd bc a2 03 be
       0.11715498 -0.011895988 -0.08999693 -0.12855047
000120 6f 91 2d 3e dd a5 bc 3c e8 62 03 3d 9f b6 f6 bd
       0.1695001 0.023028309 0.032076746 -0.12046551
000130 7e cc 7b 3d 5c e8 2a bd 79 25 2f 3b 7b 0c 16 bd
       0.061474316 -0.0417255 0.0026725216 -0.036632996
000140 75 1d 5f bd d5 14 94 bd 23 f4 7c 3d 3f 8a 05 be
       -0.05447145 -0.07230536 0.061756264 -0.13041018
000150 30 d8 e8 3c 9d ab b7 bd 75 d5 36 bd e4 04 c3 bc
       0.028423399 -0.089682795 -0.044637162 -0.023806043
000160 13 e3 09 3e 5c 3e 27 3e 1f 9b 0c 3c 82 20 cf 3d
       0.13465528 0.16332382 0.008581906 0.10113622
000170 a9 c1 54 3d 29 10 f2 bd 96 c9 42 3e 16 99 5a 3e
       0.0519425 -0.118194886 0.19022211 0.2134746
000180 3d 85 ee bd eb f9 00 be 2f 69 e4 bd b8 7c a6 bb
       -0.11646507 -0.12595336 -0.11152875 -0.0050807856
000190 69 2c 12 bd b8 dc ca 3d d5 f8 c2 3d 24 04 5c 3d
       -0.035686884 0.0990538 0.09520117 0.053714886
0001a0 5e 71 e4 3c 42 3c 64 bd 16 7f a4 3d 45 7e bf 3d
       0.027886089 -0.05572153 0.08032052 0.09350256
0001b0 f6 80 12 3e 65 c4 26 3e 7a 46 5b bd 63 62 83 bd
       0.14307007 0.16285856 -0.05353401 -0.0641525
0001c0 b0 32 4b 3e 2e bd a6 3d 6e 24 57 3e 8e e5 0b 3e
       0.19843554 0.08141552 0.2100999 0.13661787
0001d0 48 43 3a bb 2b df bd bc 42 1b a2 3d b7 84 92 bd
       -0.002842145 -0.023177704 0.07915355 -0.071542196
0001e0 69 62 d0 bc 9f 56 37 3e b0 65 c0 bb 5b 2e c9 3c
       -0.02543755 0.17904137 -0.005871497 0.024558237
0001f0 9f 7e f1 bd 05 1c 32 3d 6a 68 8c bd 9e 11 16 be
       -0.11791729 0.043483753 -0.06855853 -0.14655158
000200 fc dc b1 bc af af d5 bc fd 89 95 bd b2 02 70 bd
       -0.021711819 -0.026084749 -0.0730171 -0.05859632
000210 6c c7 2a bc 52 69 bf 3c ec 27 fc bd ce b9 31 3d
       -0.010423522 0.02336565 -0.12312302 0.043390088
000220 1c 02 e1 bc da 53 eb bd f3 cf a3 bd fe e7 09 3e
       -0.027466826 -0.11490603 -0.079986475 0.13467404
000230 a5 75 e0 bd 48 d5 48 bd 96 42 43 bd 4c e8 25 3e
       -0.10959939 -0.049031526 -0.047670923 0.16201895
000240 1d 50 27 3d b0 17 33 3e 3d 42 e5 3c 31 84 27 bc
       0.040847886 0.17489505 0.027985686 -0.010224388
000250 2b f2 57 bc 90 92 be 3c 62 f2 79 bd 14 74 76 bd
       -0.013180296 0.023263246 -0.06102217 -0.060169294
000260 60 d4 9f bd 44 56 10 3e 82 2a 9b 3d 3a c2 93 bd
       -0.07804179 0.14095408 0.07576467 -0.0721478
000270 ef a6 fb bc 60 df 19 3e 9b ea 61 bd 6b ca dc bd
       -0.030719249 0.15026617 -0.055155378 -0.10780796
000280 be 6d 17 3e 71 97 2b bd 6e ab 8b bd 51 24 27 ba
       0.14787957 -0.041892473 -0.06819807 -0.0006375956
000290 a7 50 29 3e 52 13 87 bc 37 1b 32 3e 83 da 61 bd
       0.16534673 -0.016488705 0.17393194 -0.05514003
0002a0 5a 14 2f 3e a9 23 17 3e 8b 82 ec 3c d8 21 8a bd
       0.17097607 0.14759697 0.028870841 -0.067447364
0002b0 8c 2a 96 bc e4 fd 77 3d 44 4b 46 bd 6b d4 11 bd
       -0.018330835 0.060544863 -0.048411623 -0.03560297
0002c0 e3 5a 62 bc 8f 78 72 bd 69 b5 02 3e 7e d6 33 3e
       -0.013815614 -0.059197005 0.12764515 0.17562291
0002d0 df 39 fd 3d b6 b1 c4 3d c6 8b 41 3e ba bc 0c 3e
       0.12364554 0.09604208 0.18900976 0.13743868
0002e0 9d fa af bd 78 9e 36 3e b4 d6 be bd 09 5c dc bd
       -0.085927226 0.17833889 -0.09318295 -0.10759742
0002f0 26 1e b1 3c 8e c0 d9 bd 47 5c 48 3b 84 30 8c 3d
       0.021620821 -0.1063243 0.003057258 0.06845191
000300 d6 bd 20 3e 04 e4 74 bd 63 d0 98 3d 06 be 57 bd
       0.15697417 -0.059787765 0.074616216 -0.052671455
000310 ec 53 1e bd 86 8e a8 bd 2d 6f ac 3d ef 51 a2 3b
       -0.038654253 -0.08230309 0.084196426 0.004953615
000320 bb f7 8d bd be 92 fd bd 8f 31 d8 bc ef 14 06 bd
       -0.069320165 -0.123815045 -0.026390819 -0.032734808
000330 08 7d d5 3d a9 13 44 bd 83 98 8e 3d a1 ec 05 3d
       0.104242384 -0.047870312 0.06962683 0.03269637
000340 6b 5a 9f bd 36 3c 12 be f3 b8 92 bd 4c ae b8 bd
       -0.07780918 -0.14280781 -0.071641825 -0.090176195
000350 88 cf 58 3d c0 2e 35 3e ba f6 07 3d 07 bc b6 bc
       0.052932292 0.17693615 0.03319428 -0.022306455
000360 15 a0 41 3e b7 20 32 3e 4c 3a f9 bc b8 fa 21 3e
       0.18908723 0.17395292 -0.030423306 0.15818298
000370 75 9c fa 3c 6d 77 44 bd 2c a1 a1 3d 6e ab 87 bd
       0.030592183 -0.047965456 0.07892069 -0.066244945
000380 ac 38 d6 bd 68 f6 f4 bc 31 07 f4 bc d6 c8 e3 bd
       -0.10460028 -0.029902652 -0.029788585 -0.11122291
000390 29 0d 2f 3e 6c c8 bd 3d cd 06 da 3c 4c f0 29 bd
       0.17094864 0.09266743 0.026614571 -0.04148893
0003a0 63 7a 81 3d b0 92 8c bd 4b be 28 3e ad de 5f bc
       0.063221715 -0.06863916 0.16478841 -0.01366393
0003b0 52 9d 3e 3e a5 8b 12 be 94 4f c8 bc 7a ef d3 bd
       0.186147 -0.14311083 -0.024452008 -0.10348411
0003c0 6a a4 66 3d f0 6e 51 3e 3a 38 24 3e 91 81 a3 3d
       0.05630914 0.20452476 0.16037074 0.07983697
0003d0 bf b4 22 3e 85 12 03 be ce 11 70 3d 36 c4 ed 3d
       0.15889262 -0.12800033 0.05861073 0.1160969
0003e0 71 a1 45 3d de 7d 03 bd d9 eb 64 bd 18 0f 55 3e
       0.048249666 -0.03210246 -0.055888984 0.20806539
0003f0 63 d5 cb 3a 40 01 34 be c4 3e 89 3d 83 c9 0f 3e
       0.0015551265 -0.17578602 0.06701425 0.14041714

fc2.bias f4 [14]
000000 52 7c 92 3d 9a 58 80 3d 94 d1 9c 3d a3 80 88 3d
       0.071526185 0.062668994 0.07657161 0.066651605
000010 14 98 85 3d 38 96 09 3d 20 69 67 3d d7 d1 39 3d
       0.06523147 0.033590525 0.05649674 0.045366134
000020 53 c4 28 3d bc e0 97 3d c4 38 e3 3d 8d f3 31 3d
       0.041202854 0.074159116 0.110948116 0.04344516
000030 59 85 30 3d d3 69 80 3d
       0.04309592 0.06270184
