Response14/state_dicts/10_runs/modelStateDict_1000_shallow_8.pth (torch, 89287 bytes, 5 tensors)

conv1.weight f4 [1, 1, 3]
0	0x3ee43766	0.44573516
1	0xbf05df80	-0.5229416
2	0xbcf012d7	-0.029305859

fc1.weight f4 [140, 140]
0	0x3d3a3196	0.045457445
1	0xbd81462d	-0.06312213
2	0x3ccf97a7	0.025340868
3	0x3db83438	0.08994335
4	0x3dd4b015	0.103851475
5	0xbdece9bc	-0.11568019
6	0x3d46ed2a	0.04856602
7	0x3e36264a	0.17788044
8	0x3cc86889	0.024463909
9	0x3e063ffc	0.13110346
10	0x3ddaa414	0.10675827
11	0x3daf0951	0.08546699
12	0xbc7210ac	-0.014774483
13	0xbd9876ce	-0.07444535
14	0xbcd0f5ec	-0.02550789
15	0xbdc11a61	-0.094288595
16	0x3e2ec2b8	0.17066467
17	0x3d5989c1	0.053109888
18	0x3db362c6	0.08759074
19	0xbe03e392	-0.1287978
20	0xbdebf64d	-0.115215875
21	0x3d8f68d7	0.070024185
22	0x3e373590	0.17891526
23	0x3c95eaa6	0.018300366
24	0x3d4594cb	0.048237603
25	0xbd1b4670	-0.03790897
26	0x3d1d6480	0.038425922
27	0x3d142522	0.036168225
28	0xbe407127	-0.18793164
29	0xbe2196ae	-0.15780136
30	0x3e45d454	0.19319278
31	0xbd9a6605	-0.0753899
32	0x3a5da327	0.00084547926
33	0xbe2828bd	-0.1642179
34	0xbe337456	-0.17524847
35	0x3ca9604d	0.020675803
36	0x3e24b808	0.16085827
37	0xbd04ae4f	-0.032392796
38	0x3c33e435	0.010979702
39	0xbe1b7b4b	-0.15183751
40	0xbe1e6cc7	-0.15471183
41	0xbdeed352	-0.116614
42	0xbe49e400	-0.19715881
43	0x3e364b7a	0.1780223
44	0x3e02a5f0	0.12758613
45	0x3d9ad4a4	0.07560089
46	0xbe159e6f	-0.14611219
47	0x3e078aab	0.13236491
48	0xbdb8185b	-0.089890204
49	0xbe308c5e	-0.17241046
50	0x3e3fbaa1	0.18723537
51	0x3e335499	0.1751274
52	0xbe0e25ff	-0.13881682
53	0x3d4bb039	0.049728606
54	0xbcad4cc6	-0.021154772
55	0xbd794b87	-0.060863044
56	0x3db36959	0.08760328
57	0x3d55040a	0.052005805
58	0xbe0c2491	-0.13685824
59	0x3e06c520	0.13161135
60	0xbe435662	-0.19075921
61	0x3d9c5eb1	0.076352485
62	0x3c2069f2	0.009790884
63	0xbe1d7e09	-0.1538011
64	0x3cdcb509	0.026941793
65	0x3d7feb37	0.062480178
66	0x3c7f71f2	0.0155911315
67	0xbcd244f2	-0.025667641
68	0x3e10c0ec	0.14136094
69	0xbd69b645	-0.05705859
70	0xbd4de7f3	-0.050270032
71	0x3d60c3ee	0.054874353
72	0x3e2dc2de	0.16968867
73	0xbc806a0c	-0.015675567
74	0xbc632fa8	-0.013866343
75	0x3e373453	0.17891054
76	0xbe214369	-0.15748371
77	0x3e40becd	0.18822785
78	0xbe3513a0	-0.17683268
79	0xbde9113e	-0.11380242
80	0x3e41d88a	0.1893026
81	0xbd5de38a	-0.054172076
82	0xbdf3a229	-0.11896164
83	0xbe3cb574	-0.18428594
84	0x3da8124d	0.082066156
85	0xbe047326	-0.1293455
86	0xbd2d7285	-0.042345542
87	0x3dc42589	0.09577472
88	0xbd4151b0	-0.047197044
89	0xbce0f15b	-0.027458837
90	0x3e0756b0	0.13216662
91	0x3d61f273	0.05516286
92	0x3df3646d	0.11884389
93	0x3d1956a2	0.037436135
94	0xbba1549b	-0.004923416
95	0xbd581909	-0.05275825
96	0xbc683201	-0.014172078
97	0x3dca0a51	0.09865249
98	0xbe13f81e	-0.14450118
99	0x3e3f9543	0.18709283
100	0xbd9b0196	-0.07568662
101	0xbd0cca71	-0.03437275
102	0xbe40c3d0	-0.18824697
103	0xbe4382a0	-0.19092798
104	0xbe332998	-0.17496336
105	0x3e40edb7	0.18840681
106	0xbc520933	-0.012819576
107	0xbe2c8a80	-0.16849709
108	0xbe32fd83	-0.1747952
109	0x3d9ef947	0.0776239
110	0xbd91a301	-0.07111169
111	0x3dabd3ea	0.08390029
112	0xbe2312c5	-0.15925129
113	0xbd264fdf	-0.040603515
114	0x3e335264	0.17511898
115	0x3de1839b	0.1101143
116	0xbe1bbfb0	-0.15209842
117	0xbc81585f	-0.015789209
118	0xbc3c1fac	-0.011482161
119	0x3e339363	0.17536692
120	0x3da46136	0.08026354
121	0xbdef85f1	-0.11695469
122	0x3df0dc23	0.11760738
123	0xbc4ad252	-0.012379246
124	0x3d399fe1	0.045318488
125	0x3d831343	0.06400158
126	0x3ddc1b81	0.107474335
127	0x3d870657	0.06593006
128	0xbd0f6fb7	-0.03501865
129	0x3e1c07df	0.15237378
130	0x3e305a34	0.1722191
131	0x3da9331c	0.082617015
132	0xbdc8eae4	-0.09810427
133	0xbd5841ed	-0.052797247
134	0xbe407577	-0.1879481
135	0xbe0e3713	-0.13888197
136	0xbdce0e61	-0.10061336
137	0x3e1b22c7	0.15149985
138	0x3c781661	0.015142054
139	0xbb13ba6f	-0.0022541543
140	0x2b912f72	1.0316038e-12
141	0x2ad53b9a	3.7877758e-13
142	0x2b218772	5.738666e-13
143	0xa9eda352	-1.0553246e-13
144	0xaa5f25ac	-1.9819449e-13
145	0x2a7a5376	2.2233417e-13
146	0x2af8cfde	4.4197886e-13
147	0x2ad3bad9	3.761078e-13
148	0x2add84df	3.9349684e-13
149	0xab1ff536	-5.6828446e-13
150	0x2b010925	4.5842697e-13
151	0xab8aa894	-9.85228e-13
152	0x2a29f6b8	1.5095813e-13
153	0x2b3db45e	6.73966e-13
154	0xa9f8fe41	-1.10575184e-13
155	0x2ad856d4	3.8429557e-13
156	0xaa786e6d	-2.2065136e-13
157	0xa9753262	-5.444463e-14
158	0x2b93386a	1.0460636e-12
159	0xabc98383	-1.4318411e-12
160	0x2982d277	5.8096696e-14
161	0x2b3d216d	6.7192676e-13
162	0x2ab8923d	3.278644e-13
163	0x2b105aaf	5.1284926e-13
164	0x2b0208cb	4.619748e-13
165	0xa7f6b5c8	-6.8475804e-15
166	0x2a2ddc18	1.5441847e-13
167	0x2b083687	4.839258e-13
168	0x2b2ba677	6.098242e-13
169	0x2b2607aa	5.8985683e-13
170	0xab33e752	-6.3914596e-13
171	0x2b4212c6	6.89487e-13
172	0xa9d5c182	-9.4926684e-14
173	0x2b061ae7	4.76437e-13
174	0x2b23f21b	5.824522e-13
175	0xab6e4263	-8.4646716e-13
176	0xa96a5201	-5.2029565e-14
177	0xab46e90e	-7.066716e-13
178	0x2ae2bbe8	4.027605e-13
179	0x2b2cea89	6.143216e-13
180	0x29765c14	5.4702838e-14
181	0xab0fcdf3	-5.108962e-13
182	0x2b387ae2	6.5540466e-13
183	0xaab82498	-3.2710358e-13
184	0xab4ceaf5	-7.280143e-13
185	0xab1b73cb	-5.5227757e-13
186	0xab09cacc	-4.8953615e-13
187	0xaad81363	-3.838276e-13
188	0x2a81d4ff	2.30628e-13
189	0x2b7b7d2b	8.934682e-13
190	0xaaef68ad	-4.2527562e-13
191	0x2abddab3	3.3724897e-13
192	0x2b35f138	6.4638876e-13
193	0x2b365fce	6.4792345e-13
194	0xab4a30b3	-7.18324e-13
195	0x2b5cb0ca	7.8405045e-13
196	0xaa3bddaf	-1.6685848e-13
197	0x29e5f8ce	1.02128036e-13
198	0x2ad6adbe	3.8134594e-13
199	0x28193862	8.505432e-15
200	0x2a5a3015	1.9378971e-13
201	0x2a1f12d4	1.4128569e-13
202	0x2b216c9e	5.7349427e-13
203	0xaa3762c8	-1.6287937e-13
204	0x2ac90b1f	3.571249e-13
205	0x2b1f00a4	5.6489037e-13
206	0x2aedfaf4	4.227379e-13
207	0x2ad6014e	3.8014942e-13
208	0xab3a5e5f	-6.621144e-13
209	0xa91dfbf0	-3.5079524e-14
210	0x2ae4a148	4.0612847e-13
211	0x2b7adf68	8.912788e-13
212	0x2b28f84f	6.0030187e-13
213	0xab42a826	-6.9156e-13
214	0x2afa550f	4.4467942e-13
215	0xab27d093	-5.9619773e-13
216	0x2b35c6e7	6.458015e-13
217	0x2b4b86da	7.230723e-13
218	0x2a25be60	1.4720994e-13
219	0xac1a7772	-2.1951022e-12
220	0xac15de87	-2.12977e-12
221	0x2afd7e25	4.5029358e-13
222	0x2b3b5055	6.654723e-13
223	0xab4ca0a5	-7.26983e-13
224	0x2b5d7e9f	7.8690694e-13
225	0x2b3b49f9	6.6538403e-13
226	0x2a9a29f0	2.7384995e-13
227	0xaaa6bc28	-2.9618083e-13
228	0x2ab0ae75	3.1384934e-13
229	0x2b3da7bf	6.7379083e-13
230	0xaa826af4	-2.3166853e-13
231	0x2b385e08	6.5500426e-13
232	0x2a5f31de	1.982368e-13
233	0xab68db8c	-8.272764e-13
234	0x2a43a9b4	1.7378357e-13
235	0x2b98898d	1.0838428e-12
236	0xa9d32242	-9.376225e-14
237	0xaa84f8fc	-2.3620678e-13
238	0xab123531	-5.194344e-13
239	0x2acf3a99	3.6811247e-13
240	0x2b397ccc	6.5898394e-13
241	0x2a66d271	2.0501115e-13
242	0x2b1579b3	5.3104325e-13
243	0x2b2643a1	5.90689e-13
244	0xab3bb106	-6.6681415e-13
245	0xab1b8353	-5.524931e-13
246	0xaa803610	-2.277488e-13
247	0x2aa4454b	2.9180334e-13
248	0xaad877c8	-3.8452423e-13
249	0xaa72570c	-2.1524118e-13
250	0x2902be70	2.9030977e-14
251	0x2a6e7a80	2.1181147e-13
252	0xab9df73b	-1.1224141e-12
253	0x2a71347e	2.1423312e-13
254	0xa8dd2840	-2.4553384e-14
255	0x2b774347	8.7845394e-13

fc1.bias f4 [140]
0	0xbbb3801c	-0.0054779183
1	0xb4dddf2b	-4.1326834e-07
2	0xbb33e585	-0.0027450037
3	0xbb3badd5	-0.0028637548
4	0xbc153644	-0.009107176
5	0x3ac6c64e	0.00151653
6	0xbb7f48f7	-0.0038953403
7	0xbb622a8d	-0.0034510226
8	0xb4816553	-2.4101845e-07
9	0xbbdcac47	-0.0067344042
10	0x3c4d4034	0.012527514
11	0xac044d22	-1.8801146e-12
12	0x3b21d544	0.0024693767
13	0xbc20110d	-0.00976969
14	0x3a3a4b0d	0.00071065204
15	0xbbb3683d	-0.0054750727
16	0xbc744771	-0.014909611
17	0x3c5522ae	0.013008757
18	0x3c38b33a	0.0112732
19	0x3c9de8a5	0.019275973
20	0xbb5c0f4f	-0.003357846
21	0xbb9a7592	-0.0047137225
22	0x3b76b55b	0.0037644717
23	0xb9dc11f7	-0.00041975055
24	0xbbbd0bc0	-0.005769223
25	0xbc0c6f8c	-0.008571517
26	0x3c53a135	0.012916853
27	0xbc3f3071	-0.011669264
28	0xbb9283ed	-0.004471293
29	0xbbcce878	-0.0062532984
30	0xbad08b33	-0.0015910625
31	0x3cb63d57	0.022246046
32	0xba9c2b23	-0.0011914711
33	0x3ae40ff5	0.0017399775
34	0xbb1fbe5f	-0.0024374945
35	0x153ebe70	3.8520423e-26
36	0x3bf69e02	0.00752616
37	0xbb38cc73	-0.0028198033
38	0xbbf3949f	-0.0074334885
39	0x3b0ee9da	0.0021806867
40	0xbc15fac3	-0.0091540245
41	0xbc3486da	-0.011018479
42	0x3c783d5c	0.015151348
43	0xbc08d0cf	-0.008350565
44	0x3bdd6469	0.0067563546
45	0xbc4e1bf7	-0.0125799095
46	0x3b63d7ed	0.0034766153
47	0xba88f663	-0.0010449406
48	0xbb803ca3	-0.0039134785
49	0xbaea4fc8	-0.001787656
50	0x3c47955a	0.012181604
51	0x3c05da1e	0.008169679
52	0xbc284a20	-0.010271579
53	0xbc012d3d	-0.007884321
54	0x3b180359	0.0023195355
55	0x3b9bf2b0	0.004759155
56	0xbb85ad64	-0.0040795077
57	0x3bbf501d	0.0058384077
58	0xbb3d0617	-0.002884274
59	0xba71a87a	-0.00092185254
60	0x3c345926	0.011007583
61	0xbbc26ce3	-0.0059333905
62	0xba8e236d	-0.0010844298
63	0xbc67f157	-0.014156661
64	0xbc22ccc2	-0.009936513
65	0xbb90b599	-0.0044161794
66	0xbb67d89e	-0.0035376917
67	0xb06536f2	-8.3387797e-10
68	0xbc1b9fb4	-0.009498525
69	0xbc6c26db	-0.014413561
70	0xbb876cbb	-0.0041328347
71	0xbc66c72e	-0.014085574
72	0x3bacee4b	0.00527743
73	0xba842497	-0.0010081705
74	0xbc7a5fd2	-0.015281634
75	0x3c1fd1fc	0.009754654
76	0xbc561897	-0.013067386
77	0x3bbc5023	0.0057468577
78	0xb737f0ee	-1.0963746e-05
79	0x3b1a0226	0.0023499816
80	0xbb8325bd	-0.0040023015
81	0xb9aeb784	-0.00033324596
82	0xbbb2baac	-0.005454382
83	0x3b804da0	0.0039155036
84	0xbbdb485a	-0.0066919746
85	0x3b98cf42	0.004663379
86	0xbc6f89f9	-0.014620298
87	0xba3ecddb	-0.00072785997
88	0x3b01e191	0.0019818286
89	0xbbd893bc	-0.006609408
90	0xbb6c534f	-0.0036060398
91	0xbb41521f	-0.002949841
92	0xbb9eb6a4	-0.00484355
93	0xbc6be705	-0.014398341
94	0xbbbf883e	-0.0058450988
95	0xbc0f1f1a	-0.0087354425
96	0xbb4daf13	-0.003138487
97	0xbc687deb	-0.014190177
98	0xba0be460	-0.000533646
99	0xbb6dfcfd	-0.0036314123
100	0xbb8ae37e	-0.004238545
101	0xbbdcc09c	-0.006736828
102	0x3b3e358c	0.0029023616
103	0xba824aef	-0.0009940545
104	0x3c447b22	0.011992248
105	0xbc21f0ce	-0.0098840725
106	0xbc869ec0	-0.01643312
107	0x3b8ca860	0.004292533
108	0x3b497606	0.0030740513
109	0xbbdf358c	-0.006811803
110	0xbc0978a3	-0.008390578
111	0xbb8dedde	-0.0043313345
112	0xbbbe2d67	-0.005803752
113	0xbbf9e3b1	-0.00762602
114	0xbaacea40	-0.001319237
115	0x3c58ef16	0.013240596
116	0x3a22b88d	0.000620731
117	0xbc08d584	-0.008351687
118	0xbc70e425	-0.014702831
119	0xbbba6771	-0.0056886007
120	0xb814039c	-3.528931e-05
121	0xb97ef412	-0.00024314251
122	0xbb797af8	-0.003806768
123	0xbb7d4c6e	-0.0038650292
124	0x3b52bd3c	0.003215625
125	0x3b811702	0.0039395103
126	0x3b30489c	0.0026898747
127	0x3bd48c8b	0.0064864806
128	0xbc0060a1	-0.007835538
129	0x3a2de3de	0.0006633381
130	0xb98144ae	-0.00024655968
131	0xbcb9cccb	-0.02268066
132	0xbb45dc4e	-0.0030191126
133	0x3b191f61	0.002336465
134	0xba8bb389	-0.0010658364
135	0x3b1cb9b8	0.0023914408
136	0xbbef7f67	-0.0073088887
137	0xbad4dca8	-0.0016240077
138	0x3a8ed0e5	0.0010895996
139	0xbbc88c5f	-0.006120249

fc2.weight f4 [14, 140]
0	0xbdc1697a	-0.09443946
1	0x3868ffd6	5.5551376e-05
2	0xbba88825	-0.005143183
3	0x3e08383d	0.13302703
4	0xbd1843c5	-0.037174005
5	0xbdd17082	-0.10226537
6	0x3e2b87d0	0.16751027
7	0xbd227b81	-0.039668564
8	0xb53a5f52	-6.942911e-07
9	0xbe17ca8e	-0.14823362
10	0xbe674150	-0.22583508
11	0x305a627d	7.94479e-10
12	0x3e44d8d8	0.19223344
13	0xbc7a1f40	-0.01526624
14	0xbd9d354a	-0.0767618
15	0x3d2c755e	0.042104118
16	0xbdee9a46	-0.11650519
17	0xbe26258a	-0.16225258
18	0x3d51855a	0.051152565
19	0x3c3c1939	0.011480623
20	0x3d8ee279	0.0697679
21	0x3cdae77e	0.026721712
22	0x3d34bcd1	0.04412538
23	0xbd6aa958	-0.057290405
24	0x3e2fc86a	0.17166296
25	0x3c72dfbb	0.014823849
26	0xbe2f818e	-0.17139265
27	0x3cb55ff1	0.022140475
28	0xbba53ee4	-0.0050428975
29	0xbdb2698a	-0.08711536
30	0x3e30498a	0.17215553
31	0xbdda2e8b	-0.106534086
32	0x3e088199	0.13330688
33	0x3de3428e	0.11096679
34	0x3e022143	0.12708001
35	0x071d5eee	1.1839265e-34
36	0x3d3f10c9	0.046646867
37	0x3e106463	0.14100794
38	0xbe068de1	-0.1314006
39	0x3e17ce97	0.14824902
40	0x3c8ca6d9	0.017169403
41	0xbd7253ab	-0.059161823
42	0x3db723b9	0.089423604
43	0x3aabe35a	0.0013114021
44	0x3cef1528	0.029184893
45	0xbdc29cd9	-0.095025726
46	0xbd9c9909	-0.07646377
47	0x3dfbc894	0.122941166
48	0x3d553b81	0.0520587
49	0x3dd43391	0.10361398
50	0x3cf4f216	0.029900592
51	0xbdc2bea8	-0.09509021
52	0x3cdec9fb	0.027195921
53	0x3c6dfeb5	0.014526059
54	0x3dda263d	0.106518246
55	0xbe1c5f86	-0.15270814
56	0xbb1a467a	-0.0023540542
57	0xbc3896ee	-0.011266453
58	0x3cbf6dc7	0.023367776
59	0x3d15514a	0.036454476
60	0xbe04d093	-0.1297019
61	0x3e2cfcb3	0.16893272
62	0x3d2b6712	0.041846342
63	0xbd8d99ef	-0.06914126
64	0x3cb5b598	0.022181317
65	0xbb34b7d6	-0.0027575395
66	0x398a28fe	0.00026351953
67	0x34c2e1e2	3.6299667e-07
68	0x3df88e5f	0.1213653
69	0xbd6328aa	-0.055458702
70	0xbd0594ad	-0.03261249
71	0x3ce73977	0.028225644
72	0x3d63300f	0.055465754
73	0xbcb84c8f	-0.022497443
74	0x3eaf4fd7	0.342406
75	0x3d7cb430	0.061695278
76	0x3d70a061	0.0587467
77	0xbe2046f6	-0.1565207
78	0xb5ee4f48	-1.7755456e-06
79	0x3e051efc	0.13000101
80	0x3a020bb1	0.00049608486
81	0x3c1aa7db	0.009439434
82	0xbb4aa0a2	-0.0030918499
83	0x3da5ff18	0.08105296
84	0xbdfece6c	-0.124417156
85	0xbcf44095	-0.029815951
86	0xbb6234e0	-0.003451638
87	0x3e47076d	0.19436426
88	0xbddb5d1f	-0.10711121
89	0xbe4b2b63	-0.1984077
90	0x3d1f0b68	0.038829237
91	0x3e080633	0.13283615
92	0x3c32d807	0.010915763
93	0xbd41a749	-0.047278676
94	0xbdded037	-0.108795576
95	0xbd0395c5	-0.032125253
96	0xbdd84453	-0.10559907
97	0xbe2ffcae	-0.17186233
98	0xbd6e5252	-0.058183976
99	0xbd6d23ab	-0.057895344
100	0xbe14ec5a	-0.14543286
101	0xbdfbb599	-0.122904964
102	0xbceaab1e	-0.028646048
103	0xbe13da17	-0.14438663
104	0x3e27b592	0.16377857
105	0x3cc17055	0.023613134
106	0xbde66f7d	-0.112517335
107	0xbc5901b2	-0.013245033
108	0xbe3665e6	-0.17812309
109	0x3b339778	0.0027403515
110	0x3e0b4f3e	0.13604447
111	0xbe24c8b3	-0.16092186
112	0x3e038593	0.12843923
113	0x3d27dfe1	0.040984992
114	0x3db93f31	0.09045256
115	0xbca13875	-0.019680241
116	0x3da8852f	0.08228528
117	0x3d86bd99	0.06579132
118	0xbcdcf013	-0.026969945
119	0xbc4d931e	-0.0125472825
120	0xb5c8299c	-1.4913271e-06
121	0xbe84db2b	-0.25948462
122	0x3ddbc363	0.107306264
123	0x3c81ebe8	0.01585956
124	0xbdc32607	-0.095287375
125	0x3e2547ce	0.16140673
126	0xbd5a593c	-0.053307757
127	0xbcffcbdb	-0.031225136
128	0xbdc97248	-0.098362505
129	0x3c20ede0	0.009822339
130	0xb933caa4	-0.0001714626
131	0xbe274b0f	-0.16337226
132	0x3a30174b	0.0006717338
133	0x3d9396ec	0.072065204
134	0x3e02d250	0.1277554
135	0x39865825	0.00025624144
136	0x3dd5f1f7	0.10446542
137	0xbe01431f	-0.12623261
138	0xbe17b85f	-0.14816426
139	0x385696c8	5.1162002e-05
140	0xbe1a600b	-0.150757
141	0xb93dd4e3	-0.00018103751
142	0xbc0d6345	-0.008629625
143	0xbe11cf59	-0.14239253
144	0xbd3f5559	-0.046712253
145	0xbe209e2b	-0.15685336
146	0xbe2e2137	-0.17004858
147	0xbe0fc849	-0.14041246
148	0xb0486970	-7.290941e-10
149	0xbda4b5ab	-0.08042463
150	0xbd2a29f8	-0.04154393
151	0x36b14c23	5.2838745e-06
152	0x3e265460	0.16243124
153	0x3d960126	0.07324438
154	0x3e3ecee1	0.18633606
155	0x3ccd06fe	0.025027748
156	0x3e13761a	0.14400521
157	0x3e0aa042	0.13537696
158	0xbd24e484	-0.040256992
159	0x3d0b1767	0.033957865
160	0xbe375991	-0.1790526
161	0x3bf35a40	0.00742653
162	0x3d5e3314	0.05424793
163	0xbd11e6fb	-0.03562067
164	0x3d11a785	0.03556015
165	0xbd7f5ef3	-0.06234641
166	0xbe19030e	-0.14942572
167	0x3e462e30	0.19353557
168	0x3cb4ab48	0.02205433
169	0xbe1afbb1	-0.15135075
170	0xbd3d8374	-0.04626794
171	0xbd28310c	-0.0410624
172	0x3e4412f7	0.1914786
173	0x3ca060fc	0.019577496
174	0x3dfe3300	0.12412071
175	0x0696b2ce	5.668646e-35
176	0xbe2bbbdc	-0.16770881
177	0x3d69645b	0.056980472
178	0x3d792cfa	0.06083391
179	0xbd1d3e58	-0.038389534
180	0x3d6cfc67	0.057857897
181	0xbe0bc9b0	-0.13651156
182	0xbd2b99b1	-0.04189462
183	0xbb143eda	-0.002262047
184	0x3d071307	0.03297713
185	0xbe29c308	-0.16578305
186	0x3e1e5435	0.1546181
187	0x3d6ace03	0.057325374
188	0xbe1ab3ec	-0.15107697
189	0xbd2f339b	-0.042773824
190	0x3dd09e73	0.10186472
191	0xbe1621e1	-0.14661361
192	0xbe34b0c6	-0.17645559
193	0xbd52810b	-0.051392596
194	0xbd5059a3	-0.050866734
195	0xbdfd8884	-0.12379554
196	0x3c4deeb7	0.012569121
197	0xbe2585e0	-0.1616435
198	0xbb0975db	-0.0020974788
199	0x3d61dc43	0.0551417
200	0xbe1adf9c	-0.15124363
201	0xbd9b82f9	-0.075933404
202	0xbe11fcc9	-0.14256586
203	0xbc7b06ed	-0.015321475
204	0xbd3b3f9f	-0.04571497
205	0xbb6ef23e	-0.0036460306
206	0x3bed4198	0.0072404854
207	0x344ddbc3	1.9172062e-07
208	0xbddc0bfe	-0.10744475
209	0xbe29d511	-0.16585185
210	0x3ec2c6df	0.38042352
211	0xbe2eb886	-0.17062578
212	0x3d61fbef	0.055171903
213	0xbd0b97f9	-0.03408048
214	0xbb815dbb	-0.003947941
215	0xbcf4f1a3	-0.029900378
216	0x3d6366e6	0.055518053
217	0xbe440f42	-0.19146445
218	0xb5498cf4	-7.508345e-07
219	0xbd401e35	-0.046903808
220	0xbb21b65b	-0.0024675343
221	0xbc792fe1	-0.015209169
222	0x3d0b390b	0.033989947
223	0x3e094269	0.1340424
224	0xbdc69589	-0.0969649
225	0x3e29d7d7	0.16586243
226	0xbc9b48ae	-0.018955555
227	0x3e1e8760	0.15481329
228	0x3e068618	0.1313709
229	0xbdc9c248	-0.09851509
230	0xbdefeff7	-0.117156915
231	0xbdc34212	-0.09534086
232	0x3e266a5e	0.16251513
233	0x3d1abd37	0.037778106
234	0x3d53ffcc	0.05175762
235	0xbd53ad0a	-0.051678695
236	0x3d58918f	0.05287319
237	0xbcefa828	-0.029254988
238	0x3e2f965e	0.17147204
239	0x3c1af817	0.009458563
240	0x3d077161	0.03306711
241	0x3e749d80	0.23888206
242	0x3c9a523a	0.018838037
243	0x3d0eb7d1	0.03484327
244	0xbd47a07e	-0.04873704
245	0x3bc7dd44	0.006099375
246	0x3e3dcc64	0.18535
247	0x3cec3853	0.028835451
248	0x3d85cdf1	0.06533421
249	0x3dbda89f	0.092606775
250	0x3d6a69b1	0.0572297
251	0x3d4691e5	0.04847898
252	0x3e19b8b9	0.15011872
253	0x3e47849c	0.1948418
254	0xbc5d92fc	-0.013523813
255	0x3e348ea9	0.17632546

fc2.bias f4 [14]
0	0x3c07e405	0.00829411
1	0x3b4f4a21	0.0031629878
2	0xbbf78a5c	-0.0075543355
3	0x3b4ddde6	0.003141278
4	0x3b8ccccb	0.004296874
5	0x3ba0b212	0.00490404
6	0x3a175edc	0.0005774328
7	0xb966caf2	-0.00022010112
8	0xbbc98bf2	-0.006150716
9	0x3c309607	0.010777957
10	0x3ba602dd	0.0050662593
11	0x3c2c2a6b	0.01050816
12	0xbc9e9062	-0.019355956
13	0x3c16d14d	0.009205175
