Response14/state_dicts/10_runs/modelStateDict_1000_shallow_1.pth (torch, 89287 bytes, 5 tensors)

conv1.weight f4 [1, 1, 3]
-0.1763745 -0.116732396 -0.26208875
00000000: 849b 34be 6511 efbd 7f30 86be

fc1.weight f4 [140, 140]
-0.02683705 -0.011944554 -0.007739646 -0.006708658 -0.005226722 -0.038715433 -0.05354243 -0.0712967
0.04393878 0.07505355 -0.029634288 -0.048580427 -0.06188079 0.0025047085 0.016489172 0.007516837
0.008702484 -0.0014403042 0.007227976 6.0201244e-05 0.03930765 -0.03039924 0.058699667 0.07684456
0.010377813 -0.048324544 0.0499054 0.10431026 -0.005675714 0.08046109 0.0355201 0.042341974
-0.043249905 -0.05516337 -0.015588923 0.0100360755 -0.011739453 -0.049413852 -0.029966952 -0.013792915
-0.007628434 0.075142354 0.013265644 -0.040206138 0.006016113 -0.010065846 0.043964826 0.0439771
-0.024151236 -0.013750414 0.014716877 0.063618936 -0.036124274 -0.011826688 -0.052653097 -0.03404609
0.024961025 -0.06940043 0.051028814 0.044020504 0.030437523 -0.033829354 0.047642566 0.07687999
0.02591932 0.025604753 0.004139832 -0.01329998 -0.02441575 0.037051924 -0.018291684 -0.018120224
0.030041281 -0.006963762 -0.07017388 -0.08827888 -0.0734351 -0.037187327 0.013681047 0.0089749135
-0.0004917645 -0.012532659 -0.00026292886 -0.030123543 0.022641718 0.02307713 0.013864722 0.02390507
-0.006237766 0.00036144495 -0.014136639 -0.004369825 0.005096956 -0.0012154449 0.016273472 0.010284228
-0.018031318 -0.00413145 0.005382223 0.004467912 -0.007956207 -0.026748706 -0.030079274 -0.013505907
-0.020632446 -0.00955415 0.005196657 0.020968659 0.06005384 0.025341012 0.013785543 -0.018137561
-0.009026937 0.04421283 0.019787489 0.062151533 -0.033795133 0.021880977 -0.023020143 -0.010003379
-0.08092345 0.017964186 -5.2946445e-05 -0.07936933 -0.045627788 -0.033014953 0.10674128 0.09744774
0.080134094 0.032632772 0.0135194 0.023240227 0.005013826 0.061712164 0.00058515195 -0.0036949264
0.028004505 0.024236448 0.06586142 0.02703256 -0.00813946 -0.018680755 -0.013238555 -0.008523611
0.014835566 0.022396429 -0.0069502713 -0.009699322 -0.018691985 -0.055935916 -0.045197666 -0.04158952
-0.032870155 -0.000999432 -0.039401583 -0.038210098 -0.037177898 -0.03211461 -0.012669606 -0.013690851
-0.016157964 -0.04233481 0.07570688 0.01163724 0.0035160212 0.03241083 -0.102927156 0.077538274
0.024475854 -0.020042665 0.12555854 0.047232237 -0.07491929 -0.007979971 0.024716286 0.062420603
0.011237862 -0.023591526 0.01027208 -0.03756762 0.004360844 0.0018408541 0.12253609 -0.027209124
-0.015367028 0.10053953 0.111134335 0.034053512 -0.023797007 -0.05650626 0.07298479 -0.08237432
0.06261251 0.04656175 0.053589325 -0.0019192239 0.04223008 0.034653302 -0.09194017 -0.03563231
0.04447105 -0.005373449 -0.058145817 -0.038939934 -0.012398673 0.039188847 0.00722477 -0.01136448
0.0063465284 -0.018800477 0.019431964 -0.034245938 -0.0100815175 -0.09870565 -0.058248468 0.0042068237
-0.03469539 -0.040133704 0.08795839 0.0070351535 0.01944497 -0.012943997 -0.028052788 -0.04347467
-0.044235513 -0.035575546 -0.030879457 -0.03184182 -0.017911237 -0.014691418 -0.00046012085 -0.01504343
-0.007854301 0.008462821 0.027991252 -0.025997685 -0.00970698 0.028121846 0.041370846 0.08122516
-0.025233809 0.055415533 -0.106948666 -0.09475522 -0.023225099 -0.00072695204 0.015384117 0.025484225
0.0017849247 0.03330176 0.07276537 0.03386672 -0.013204419 0.03764462 -0.06422608 -0.044131022
00000000: 60d9 dbbc 17b3 43bc db9c fdbb 4dd4 dbbb
00000010: ec44 abbb 1394 1ebd 4f4f 5bbd 0104 92bd
00000020: 26f9 333d adb5 993d 9bc3 f2bc 45fc 46bd
00000030: b676 7dbd 0926 243b 4d14 873c cd4f f63b
00000040: dd94 0e3c 97c8 bcba a8d8 ec3b 9880 7c38
00000050: 0f01 213d d407 f9bc 106f 703d ae60 9d3d
00000060: b407 2a3c f5ef 45bd 9b69 4c3d 9ea0 d53d
00000070: 57fb b9bb c9c8 a43d 867d 113d c76e 2d3d
00000080: d026 31bd fcf2 61bd af68 7fbc 5a6e 243c
00000090: d656 40bc 2e66 4abd 417d f5bc aefb 61bc
000000a0: f1f7 f9bb 3ce4 993d 2558 593c 31af 24bd
000000b0: d022 c53b 38eb 24bc 7614 343d 5521 343d
000000c0: d0d8 c5bc 6b49 61bc 0e1f 713c a54a 823d
000000d0: 0cf7 13bd bac4 41bc c6aa 57bd ea73 0bbd
000000e0: 107b cc3c d021 8ebd 9703 513d d84e 343d
000000f0: 1d58 f93c a690 0abd da24 433d 4273 9d3d
00000100: c154 d43c 0fc1 d13c 6ea7 873b 29e8 59bc
00000110: 8a03 c8bc c2c3 173d 71d8 95bc dd70 94bc
00000120: 2219 f63c 4530 e4bb 53b7 8fbd 8fcb b4bd
00000130: 2465 96bd bd51 18bd 7826 603c 840b 133c
00000140: c2e9 00ba c855 4dbc b7d9 89b9 a6c5 f6bc
00000150: 207b b93c 400c bd3c dc28 633c 91d4 c33c
00000160: 2c66 ccbb 5280 bd39 5d9d 67bc c030 8fbb
00000170: 5e04 a73b 904f 9fba f24f 853c 2e7f 283c
00000180: 6ab6 93bc 1d61 87bb 5c5d b03b 9067 923b
00000190: c05a 02bc 1a20 dbbc cf68 f6bc e147 5dbc
000001a0: 6005 a9bc 0289 1cbc b848 aa3b 77c6 ab3c
000001b0: 04fb 753d f497 cf3c c2dc 613c 3995 94bc
000001c0: b8e5 13bc 8318 353d 5f19 a23c 9b92 7e3d
000001d0: c46c 0abd bc3f b33c bd94 bcbc 36e5 23bc
000001e0: 32bb a5bd a129 933c d012 5eb8 638c a2bd
000001f0: 34e4 3abd b03a 07bd 2c9b da3d ae92 c73d
00000200: 581d a43d f1a9 053d 7980 5d3c 4a62 be3c
00000210: 054b a43b e5c5 7c3d e264 193a 9426 72bb
00000220: b469 e53c 848b c63c 5ae2 863d 6373 dd3c
00000230: 5f5b 05bc 6208 99bc 86e6 58bc 9ea6 0bbc
00000240: e010 733c b778 b73c 1abf e3bb e8e9 1ebc
00000250: ef1f 99bc 0f1d 65bd 3021 39bd c659 2abd
00000260: dba2 06bd 60ff 82ba 8e63 21bd 3182 1cbd
00000270: da47 18bd 9c8a 03bd 2e94 4fbc 974f 60bc
00000280: b55d 84bc 4467 2dbd 350c 9b3d 1faa 3e3c
00000290: 0c6d 663b 38c1 043d 79cb d2bd 63cc 9e3d
000002a0: 9681 c83c 8430 a4bc 6b92 003e 9776 413d
000002b0: 496f 99bd 6dbe 02bc cf79 ca3c bfac 7f3d
000002c0: 021f 383c 0443 c1bc 3a4c 283c 81e0 19bd
000002d0: 69e5 8e3b d048 f13a 34f4 fa3d abe5 debc
000002e0: fdc5 7bbc abe7 cd3d 669a e33d b27b 0b3d
000002f0: f1f1 c2bc 1c73 67bd 0d79 953d deb3 a8bd
00000300: fd3a 803d 89b7 3e3d 7b80 5b3d 788e fbba
00000310: 73f9 2c3d 9ff0 0d3d 214b bcbd 2ff3 11bd
00000320: 4727 363d c213 b0bb 4f2a 6ebd 7b7f 1fbd
00000330: ce23 4bbc 7c84 203d c3bd ec3b 1532 3abc
00000340: 8af6 cf3b 7503 9abc c82f 9f3c 7845 0cbd
00000350: f32c 25bc 3026 cabd f295 6ebd 65d9 893b
00000360: c11c 0ebd 3d63 24bd 8723 b43d 2587 e63b
00000370: 0f4b 9f3c 0f13 54bc f6ce e5bc 7f12 32bd
00000380: 4c30 35bd aab7 11bd eaf6 fcbc 916c 02bd
00000390: 96ba 92bc 46b4 70bc 603c f1b9 b878 76bc
000003a0: 53af 00bc a5a7 0a3c e94d e53c 19f9 d4bc
000003b0: 060a 1fbc c95f e63c 7a74 293d 6059 a63d
000003c0: 22b7 cebc 66fb 623d e707 dbbd 060f c2bd
000003d0: 9042 bebc ed90 3eba aa0d 7c3c 4bc4 d03c
000003e0: 22f4 e93a 6d67 083d 0306 953d d4b7 0a3d
000003f0: 5957 58bc 3f31 1a3d f788 83bd bbc2 34bd

fc1.bias f4 [140]
-0.19125713 0.07796396 -0.04578338 -0.053584952 0.13705909 -0.008406301 -0.029563263 -0.05480576
-0.009129018 -0.06036497 -0.028821299 -0.020296188 -0.003147188 -0.05202443 -0.00974673 -0.048527755
-0.0156245455 0.09966015 0.0104151685 0.00017940492 0.12137627 0.019296769 0.18259771 -0.04717541
-0.050912146 0.021349471 -0.04795179 -0.002213883 0.05114071 0.07237907 -0.107110426 -0.04789266
-0.020554878 0.026146848 0.1054214 -0.0954085 -0.0202724 0.087092906 -0.0014200453 -0.108328104
-0.05305939 -0.020562097 0.17042783 0.15016861 -0.15085937 -0.065465994 -0.076987706 0.07966922
0.0334637 0.0040524094 -0.05626891 -0.05511793 -0.03926868 -0.008140335 -0.035714116 -0.043577712
-0.049491353 -0.037041195 0.03212067 0.042843238 0.04633438 -0.020412272 -0.07786742 -0.01291165
-0.023543023 0.011415798 0.06721294 0.10577212 0.08939069 -0.027136885 -0.041704327 0.029373901
-0.047029085 0.26072422 -0.11587906 0.13988043 0.022543944 -0.05419089 -0.09505116 -0.055933565
-0.062388126 -0.023203103 0.17010684 0.14587182 -0.031477958 -0.003035456 -0.059061017 -0.006377882
-0.034660198 0.18288653 -0.050972834 -0.11850076 0.06317831 -0.12226838 0.01913817 0.04166396
-0.055652 -0.09283356 0.073893234 0.0012330494 0.01034054 -0.0023613842 -0.11720331 0.33378503
-0.018905735 -0.07388179 -0.06343905 0.020451684 -0.032434117 -0.052692294 0.12876694 -0.024150759
-0.046610788 -0.05727153 -0.018139165 -0.049549177 0.20586824 -0.022464393 -0.031964708 -0.08341853
-0.0059332945 0.022400817 -0.050823133 0.12835857 -0.009036649 0.02411153 0.07508232 0.08728242
-0.06305462 0.04737168 0.057301708 -0.00876203 -0.039800778 -0.14091815 -0.014475236 -0.05592162
-0.038743913 0.027612936 -0.02982464 0.0013944395
00000000: e9d8 43be 92ab 9f3d 5a87 3bbd e57b 5bbd
00000010: 3859 0c3e 95ba 09bc a82e f2bc 017c 60bd
00000020: e091 15bc 4241 77bd a51a ecbc 3144 a6bc
00000030: 0e41 4ebb 9217 55bd c0b0 1fbc 0ac5 46bd
00000040: 18fe 7fbc 9f1a cc3d 62a4 2a3c a41e 3c39
00000050: 1f94 f83d 4214 9e3c e5fa 3a3e 013b 41bd
00000060: 4189 50bd 16e5 ae3c 1969 44bd cb16 11bb
00000070: ec78 513d 7a3b 943d b65c dbbd 182b 44bd
00000080: b462 a8bc ea31 d63c 2de7 d73d 8865 c3bd
00000090: 4e12 a6bc c45d b23d d020 baba 20db ddbd
000000a0: ce54 59bd d871 a8bc a284 2e3e cdc5 193e
000000b0: e17a 1abe 0913 86bd bbab 9dbd 9e29 a33d
000000c0: 3c11 093d 13ca 843b 3b7a 66bd 57c3 61bd
000000d0: 32d8 20bd 0a5f 05bc f748 12bd 8b7e 32bd
000000e0: 72b7 4abd 82b8 17bd f790 033d 647c 2f3d
000000f0: 1ec9 3d3d a337 a7bc f478 9fbd 638b 53bc
00000100: 4cdd c0bc 5409 3b3c f0a6 893d 0e9f d83d
00000110: 7712 b73d 2c4e debc 28d2 2abd 89a1 f03c
00000120: 92a1 40bd a57d 853e 0052 edbd d13c 0f3e
00000130: 14ae b83c 44f7 5dbd 2faa c2bd 981a 65bd
00000140: b18a 7fbd 6f14 bebc 7d30 2e3e 6c5f 153e
00000150: 08ef 00bd 80ee 46bb f7e9 71bd 8dfd d0bb
00000160: daf7 0dbd 9b46 3b3e e4c8 50bd 87b0 f2bd
00000170: a163 813d d867 fabd a7c7 9c3c d4a7 2a3d
00000180: 5af3 63bd 861f bebd 5655 973d 469e a13a
00000190: 5e6b 293c 74c1 1abb 4a08 f0bd dfe5 aa3e
000001a0: 33e0 9abc 564f 97bd 55ec 81bd 4a8a a73c
000001b0: a3d9 04bd e0d3 57bd 7bdb 033e d0d7 c5bc
000001c0: f4ea 3ebd 8d95 6abd 9698 94bc 14f4 4abd
000001d0: 20cf 523e 3f07 b8bc 6ded 02bd 56d7 aabd
000001e0: 156c c2bb eb81 b73c eb2b 50bd 6e70 033e
000001f0: 740e 14bc 8b85 c53c c2c4 993d 20c1 b23d
00000200: c822 81bd cf08 423d 32b5 6a3d 9e8e 0fbc
00000210: 2406 23bd d94c 10be 8a29 6dbc 120e 65bd
00000220: f0b1 1ebd 8634 e23c ce52 f4bc a0c5 b63a

fc2.weight f4 [14, 140]
-0.04307838 0.026477067 -0.13342902 -0.029011728 0.117660835 0.022025479 -0.108692825 0.07348207
0.013430756 -0.09919074 0.016024064 0.1352806 -0.08778601 -0.06622948 -0.06880306 0.11705834
-0.07194095 0.08844419 -0.13419959 -0.00594987 0.1359218 0.079400465 0.16571158 0.041224297
-0.118748724 0.024092535 -0.10736359 -0.018576171 -0.053956836 0.028995203 -0.14344622 -0.038258377
-0.0006616716 -0.0105862385 -0.114947714 -0.0638352 -0.06198126 -0.11868619 -0.027507944 0.030036906
0.028257359 0.004987888 0.18214987 0.11757233 0.059722025 0.024722986 0.057800893 0.18504983
0.07978326 0.024947934 -0.0807796 -0.079836525 -0.07894044 0.10187025 0.02556125 -0.06275602
-0.0059498805 -0.035259556 -0.054078784 0.095921196 0.06265719 -0.05405433 -0.044772107 -0.069490656
0.10214308 -0.0565774 -0.023707861 0.1678865 0.07131719 -0.0030880156 -0.087999135 -0.027106171
0.018808141 0.0635818 -0.044200007 0.04215595 -0.0046729334 -0.025111137 0.03696965 0.045994706
0.07095234 0.08289275 0.053519983 0.1345093 -0.10534685 0.067190506 -0.08321439 0.061941467
0.014537126 0.09462799 -0.0030373572 -0.10312922 -0.16583791 -0.16514291 -0.023721393 0.02180148
0.046472635 -0.0021223866 0.09187665 -0.09933332 0.068875894 -0.023645416 -0.13450961 0.265844
-0.10269128 -0.09378464 -0.101000465 -0.08434109 0.07275951 0.0015519323 0.07318846 -0.06477251
0.0932156 -0.16194083 -0.1073026 0.031437315 0.18738347 0.06419057 0.06238065 0.0013293102
0.068851754 0.01787664 -0.04589588 0.12095087 0.040442873 0.048212964 0.0831193 0.18144988
-0.09264597 -0.102720216 -0.012562736 -0.057247546 -0.054884076 0.0026539483 0.023250118 -0.075435676
-0.063960075 0.074742354 -2.9661118e-05 -0.02745713 -0.18575583 0.058705557 -0.13526613 -0.095667325
-0.068351015 0.008255455 -0.04993971 -0.1111678 -0.0108359065 -0.08805056 -0.038459312 0.04757016
0.05103803 -0.011501328 -0.09485146 -0.06633799 0.043881316 0.13367298 0.0058936495 -0.077623874
0.184869 0.10760418 0.06921701 -0.08169858 0.06046413 0.016274152 0.021828437 0.09973295
-0.0527166 -0.011033112 0.031403325 0.08898112 -0.057531714 0.08807108 -0.049536742 -0.07978998
-0.0374063 0.12062883 0.03868306 -0.15003906 -0.14512934 0.05264828 0.100613296 0.08463429
-0.096453294 -0.16237871 -0.045865476 0.03717884 0.12688948 -0.007705817 0.024500456 -0.1675518
-0.101226486 -0.11803486 0.14814536 -0.003382469 -0.06569651 -0.038639612 0.1256119 0.009543755
0.11882268 0.014964687 -0.067422785 -0.04657219 -0.07761523 -0.01620198 -0.022143552 -0.031781133
-0.0012806723 -0.06925863 -0.021161739 0.042663984 -0.04246275 0.114813715 0.1286483 0.06971607
0.013790586 0.08608429 -0.16976655 0.2839143 -0.01002627 -0.14023161 0.17103988 0.12166889
-0.12361499 -0.054607198 0.083674565 -0.101923116 -0.08580252 0.06481389 -0.068452634 -0.0013765758
0.051137947 -0.06968759 0.03897888 0.05437303 -0.028469745 -0.13917077 0.06862707 -0.0037199317
-0.1206899 -0.02734273 -0.011348636 0.03174343 -0.016765567 -0.029536238 -0.13363163 0.010808845
-0.03522673 0.04411423 0.117973454 0.10905239 -0.09247024 -0.07031092 0.10614786 -0.037627477
00000000: f572 30bd 6fe6 d83c 9ea1 08be 01aa edbc
00000010: 2af8 f03d c76e b43c 589a debd c47d 963d
00000020: ac0c 5c3c 8424 cbbd e644 833c ff86 0a3e
00000030: 27c9 b3bd 52a3 87bd 9ee8 8cbd 48bc ef3d
00000040: c755 93bd 3a22 b53d 9e6b 09be 21f7 c2bb
00000050: 162f 0b3e b69c a23d 4cb0 293e cfda 283d
00000060: 8832 f3bd b55d c53c 71e1 dbbd 0e2d 98bc
00000070: d801 5dbd 5987 ed3c 91e3 12be d1b4 1cbd
00000080: 0874 2dba e771 2dbc b569 ebbd 08bc 82bd
00000090: 10e0 7dbd bf11 f3bd 5758 e1bc f50f f63c
000000a0: fa7b e73c 7071 a33b 7f85 3a3e c3c9 f03d
000000b0: 159f 743d dc87 ca3c a1c0 6c3d b47d 3d3e
000000c0: 6865 a33d 9c5f cc3c c66f a5bd 5581 a3bd
000000d0: 87ab a1bd 5aa1 d03d d465 d13c 3a86 80bd
000000e0: 37f7 c2bb 536c 10bd b781 5dbd 5572 c43d
000000f0: 6a52 803d 1368 5dbd f562 37bd 1e51 8ebd
00000100: 6430 d13d b4bd 67bd fd36 c2bc 70ea 2b3e
00000110: bf0e 923d 4e60 4abb e438 b4bd c30d debc
00000120: 8813 9a3c 2d37 823d 110b 35bd b8ab 2c3d
00000130: 681f 99bb dfb5 cdbc 7d6d 173d f264 3c3d
00000140: 764f 913d adc3 a93d c537 5b3d cebc 093e
00000150: 17c0 d7bd 2d9b 893d 4e6c aabd 56b6 7d3d
00000160: 202d 6e3c 52cc c13d 660e 47bb 6a35 d3bd
00000170: 6ad1 29be 391b 29be 5e53 c2bc 0499 b23c
00000180: 175a 3e3d bd17 0bbb d329 bc3d 456f cbbd
00000190: ce0e 8d3d 08b4 c1bc e3bc 09be b41c 883e
000001a0: ce4f d2bd 2912 c0bd 55d9 cebd 05bb acbd
000001b0: f002 953d 356a cb3a d5e3 953d 73a7 84bd
000001c0: d2e7 be3d d1d3 25be 77c1 dbbd 6ac4 003d
000001d0: 74e1 3f3e 5876 833d da82 7f3d 403c ae3a
000001e0: 2602 8d3d 0872 923c 51fd 3bbd 17b5 f73d
000001f0: 6da7 253d f57a 453d 743a aa3d ffcd 393e
00000200: 2cbd bdbd fa5e d2bd efd3 4dbc 677c 6abd
00000210: 20ce 60bd dded 2d3b 0877 be3c 057e 9abd
00000220: 80fd 82bd 8512 993d c4d0 f8b7 c6ed e0bc
00000230: c736 3ebe 3d75 703d 3483 0abe 3bed c3bd
00000240: 9efb 8bbd e341 073c 958d 4cbd f2ab e3bd
00000250: 1689 31bc da53 b4bd 8387 1dbd eed8 423d
00000260: 410d 513d 1170 3cbc 7b41 c2bd 36dc 87bd
00000270: e5bc 333d 92e1 083e 841f c13b 44f9 9ebd
00000280: 4d4e 3d3e 955f dc3d a6c1 8d3d 9651 a7bd
00000290: 3ca9 773d 5f51 853c 8dd1 b23c ca40 cc3d
000002a0: 5ded 57bd 3ac4 34bc c6a0 003d bc3b b63d
000002b0: 60a6 6bbd 9c5e b43d 0ae7 4abd ee68 a3bd
000002c0: 5937 19bd 3f0c f73d 2172 1e3d d7a3 19be
000002d0: c99c 14be b9a5 573d 580e ce3d be54 ad3d
000002e0: 4e89 c5bd 9b46 26be 70dd 3bbd d748 183d
000002f0: 51ef 013e 1481 fcbb 2eb5 c83c b392 2bbe
00000300: d54f cfbd 43bc f1bd 6bb3 173e 6aac 5dbb
00000310: e48b 86bd 9244 1ebd 68a0 003e 695d 1c3c
00000320: 4e59 f33d 722e 753c f514 8abd 7bc2 3ebd
00000330: bcf4 9ebd 04ba 84bc 6566 b5bc ef2c 02bd
00000340: 3bdc a7ba 78d7 8dbd 625b adbc 6ec0 2e3d
00000350: 6ced 2dbd 7423 eb3d 61bc 033e 4dc7 8e3d
00000360: e9f1 613c f64c b03d 48d7 2dbe 375d 913e
00000370: 3945 24bc e098 0fbe 1425 2f3e 8a2d f93d
00000380: db29 fdbd ccab 5fbd 925d ab3d 11bd d0bd
00000390: 3bb9 afbd 25bd 843d e530 8cbd 386e b4ba
000003a0: 0676 513d 5eb8 8ebd 51a8 1f3d 41b6 5e3d
000003b0: 6239 e9bc c882 0ebe 598c 8c3d 19ca 73bb
000003c0: 442c f7bd dcfd dfbc a1ef 39bc 6605 023d
000003d0: f157 89bc fbf5 f1bc bbd6 08be 9517 313c
000003e0: e749 10bd 1fb1 343d 119c f13d dc56 df3d
000003f0: 0a61 bdbd 2cff 8fbd 0d64 d93d 451f 1abd

fc2.bias f4 [14]
0.18200497 0.1080284 0.062462155 0.044935394 0.12917207 -0.032416344 0.027233958 0.041521043
0.042392373 0.0828102 0.14025138 -0.0049975747 0.06750742 0.0667963
00000000: 835f 3a3e fe3d dd3d 51d8 7f3d 2d0e 383d
00000010: af45 043e 00c7 04bd c019 df3c f811 2a3d
00000020: a0a3 2d3d 6598 a93d 0f9e 0f3e b2c2 a3bb
00000030: 5541 8a3d 80cc 883d
