Response14/state_dicts/10_runs/modelStateDict_1000_shallow_7.pth (torch, 89287 bytes, 5 tensors)

conv1.weight f4 [1, 1, 3]
-0.28854215 -0.5008566 0.24399827
00000000: ccbb 93be 2338 00bf afda 793e

fc1.weight f4 [140, 140]
-0.01967297 -0.020515116 -0.027677879 -0.03133628 -0.037106294 0.00053555466 -0.015089228 0.037107263
-0.014580341 0.024852118 0.017882846 -0.026163433 0.0074219527 -0.012609845 -0.033807274 0.0022180255
0.002016536 -0.011247423 0.02620485 0.026793469 0.04289252 0.0083997855 -0.030441927 -0.029859094
0.0017853742 0.031537626 -0.0035071832 -0.05079492 -0.02143195 -0.058084838 0.010182983 -0.00023483243
-0.012306835 -0.008815748 -0.027685363 0.01475546 -0.003326905 0.005794166 -0.011624767 0.012077474
-0.035927366 0.007735192 0.043364797 0.017659526 0.021412749 -0.016109403 -0.04065905 0.072608076
0.021872476 -0.03744841 -0.06100216 0.0057603507 -0.034470025 0.0011513389 -0.0018212979 -0.037299372
0.0062277517 0.017103903 0.029819343 -0.0060496805 -0.07006887 -0.047803883 -0.086259596 0.05177739
0.033554614 0.048457954 0.038932085 -0.038529355 -0.062058356 0.004426349 -0.0011362651 -0.03850571
0.01249121 0.042077783 0.0017745348 -0.016107924 -0.015862184 0.019206133 -0.028902465 -0.046902906
-0.024117025 -0.0077730957 0.0036611913 0.0120012425 -0.0077602277 -0.02978696 -0.013440356 0.03614406
0.022392657 -0.007786705 -0.013327416 0.0019848552 0.004028607 -0.008676498 -0.0211559 -0.03128466
-0.0318476 -0.049805414 -0.020771198 0.04013775 0.009467262 0.060733836 0.030389307 0.03483376
0.01423058 0.020262301 0.057433993 0.029876994 0.00064912427 0.0012932317 -0.009308934 -0.020609116
-0.016809493 -0.007518512 0.0025836113 -0.029213859 -0.020387284 0.007805664 -0.0015220611 -0.04645469
0.0021949029 -0.059164166 0.04181113 0.0011677522 0.019795384 0.02361296 -0.02738567 -0.0038865414
0.0407434 0.025311822 0.05182408 0.0064514633 -0.007909925 -0.0032462527 0.04767866 0.010124716
-0.038360845 0.04305004 -0.039883737 0.079131484 0.0073401374 0.0063323076 0.0062807207 0.0063714893
-0.0060048946 -0.01393926 -0.069368705 -0.055735264 -0.080562666 -0.050496563 -0.05551948 -0.042751905
-0.064171776 -0.012060127 -0.026035752 0.025958953 0.029712176 0.027440006 -0.019526007 -0.0008610723
0.035690613 0.0448131 0.04754048 -0.06377078 0.07774914 -0.08681684 0.04312788 0.028057067
0.0820923 -0.06607967 0.032161526 -0.038931467 0.021447225 -0.009304451 0.023788512 0.012348801
-0.024767954 -0.022963317 -0.014240835 -0.053290736 0.06677385 0.066268876 0.07632983 0.049012013
-0.04279291 0.012257586 0.07947118 0.058113128 0.026944917 0.09298417 -0.029408306 -0.038273256
0.044097617 -0.026080286 0.006456699 -0.12323962 -0.104441054 -0.08197041 0.07051278 0.019443352
0.054590087 -0.02493797 -0.01708 -0.05273057 0.068462245 0.036459323 0.06258496 -0.02761947
-0.012403166 0.051632736 -0.042142708 -0.05799961 -0.09532121 -0.0036328314 0.024758311 0.025091253
-0.016726313 0.0007164552 -0.02150013 -0.026501326 -0.020201996 -0.024778113 -0.014177527 0.0357444
0.016283281 0.012932799 -0.020011438 -0.017426534 -0.01199424 -0.006986882 -0.0139867095 -0.010859829
-0.009366292 -0.01137104 0.003187362 -0.071686424 -0.0018637085 0.08209694 -0.06576711 0.052631546
0.0046966043 -0.04182263 0.015600111 -0.08287172 0.025960699 0.04820797 0.0270324 -0.017918851
-0.051335912 -0.010702664 -0.020817328 -0.037276123 -0.059506837 -0.05069243 -0.060686342 -0.009115259
00000000: 3529 a1bc 510f a8bc b8bc e2bc 795a 00bd
00000010: c5fc 17bd 7764 0c3a cf38 77bc c9fd 173d
00000020: 62e2 6ebc ab96 cb3c 0c7f 923c b254 d6bc
00000030: da33 f33b 8699 4ebc 7f79 0abd 4b5c 113b
00000040: dc27 043b 1c47 38bc 8eab d63c fa7d db3c
00000050: 11b0 2f3d 419f 093c 5961 f9bc 0f9b f4bc
00000060: 3803 ea3a 992d 013d c5d8 65bb 560e 50bd
00000070: 0f92 afbc 5eea 6dbd 87d6 263c 5a3d 76b9
00000080: 9ba2 49bc ed6f 10bc 6acc e2bc e3c0 713c
00000090: 3408 5abb fddc bd3b cf75 3ebc 99e0 453c
000000a0: 9328 13bd 7e77 fd3b 499f 313d b6aa 903c
000000b0: ca69 af3c def7 83bc 1b8a 26bd 8bb3 943d
000000c0: e82d b33c 8163 19bd 67dd 79bd 53c1 bc3b
000000d0: 7130 0dbd 86e8 963a 9eb8 eeba 3ac7 18bd
000000e0: 2b12 cc3b 7c1d 8c3c b247 f43c 663c c6bb
000000f0: 4580 8fbd 01ce 43bd dfa8 b0bd 8714 543d
00000100: 9070 093d d97b 463d 4077 1f3d f5d0 1dbd
00000110: e730 7ebd e80a 913b bbee 94ba 2ab8 1dbd
00000120: efa7 4c3c c159 2c3d 8297 e83a c4f4 83bc
00000130: 69f1 81bc 2e56 9d3c ddc4 ecbc 431d 40bd
00000140: 1191 c5bc 74b5 febb 99f0 6f3b dca0 443c
00000150: 8249 febb c803 f4bc f034 5cbc cb0b 143d
00000160: ce70 b73c 9e27 ffbb 3c5b 5abc 5814 023b
00000170: 6802 843b df27 0ebc 234f adbc 5824 00bd
00000180: a172 02bd c300 4cbd 5c28 aabc 7b67 243d
00000190: 931c 1b3c 0bc4 783d fff2 f83c d8ad 0e3d
000001a0: 6127 693c 20fd a53c e83f 6b3d 99c0 f43c
000001b0: fe29 2a3a a881 a93a 8084 18bc 73d4 a8bc
000001c0: 10b4 89bc da5d f6bb ce51 293b e751 efbc
000001d0: 3c03 a7bc a8c6 ff3b e57f c7ba 4647 3ebd
000001e0: 5cd8 0f3b 2056 72bd 2642 2b3d 430f 993a
000001f0: ee29 a23c f76f c13c ea57 e0bc 58b5 7ebb
00000200: 8de2 263d bd5a cf3c 7d45 543d cc66 d33b
00000210: a198 01bc 15bf 54bb b34a 433d 23e2 253c
00000220: 4320 1dbd 3d55 303d 215d 23bd b00f a23d
00000230: 8985 f03b 3f7f cf3b 81ce cd3b edc7 d03b
00000240: b5c4 c4bb 7e61 64bc 2e11 8ebd a94a 64bd
00000250: 0afe a4bd 7cd5 4ebd 6568 63bd 9f1c 2fbd
00000260: 7e6c 83bd d797 45bc ee48 d5bc dfa7 d43c
00000270: f366 f33c ddc9 e03c 01f5 9fbc 95b9 61ba
00000280: 5230 123d f18d 373d ceb9 423d 419a 82bd
00000290: f13a 9f3d 07cd b1bd dca6 303d efd7 e53c
000002a0: 0220 a83d c754 87bd cebb 033d 9a76 1fbd
000002b0: 17b2 af3c b271 18bc 20e0 c23c a052 4a3c
000002c0: 2ae6 cabc 911d bcbc 6452 69bc 6347 5abd
000002d0: bac0 883d fab7 873d d052 9c3d d2c0 483d
000002e0: 9e47 2fbd 0bd4 483c c9c1 a23d 0808 6e3d
000002f0: 96bb dc3c 7c6e be3d b0e9 f0bc 6bc4 1cbd
00000300: b49f 343d 53a6 d5bc b892 d33b 0e65 fcbd
00000310: 31e5 d5bd 1ae0 a7bd 0169 903d aa47 9f3c
00000320: db99 5f3d b74a ccbc 5beb 8bbc 03fc 57bd
00000330: ef35 8c3d 5f56 153d 8b2c 803d 3a42 e2bc
00000340: a636 4bbc d97c 533d d59d 2cbd 0091 6dbd
00000350: c437 c3bd cc14 6ebb f1d1 ca3c 2c8c cd3c
00000360: 9f05 89bc 7fd0 3b3a 0a21 b0bc 4f19 d9bc
00000370: a87e a5bc 78fb cabc dc48 68bc b868 123d
00000380: 8464 853c 17e4 533c 07ef a3bc 17c2 8ebc
00000390: 7d83 44bc 37f2 e4bb 8328 65bc 6ded 31bc
000003a0: 1375 19bc 994d 3abc 10e3 503b 55d0 92bd
000003b0: ae47 f4ba 7122 a83d e8b0 86bd 2d94 573d
000003c0: f9e5 993b 354e 2bbd 9c97 7f3c a6b8 a9bd
000003d0: 88ab d43c b875 453d 0d73 dd3c 8eca 92bc
000003e0: 9b45 52bd 3a5a 2fbc 1a89 aabc d9ae 18bd
000003f0: 71bd 73bd dea2 4fbd 3e92 78bd 2b58 15bc

fc1.bias f4 [140]
0.0846988 -0.05201074 -0.044865295 0.15926155 0.012032103 0.08893431 -0.047458384 -0.051695425
-0.11227015 -0.10026631 0.057276145 0.060682513 -0.022562465 0.08795034 0.1047284 -0.009250103
-0.09332604 0.04349535 0.034149453 0.06204487 -0.040080905 0.008136174 -0.017085906 0.09474008
0.05521464 -0.031446397 0.08979559 0.04931267 -0.10714319 0.10702986 -0.08207986 -0.04247774
0.10651564 -0.0768589 -0.052705713 0.09389381 0.012262761 0.040769808 0.08585347 0.06862884
0.0848022 -0.06875572 -0.021139348 -0.13819964 -0.087686636 0.15301773 0.10297273 0.0595684
-0.019115148 -0.030725412 0.10026206 -0.021474326 0.07738567 0.08187895 0.08183065 0.08503574
0.07155712 0.06673203 0.07438602 -0.0330892 -0.026351906 0.056825448 -0.0231038 -0.07269355
0.08984716 -0.023552885 -0.047542937 0.089963906 0.028373972 -0.04759862 -0.027658243 -0.12914427
0.0824912 -0.10593343 0.090596065 -0.05817085 0.10322666 -0.030012487 0.08035034 0.11503919
0.08004321 -0.06489696 0.17662604 0.109429985 -0.0850768 0.053879563 0.082679614 0.120063595
0.06316611 -0.06826722 -0.012698826 -0.011392519 0.050563328 -0.07588197 -0.024370043 0.11335396
-0.10630891 0.12866467 -0.0019002372 0.06824505 -0.13242228 0.002029174 -0.04777717 -0.06128961
0.020566016 0.03173355 -0.03154035 0.03941996 0.028063847 -0.031256586 0.1196805 0.07635535
0.07896751 0.056330312 0.06993809 0.0663958 0.076985165 0.1197669 -0.053505756 -0.082748584
0.10611217 -0.010329209 0.07931048 0.075031 0.05816134 -0.20122221 0.029053966 -0.04956621
0.005108167 0.07767534 -0.104823 0.012805422 0.009876907 0.105233856 -0.027726276 -0.067802764
0.106910266 -0.04833012 0.074885584 -0.057543427
00000000: 9176 ad3d 3709 55bd acc4 37bd 7615 233e
00000010: 4c22 453c 3123 b63d b963 42bd 95be 53bd
00000020: e4ed e5bd 6c58 cdbd 649a 6a3d 3a8e 783d
00000030: ebd4 b8bc 4f1f b43d d87b d63d be8d 17bc
00000040: b921 bfbd 2e28 323d 4ce0 0b3d c322 7e3d
00000050: e02b 24bd 964d 053c bef7 8bbc 1607 c23d
00000060: bf28 623d f0cd 00bd c0e6 b73d 15fc 493d
00000070: e46d dbbd 7932 db3d 7c19 a8bd 24fd 2dbd
00000080: df24 da3d 3368 9dbd f2e1 57bd 664b c03d
00000090: bfe9 483c 3efe 263d f2d3 af3d 478d 8c3d
000000a0: c7ac ad3d cdcf 8cbd 6d2c adbc 3584 0dbe
000000b0: 0d95 b3bd aeb0 1c3e 5ee3 d23d fffd 733d
000000c0: 5f97 9cbc dcb3 fbbc 3256 cd3d edea afbc
000000d0: 617c 9e3d 27b0 a73d d496 a73d 3827 ae3d
000000e0: 8a8c 923d cdaa 883d b357 983d 8a88 07bd
000000f0: f4df d7bc cdc1 683d 2e44 bdbc 5be0 94bd
00000100: ca01 b83d fbf1 c0bc 62bc 42bd ff3e b83d
00000110: 8870 e83c c5f6 42bd 8a93 e2bc 653e 04be
00000120: 25f1 a83d a0f3 d8bd 6e8a b93d 8f44 6ebd
00000130: 8068 d33d bfdc f5bc b88e a43d ab99 eb3d
00000140: b2ed a33d b3e8 84bd 75dd 343e d41c e03d
00000150: bf3c aebd d1b0 5c3d ee53 a93d e7e3 f53d
00000160: 3c5d 813d afcf 8bbd bd0e 50bc b0a7 3abc
00000170: 7e1b 4f3d 0268 9bbd afa3 c7bc 1f26 e83d
00000180: 7cb8 d9bd acc0 033e 6111 f9ba 10c4 8b3d
00000190: b599 07be e4fb 043b feb1 43bd d00a 7bbd
000001a0: 107a a83c 0afb 013d 7430 01bd d376 213d
000001b0: 27e6 e53c e806 00bd 0d1b f53d 3260 9c3d
000001c0: b8b9 a13d 9dba 663d b43b 8f3d 85fa 873d
000001d0: 66aa 9d3d 5948 f53d da28 5bbd 1778 a9bd
000001e0: 5651 d93d d83b 29bc 886d a23d daa9 993d
000001f0: 963a 6e3d 320d 4ebe 9502 ee3c f005 4bbd
00000200: 6962 a73b 4014 9f3d 71ad d6bd d5cd 513c
00000210: c0d2 213c d984 d73d 3722 e3bc 2ddc 8abd
00000220: c5f3 da3d cef5 45bd 9d5d 993d a8b2 6bbd

fc2.weight f4 [14, 140]
0.071331754 -0.078312114 0.018697254 0.15282185 0.013438569 0.17335692 -0.12964298 -0.10967208
-0.080817476 -0.024348607 0.0030415584 0.039644103 -0.00038484758 0.093978815 0.19759779 -0.04486728
-0.11550193 0.11074775 -0.0011651029 0.04857138 -0.071477264 0.10716275 -0.00683898 0.13982604
0.13850994 -0.08293073 0.01827126 -0.06928066 -0.021045497 0.14915681 -0.038182884 -0.05331266
-0.026309228 0.0742198 -0.018912755 0.10415245 -0.0094688 0.045382712 0.08944707 0.04104009
-0.0013116591 -0.0111564305 -0.10626115 -0.11319698 -0.039519705 0.13540474 0.19372909 0.0979232
0.040499717 -0.073135816 0.15304255 -0.029612081 -0.0081802625 0.072072305 0.11625934 0.046530537
0.19016817 -0.08745273 0.13479067 0.011455075 -0.04112989 0.03142063 -0.034700274 -0.008648671
0.08080403 -0.013069101 -0.07583394 0.15532732 0.10803027 0.01502096 -0.062076233 -0.05625884
-0.067463525 -0.04315289 0.11467648 -0.0404638 0.12986414 -0.1828789 0.10222872 0.19724374
0.09305504 0.004947772 0.1246363 0.061982665 -0.1396149 0.109325975 0.05782076 -0.03102833
0.12346851 -0.024286585 -0.00097543176 -0.06836899 -0.010492473 -0.08997449 -0.0025751437 0.19598147
-0.12425609 0.16594161 -0.022150967 0.00033022914 -0.17044495 -0.046610672 -0.049406547 -0.03735121
-0.080054544 -0.10687752 -0.007927577 0.010079489 0.0060988916 -0.031245783 0.18381868 0.15711729
0.09735953 -0.039941538 0.14126986 0.053179555 0.15000522 0.019395018 -0.052363545 -0.030037386
0.101405665 -0.013271715 0.041502237 0.14855982 0.08041284 -0.0879349 -0.043844357 -0.15432787
0.0018534937 -0.002876937 -0.12078851 -0.059204172 -0.062973335 0.10232448 0.020044852 -0.0681736
0.11818098 -0.06866408 -0.021543942 -0.056886055 0.10142186 -0.1315831 0.028451566 0.033191428
0.108577564 0.1516338 0.03913131 -0.106416486 -0.0416298 -0.05214459 -0.15494476 0.003507523
-0.14310773 0.07076125 0.07917695 -0.033897452 -0.1266948 0.16494748 -0.030856999 0.11145964
0.03720351 -0.14297666 -0.03933206 0.13044345 0.0861497 0.024480134 0.19024014 0.0141773
-0.00955044 0.091008276 0.012261255 0.047126263 -0.011565287 -0.09345546 0.019737257 0.10522001
-0.05122516 0.15357149 0.012158871 0.09149597 0.023592453 0.004715037 -0.16230121 -0.06447735
-0.09697957 -0.04775385 0.097882695 0.058451198 -0.06412632 0.04895713 0.10111619 0.011404393
0.112991326 0.040784758 0.12245268 0.13473214 0.12700383 0.01404748 0.16270837 0.018358374
0.0059354864 0.10067332 0.09206765 -0.088378735 -0.083183065 -0.13894108 -0.028461471 0.08328986
-0.12313886 -0.10360024 -0.11827025 -0.13631025 0.16039206 0.07193924 0.029148012 -0.096438974
-0.08721724 -0.03935169 0.09316744 -0.005278905 0.1002842 -0.0072246543 -0.08402089 0.08032916
-0.0068493956 0.06793268 0.16439502 0.16540998 0.10861897 -0.00043954045 -0.009400812 0.11407083
0.026929397 0.09795839 -0.05226824 0.1150186 -0.107210614 0.0988634 0.15113783 0.122949965
-0.15152885 -0.11094377 -0.011748918 -0.10454072 0.098157346 -0.05840698 0.0004780702 0.16049616
0.10226723 -0.05312401 -0.021978537 0.055810265 0.12117902 0.12474463 0.17981924 0.18905912
00000000: 6216 923d 1a62 a0bd fc2a 993c 557d 1c3e
00000010: 722d 5c3c 7a84 313e 21c1 04be c19b e0bd
00000020: a283 a5bd bb76 c7bc e254 473b db61 223d
00000030: 5ec5 c9b9 f777 c03d 1357 4a3e c1c6 37bd
00000040: 478c ecbd b7cf e23d 5eb6 98ba c9f2 463d
00000050: ac62 92bd 2578 db3d 8619 e0bb 8f2e 0f3e
00000060: 8dd5 0d3e 96d7 a9bd 9cad 953c 05e3 8dbd
00000070: 9b67 acbc 90bc 183e a865 1cbd 605e 5abd
00000080: 7386 d7bc 8d00 983d ecee 9abc e14d d53d
00000090: 0723 1bbc 39e3 393d 0730 b73d a719 283d
000000a0: faeb abba 76c9 36bc 729f d9bd d1d3 e7bd
000000b0: 6adf 21bd 8aa7 0a3e eb60 463e f58b c83d
000000c0: 08e3 253d 3bc8 95bd 30b7 1c3e 0995 f2bc
000000d0: 8206 06bc a59a 933d 6019 ee3d ce96 3e3d
000000e0: 72bb 423e 6b1a b3bd 9106 0a3e 11ae 3b3c
000000f0: d177 28bd ebb2 003d e021 0ebd 28b3 0dbc
00000100: 957c a53d c81f 56bc d34e 9bbd 200e 1f3e
00000110: f93e dd3d 791a 763c a643 7ebd ab6f 66bd
00000120: 512a 8abd 16c1 30bd 81db ea3d 5fbd 25bd
00000130: 1bfb 043e 9b44 3bbe 4b5d d13d 43fa 493e
00000140: a493 be3d eb20 a23b 5141 ff3d 89e1 7d3d
00000150: 35f7 0ebe 4ce6 df3d 76d5 6c3d 202f febc
00000160: 0fdd fc3d a9f4 c6bc 1eb4 7fba 0b05 8cbd
00000170: 9fe8 2bbc 8c44 b8bd bec3 28bb 5eaf 483e
00000180: fa79 febd 99ec 293e f275 b5bc 9b22 ad39
00000190: 1f89 2ebe d5ea 3ebd 855e 4abd 95fd 18bd
000001a0: a3f3 a3bd 9ae2 dabd abe2 01bc 7124 253c
000001b0: 36d9 c73b 28f7 ffbc f73a 3c3e 5be3 203e
000001c0: 6f64 c73d bd99 23bd 0ca9 103e ced2 593d
000001d0: f89a 193e 4de2 9e3c 287b 56bd f710 f6bc
000001e0: c6ad cf3d 9b71 59bc 40fe 293d 1120 183e
000001f0: 7daf a43d 3617 b4bd 2496 33bd 2008 1ebe
00000200: eef0 f23a fe8a 3cbb f75f f7bd 1380 72bd
00000210: 2af8 80bd 7f8f d13d 1a35 a43c 9a9e 8bbd
00000220: df08 f23d c19f 8cbd ec7c b0bc 5a01 69bd
00000230: 44b6 cf3d b8bd 06be 4213 e93c bcf3 073d
00000240: ea5d de3d e445 1b3e 2748 203d e3f0 d9bd
00000250: 0284 2abd 9195 55bd d7a9 1ebe 79de 653b
00000260: d58a 12be 46eb 903d 8627 a23d 0ed8 0abd
00000270: 48bc 01be fee7 283e d1c7 fcbc f444 e43d
00000280: b562 183d 7968 12be a71a 21bd f892 053e
00000290: 416f b03d 908a c83c 50ce 423e e847 683c
000002a0: 7379 1cbc 8c62 ba3d 6ee3 483c 7807 413d
000002b0: 547c 3dbc 9465 bfbd 07b0 a13c 977d d73d
000002c0: 79d1 51bd d841 1d3e 0036 473c 3d62 bb3d
000002d0: f644 c13c 9980 9a3b 4a32 26be b30c 84bd
000002e0: 3a9d c6bd 8b99 43bd b976 c83d 866a 6f3d
000002f0: a954 83bd 4687 483d 0116 cf3d 7ed9 3a3c
00000300: ff67 e73d eb0d 273d 78c8 fa3d 39f7 093e
00000310: 4b0d 023e 6727 663c 069d 263e 4d64 963c
00000320: 787e c23b d02d ce3d f78d bc3d e9ff b4bd
00000330: e25b aabd 9246 0ebe 0828 e9bc e093 aa3d
00000340: 3a30 fcbd 5d2c d4bd ac37 f2bd ea94 0bbe
00000350: d13d 243e e154 933d d0c7 ee3c cc81 c5bd
00000360: f49e b2bd 3d2f 21bd 92ce be3d aafa acbb
00000370: cd61 cd3d cbbc ecbb 2513 acbd 9d83 a43d
00000380: e570 e0bb 4a20 8b3d 2b57 283e 3c61 293e
00000390: 9f73 de3d 1f72 e6b9 dd05 1abc f89d e93d
000003a0: 0a9b dc3c 699e c83d 3917 56bd df8e eb3d
000003b0: 3d91 dbbd e578 ca3d e0c3 1a3e 31cd fb3d
000003c0: 612a 1bbe 7d36 e3bd 897e 40bc 7219 d6bd
000003d0: b806 c93d 283c 6fbd 7fa5 fa39 1b59 243e
000003e0: 7b71 d13d 9098 59bd 550c b4bc 4e99 643d
000003f0: b52c f83d 1d7a ff3d 8922 383e b798 413e

fc2.bias f4 [14]
0.0952155 0.07511468 0.0913693 0.06688924 0.06720538 0.043308623 0.049830858 0.03707915
0.0562621 0.071191125 0.10762672 0.029996421 0.06707385 0.015092419
00000000: 5800 c33d bad5 993d d41f bb3d 3afd 883d
00000010: f9a2 893d 6264 313d 711b 4c3d 4fe0 173d
00000020: 1673 663d a7cc 913d 666b dc3d 0ebb f53c
00000030: 045e 893d 3246 773c
