Response14/state_dicts/10_runs/modelStateDict_1000_shallow_6.pth (torch, 89287 bytes, 5 tensors)

conv1.weight f4 [1, 1, 3]
00000000: 2faf 7e3e 36ae e8be 874b ed3e
0.24871515 -0.45445412 0.46346685

fc1.weight f4 [140, 140]
00000000: dc7b 9fbc 5127 81bb d0c0 1cbd e7ed 82bd
00000010: 19cf ebbb 354b b9bd ed1b 743c 724f d4bc
00000020: ce7d 083d 4d5c 073b 66f7 7bbd 71a3 b23d
00000030: 8bc7 62bb 04b7 db3c fe3d e23c 8efb 8dbd
00000040: 988b b3bd 8164 b9bd e4d5 98bd a902 b0bd
00000050: 0b74 ebbd 3fdd f7bc 8bac 4d3c b4a6 013a
00000060: 6fd7 7dbd a57e febc 3826 083d f41b b8bd
00000070: 8258 8dbc 7748 1f3c 9ddc 54bd 5cce e23c
00000080: 1923 523d 0db5 bc3d d1c4 d43d 4af8 363d
00000090: e9c2 e53d b721 2ebd 9df1 8d3d 6dff d1bc
000000a0: 7ad4 bdbd 71c1 483d 382a 59bc e55f 143d
000000b0: 3285 8c3d b24f 013d 165a 273c a7c6 883d
000000c0: 1309 293c 7299 7a3d ce97 923d 35be a03d
000000d0: 4e57 ca3c b538 023d 43fc f7bb 3b48 80bd
000000e0: d7ee 403c bedb 103d 5c51 24bd 78ce a4bd
000000f0: 206e 73bd 33c3 163d 43b7 e9bd 1730 863c
00000100: d6c3 e93c 6f94 29bd 065a 59bd 9308 b7bd
00000110: 8ead 20bd d4b9 c93c 528a 75bd 42dc 05bd
00000120: 37ff 6cbd 82a4 92bd de72 84bd 2238 1bbd
00000130: 66f8 a8bc ca73 8cbd 99d8 a2bb ce55 6c3d
00000140: 4698 f53c 9365 dcbc 51d7 9fbd 8fea 17bd
00000150: 6e3f 7ebd 7a41 c3bd 7f65 d5bd 7728 2c3d
00000160: 9590 373c 5dc2 7cbd dee8 08bd af42 53bd
00000170: b671 90bd 3e20 a7bd c524 1bbd 8cf0 e0bd
00000180: 20c7 8ebd 60d1 8bbd f515 2e3d 1fe5 1f3d
00000190: 5b34 193c 64c2 253d 8426 513d d332 47bd
000001a0: d803 a13b 21b1 a9bc cea5 a53b 1036 fcbc
000001b0: c846 f4bc e7d5 babc 8830 7bbd 1a08 6ebd
000001c0: afc2 9cbd aa1c 66bd 8369 3cbd 577e 02bc
000001d0: 6298 0ebc 1196 0d3d f6fc 8fbd 76b8 8bbc
000001e0: b82d 24bd 5231 933c fb7c 1d3d 04ab d6bd
000001f0: 0f75 593d 8a45 a8bd ba84 e239 2a4c 6d3b
00000200: 91a8 46bd 2217 433d 9008 993d b684 9f3d
00000210: 969e a43d 9fbc a4bd 0fae f93d 8b0d 333d
00000220: 00ac 99bd f997 7a3d a236 d63d 8641 553d
00000230: b0f6 123c 991f d03c 80a7 413d fb6a 90bd
00000240: 973d 32bd 2b23 72bd b792 8b3b 785d 74bd
00000250: 1c15 02bd 60dc 16bd 1f65 1dbd 3437 23bd
00000260: a25a 3bbd b44d 60bc 8a92 a03c 8062 9d3d
00000270: d1f8 0d3d 7e6b 833d 750f 83bd 9bd9 13bc
00000280: 4ff4 9a3d fb51 d9bb 29d3 9cbd f725 80bc
00000290: ee42 07bc 5ba0 e0bd a42d 39bd 8e41 1abd
000002a0: 8aeb 95bd dc6a 1d3d 0444 f53c 1e09 043d
000002b0: c589 613c 16a9 5cbd 1af2 73bd 19a9 393d
000002c0: 084c ec39 8505 8cbc 2d45 883c de5d 483d
000002d0: c5a6 283c ecf4 5abd 1e92 43bc f7ff b33c
000002e0: 9d76 093d 6210 80bd ed10 b73b 4f1c 4d3c
000002f0: 0771 8ebb 88c2 143d c83e e7bc 5bd9 553c
00000300: 7758 dbbb 1013 2e3d fccd c53c 6322 653d
00000310: 363d 263d f25d fb3c 0d63 05bc a77d d9bb
00000320: bb41 cbbc 9fa1 f3bc 865e 17bd c26b 24bd
00000330: 9a49 2abd 2637 2abd fb16 37bd 0a04 38bd
00000340: 31f7 f9bc 93f0 7ebc cd37 8abc 4a26 8ebc
00000350: 7ae3 15bd c169 3fbd 0fb6 06bd fc63 d33c
00000360: 8782 a4bc aa3c 343d 7023 9a3d c3bf 1ebd
00000370: f7e0 25bd 21b2 dd3d f344 693d 6d9b c63d
00000380: 7413 993d 3df2 863d 3da4 033d e383 7bbd
00000390: 43db ab3d d474 87bd cd00 823d dda4 03bd
000003a0: a1bb 953d 42fb b7bd 0fa9 a2bd 6652 57bd
000003b0: 200a 383d eadf 853d 6564 52bd 9d30 193c
000003c0: fa76 9e3d f385 c03c 2706 08bc 6200 e83c
000003d0: 3ff7 6fbc db96 d03a fe1b f0bc db98 5e3a
000003e0: 4082 11bd 19eb a4bc 6ddc 03bd 801b 193d
000003f0: 5eae e4bc 7b73 0a3d 7446 8ebd 9e88 783b
-0.01946824 -0.0039414545 -0.038269818 -0.063930325 -0.007196319 -0.09047548 0.014899236 -0.025916789
0.0333231 0.002065438 -0.061515234 0.0872258 -0.00346038 0.026820667 0.02761745 -0.06932746
-0.0876686 -0.09052373 -0.074626714 -0.085942574 -0.11496743 -0.030256866 0.0125533445 0.00049458
-0.06197303 -0.031066248 0.033239573 -0.08989707 -0.017254118 0.009721867 -0.051968206 0.02768629
0.051303003 0.0921422 0.10389102 0.04467038 0.11218817 -0.04251262 0.0693085 -0.025634492
-0.09269042 0.049012605 -0.013254695 0.036224265 0.068613425 0.031570144 0.010214349 0.06678515
0.010317105 0.061181493 0.07157861 0.07848779 0.024699833 0.03179236 -0.0075679137 -0.06263777
0.011775694 0.035365812 -0.040116653 -0.08047193 -0.059431195 0.03680725 -0.114119075 0.016380353
0.028535765 -0.041401323 -0.05306437 -0.08937182 -0.039228015 0.024624743 -0.059946366 -0.032680757
-0.05786058 -0.071602836 -0.06467222 -0.03789533 -0.020626258 -0.068580225 -0.004969668 0.057699017
0.029979836 -0.026903903 -0.0780474 -0.037088927 -0.06207221 -0.09533973 -0.104197495 0.042030778
0.011203905 -0.061708797 -0.033425204 -0.051577266 -0.07052939 -0.081604466 -0.037876863 -0.10983381
-0.06971574 -0.068270445 0.04250141 0.039036866 0.009350861 0.04046859 0.051062122 -0.048632454
0.0049137883 -0.020714344 0.005055166 -0.030787498 -0.029818907 -0.022807075 -0.06132558 -0.058113195
-0.076543204 -0.05617968 -0.04599906 -0.007964692 -0.008703323 0.034566943 -0.0703067 -0.017055731
-0.040082663 0.017967854 0.03844927 -0.104818374 0.05309015 -0.082163885 0.00043204968 0.0036208727
-0.0485006 0.047629483 0.07472336 0.077889845 0.0803806 -0.08043789 0.12191402 0.043714087
-0.075035095 0.06118009 0.10459639 0.05206444 0.008969948 0.025405692 0.04727888 -0.07051655
-0.043515768 -0.05911557 0.004259433 -0.05965945 -0.031758413 -0.03683126 -0.038426515 -0.039847568
-0.04574073 -0.013690401 0.019601125 0.07684803 0.034661118 0.06416987 -0.063994326 -0.009024049
0.075661294 -0.0066320873 -0.07657463 -0.015643103 -0.008255703 -0.109680854 -0.045209542 -0.037660174
-0.07320316 0.038431987 0.029939659 0.032235257 0.013765757 -0.05387219 -0.059557058 0.04532728
0.00045070075 -0.017092476 0.016634548 0.048917644 0.010293667 -0.053456232 -0.0119366925 0.02197264
0.033560384 -0.06253125 0.0055867345 0.012518956 -0.00434697 0.036318332 -0.028228179 0.01305231
-0.0066938954 0.04249865 0.024146073 0.055940997 0.04058572 0.030684445 -0.008141291 -0.0066372934
-0.024811616 -0.029740153 -0.03695538 -0.04014183 -0.0415741 -0.0415565 -0.04469965 -0.044925727
-0.030513378 -0.015560287 -0.016872311 -0.017352242 -0.03659389 -0.046731714 -0.03288847 0.025804512
-0.020081772 0.044003166 0.075262904 -0.038757097 -0.040497746 0.10824991 0.05695052 0.09697614
0.074744135 0.06589172 0.03213905 -0.061405074 0.0839143 -0.0661408 0.06347809 -0.032139648
0.07311178 -0.089834705 -0.079424016 -0.052568816 0.04493153 0.06536849 -0.051365275 0.009349969
0.07737537 0.023501372 -0.008302248 0.028320495 -0.01464635 0.0015914099 -0.029310223 0.0008491405
-0.035524607 -0.020131635 -0.032192636 0.03737974 -0.027915176 0.033801537 -0.069470316 0.0037923227

fc1.bias f4 [140]
00000000: 5697 d5bc 03cb 41bc f711 703d dd46 b43c
00000010: 71df 163c 8060 03bd 84e5 ec3a 43bb 91bb
00000020: 7942 98bc 9354 0cbd 51f3 f09d 6a41 9eba
00000030: d722 23bb 5121 b43b 3557 b73b 64f2 a43c
00000040: e9a3 973a 84c5 65bc 198c 69bc 6ca7 59ba
00000050: 2966 2bbc bc48 04bd df1f 3dbd 334d 5dbb
00000060: 2006 64bb e03f eabb 4ea3 693c 62e2 e8bc
00000070: a6b3 38bd d009 8abc 77ac 99bb 4688 38b7
00000080: 1e40 823a c4a8 3b3d 99b3 e4bc b63d 11be
00000090: cef7 afbc a9f5 03be 628d d23c ac9c 9bbc
000000a0: dae3 163d 3ec7 17bd c3f2 47bb 1e6e 653d
000000b0: 2169 173c 7809 66bc c445 34bc d306 93bd
000000c0: 2a4a 36bd 7802 69bb 9bad cebc 5892 e83b
000000d0: 274f 89bd 4537 29bd 5d91 3c3b 55ae abbc
000000e0: 2b30 12bd be79 26bc 2107 593b bda5 0cad
000000f0: 822c 8abc 81c9 10bd 3ea0 4a3c d63a 06bd
00000100: 96b7 5d3c d04d efbb 99d6 b03c b6f4 173d
00000110: dc6d f43c 5305 90bb 9f6c fbbb c4d7 59bd
00000120: 429e 7c39 bd48 bd3c 6059 1bbc 177d 183d
00000130: f9d1 dabc 933a fa3c 07e0 a2ba 6a75 463d
00000140: 9b31 5eba 5da8 28bd 6be0 f0bc fc2b f9ba
00000150: 1094 a0ba 9467 cebc 93f9 8f3c 80ea 6f3a
00000160: 8429 f43c 8d90 89bc 0e3f fbb8 7a27 89bc
00000170: fa42 75bc 5909 67bc d386 88a5 f774 b2bb
00000180: 09dd acbc 01a2 55bc 0fc2 d43a ef3f 18bd
00000190: 6367 0abc f457 bdbc 310a c0b9 b7e5 eebb
000001a0: 81a4 33bc cca5 13bd 0859 e43c 032f 8bbc
000001b0: c750 5dbc 64f5 67bb 9e33 84bb 0d4f f13c
000001c0: ca5b a0bd 0790 c63b cda6 9bb7 dbcd 71ba
000001d0: 91d6 1abc 8fb0 6fb9 3789 5e3b b5d3 63ba
000001e0: c686 fc3a 7fcb dd3c a432 febb 8532 9f3a
000001f0: f42f 993c 154a ea3c c6fd 06bd 96a6 96bc
00000200: df6d 99bc 6626 87bc 8772 00bb 3f73 c5bc
00000210: bc06 06bd fcca f23c a179 a9bc e292 10bd
00000220: 0c4d 1b3c 374e 01be 2f6e 013c 7bd1 6dbd
-0.02607314 -0.011828187 0.058610883 0.022006446 0.009208546 -0.03207445 0.0018073772 -0.004447372
-0.018586384 -0.034260344 -6.3779054e-21 -0.0012073938 -0.0024892592 0.0054971357 0.0055951127 0.020135112
0.0011569235 -0.014024142 -0.014254593 -0.0008302841 -0.010461369 -0.032295927 -0.046172973 -0.0033767938
-0.003479369 -0.007148728 0.014260126 -0.02842826 -0.0450932 -0.016850382 -0.004689749 -1.0998983e-05
0.0009937321 0.045815244 -0.02791767 -0.14183697 -0.021480467 -0.1288668 0.025702182 -0.018995605
0.03683839 -0.037055247 -0.0030509687 0.05601322 0.009241373 -0.014040343 -0.011002962 -0.07179036
-0.044504322 -0.003555445 -0.025229266 0.0070975237 -0.0670455 -0.041312475 0.0028773167 -0.020957151
-0.035690468 -0.010160862 0.0033115821 -7.99488e-12 -0.016866926 -0.03534842 0.012367306 -0.032770954
0.01353254 -0.007302977 0.021586703 0.03709861 0.029837541 -0.004395166 -0.0076728608 -0.053184286
0.00024091548 0.023105973 -0.009481758 0.03722867 -0.02671145 0.030545508 -0.0012426384 0.04845182
-0.000847602 -0.04117619 -0.029403886 -0.0019010301 -0.0012251157 -0.025195874 0.017575061 0.00091520697
0.029804952 -0.01679256 -0.000119803575 -0.016742457 -0.014969582 -0.01410135 -2.36836e-16 -0.005446072
-0.021101492 -0.013039113 0.001623215 -0.037170347 -0.008447501 -0.023113228 -0.00036628687 -0.0072905677
-0.010964514 -0.036046788 0.027874485 -0.01699019 -0.013508028 -0.0035394067 -0.0040344736 0.02945664
-0.078300074 0.00605965 -1.8555113e-05 -0.0009224095 -0.009450571 -0.0002285859 0.0033956298 -0.00086909096
0.001926624 0.027074574 -0.0077575017 0.0012145793 0.018699624 0.028599778 -0.03295686 -0.018389981
-0.018729148 -0.016497802 -0.0019599514 -0.024102805 -0.032721266 0.029637806 -0.02068788 -0.03529633
0.009478819 -0.12627493 0.007899805 -0.058061104

fc2.weight f4 [14, 140]
00000000: a353 b1bd 9899 95bd b49c 323e d42b 31be
00000010: 0e8f d2bc 08e7 81bc 3136 803d 8624 923c
00000020: 4855 173c a8a6 d8bd a122 6386 0aa8 fbbd
00000030: c637 6f3a ad8d 25bd c579 c1bd 813a 6dbd
00000040: 4420 31b9 08f6 47bd 4fcf 4cbc 77f2 3dbe
00000050: 673c 1dbe 8e60 19be 275b 03be 9442 143d
00000060: 4dbf 6a3c 4ba5 413d 1a75 f23d b04a 0bbe
00000070: 1d5b c6bd c101 9e3c 8849 da35 1c13 9f36
00000080: 09a3 b33d e1c9 2d3d 20d4 eb3d 4cad 1ebe
00000090: f3c3 053b c620 a1be e14c 5d3d 6503 f8bc
000000a0: 30cf 303e 4b4a cbbd e3d3 f0b5 4eb7 163d
000000b0: 16ea 0abd 3fc9 113d 5ced bdbc c2b6 4ebd
000000c0: 0818 0e3e 9271 f3b9 3d5a 08be 0e19 df3d
000000d0: bda4 afbd 3b96 50be 802e c83d 1026 723c
000000e0: 9078 a3bd 1722 0ebc a220 ebbd 4f07 56a0
000000f0: d103 88bc d8f5 c0bc d0f8 f43d b78c 1a3c
00000100: a5d7 953c f31d 79bc 0886 2d3e 60f4 253e
00000110: 908e c53d 2df2 74bd 1f1a 293d 0d3d 333d
00000120: 1667 573d 0846 d23d c9c4 a7bd b4a7 cb3d
00000130: cdbb 47bc aecc edbd 0d14 8037 4bc3 e6bc
00000140: 1f79 c83b 4015 7abd 8aa6 18be 24ef 0a3e
00000150: 24ca cf3d bb54 42bd cb87 f23b dd77 b13d
00000160: b12b af3d edc9 1fbd 284d 06be 3cb2 6fbd
00000170: e82c d23d a3d0 04be f7a0 4936 2649 943d
00000180: a9c3 2dbd c61e e9bd 8dad 9a3d 0ed9 ec3c
00000190: 0859 8a3d 61fa 193a 06f2 273e 5e5d 433b
000001a0: 10f3 8e3d d702 88bc 7e5b 103e bcd8 75bd
000001b0: 4665 89bc e6f9 123e e848 64ba 6f95 633d
000001c0: 3bd6 65be d68c f7bc 81ac 92af ca23 adbd
000001d0: 0ea6 6c3d 0e2d b735 6778 293e 8204 8c3d
000001e0: d848 f23c ea0b 1f3e 01c6 793c abf8 5abd
000001f0: 4681 fb3d e206 b33d ffde 7fbd f72c 1b3d
00000200: 1b3d 26be 2cec 0bbe c5ee 9337 6cea eebd
00000210: 9c9a c73b c396 a83d 7375 b53c 753c c6bd
00000220: fb51 2abe d642 3cbe c3dd 0dbe 4de4 96bd
00000230: ec2f 12be 889b 033e 456a 61bc e681 b33d
00000240: f510 2c3e d956 823d 9700 05be 8a2d 533b
00000250: 2fd1 213d 2c3e d7bd 2742 fa33 aa1c 243e
00000260: 56e4 2dba b4c7 a3bd 58a5 123e 26eb f43d
00000270: e402 f73d 6139 fdbc 222b 10be 3669 95bd
00000280: de53 ebbc dc4d d63d e7b6 01be 3870 fd3d
00000290: 7c41 89bb ca2f 3bbc 1ef6 11bd 8167 d73c
000002a0: 8613 eebc aa51 47bd 7ed6 2c3b b082 86b3
000002b0: 0c30 063e b08b 613d af62 b73d aa91 fabd
000002c0: 873e 853c fd11 02be 4ba3 143e a508 8d3d
000002d0: 18e7 163e 9781 e43b 5d9e 123a fc91 d9bd
000002e0: e396 203e 1fad 08be d6e2 f5bd 67c6 84be
000002f0: 6a54 f1bd 0d9f 163d ec99 873d d3f1 20be
00000300: 307c 3b3e 57cb 49bd b67e a6bc c62b 05be
00000310: 3607 e5bd 0b2d bf3d b69f 6a3d 4058 7db5
00000320: 6f9b 05be e1c4 11be 2203 343e 3947 64be
00000330: 6c68 47bd 166c 22bd b6d0 853d c8b9 ad3d
00000340: 535b 1b3e 9dd9 78bd ea65 00ba 5df2 f2bc
00000350: 48d7 5abd ba55 4a3c 398b 4fbd e36e cf3d
00000360: b7b0 0ebe 0c73 b13d 8b4b e938 cbab 8abd
00000370: bf2a 9ebd 1780 2cbe 5923 ed3d e4e7 37be
00000380: bd81 1f3d f3a7 04be 9093 b63d e0d7 2e3e
00000390: c88e 1a3e 7a92 ecbd 62c3 82bd d4d4 963d
000003a0: a9f9 19be 5077 663d 847d 5539 58ea cf3d
000003b0: 17d2 cb3d e1b4 7fbc 2f5f e43d c1a0 873d
000003c0: 99fa 1dbe 415f 7eba 6221 aa3d 28e4 80bd
000003d0: a124 cabc 5b65 3cbd ab73 e13d 7c39 01be
000003e0: 9c2f a6bd 8f42 16be 5551 043d e089 223e
000003f0: f709 e83d a3e3 333d 626d 87b3 753a 403d
-0.086585306 -0.07304686 0.1744259 -0.17301875 -0.02570298 -0.015857235 0.06260336 0.017839681
0.009236641 -0.10578662 -4.2719396e-35 -0.1228791 0.00091254374 -0.040418316 -0.09447054 -0.05791712
-0.00016892055 -0.048818618 -0.012500598 -0.18549524 -0.15355073 -0.14978239 -0.1282774 0.036196306
0.014327836 0.047276776 0.118387416 -0.1360271 -0.09685347 0.019287946 1.6263666e-06 4.740794e-06
0.08771331 0.042428855 0.11515069 -0.15495795 0.0020410984 -0.31470317 0.054028396 -0.030275056
0.17266536 -0.0992628 -1.7943061e-06 0.036795907 -0.033914648 0.035592314 -0.02318447 -0.05046726
0.13876355 -0.00046433188 -0.13315673 0.10893451 -0.08576343 -0.20369808 0.09774494 0.014779583
-0.0798198 -0.00867512 -0.114808336 -1.8128923e-19 -0.016603382 -0.023554727 0.1196152 0.009432963
0.018291304 -0.015204894 0.1694566 0.16206503 0.09646332 -0.05980127 0.041284677 0.043759394
0.052588545 0.10267264 -0.08191831 0.09944096 -0.012190771 -0.11611305 1.5268126e-05 -0.028169295
0.0061179544 -0.06105542 -0.1490728 0.13567787 0.10145977 -0.047444087 0.0074014417 0.0866544
0.08553255 -0.03901093 -0.1311537 -0.058519587 0.102624714 -0.12970214 3.0045028e-06 0.072405145
-0.042422924 -0.11382823 0.075526334 0.028912093 0.067552626 0.0005873796 0.16400918 0.002981029
0.06979954 -0.016602917 0.14097401 -0.060021147 -0.016771924 0.14353141 -0.00087083736 0.055562433
-0.22445004 -0.030218523 -2.6679817e-10 -0.08454092 0.05777555 1.3647675e-06 0.16549836 0.06836797
0.02957575 0.15531889 0.015244962 -0.053459805 0.12280516 0.08741547 -0.062468525 0.03788468
-0.16234247 -0.13664311 1.7634951e-05 -0.11665806 0.006091429 0.082318805 0.02215073 -0.096795
-0.16632836 -0.18384871 -0.13854127 -0.07367764 -0.14276093 0.12852299 -0.013758247 0.087650105
0.16803344 0.06364221 -0.12988506 0.0032223188 0.039506134 -0.10509905 1.1653565e-07 0.1602656
-0.0006633451 -0.07997075 0.14320886 0.119589135 0.12061098 -0.03091115 -0.14078954 -0.07295458
-0.028726514 0.10464069 -0.12667428 0.1237492 -0.0041887145 -0.011424968 -0.035635106 0.026294472
-0.029062044 -0.048661865 0.0026372964 -6.263633e-08 0.13104266 0.055064857 0.08954369 -0.122348145
0.016265167 -0.12702174 0.14515416 0.068864144 0.14736593 0.006973456 0.0005593056 -0.106235474
0.15682559 -0.1334729 -0.12006156 -0.2593262 -0.11783679 0.036772776 0.06621155 -0.15717249
0.18309093 -0.049266186 -0.020324092 -0.1300498 -0.11183016 0.09334763 0.05728122 -9.4378265e-07
-0.13047574 -0.1423526 0.1757932 -0.22292794 -0.04868357 -0.03965386 0.06533949 0.084827006
0.15171556 -0.060754407 -0.0004897999 -0.029656583 -0.053427964 0.01234954 -0.050669882 0.10128572
-0.13934599 0.086645216 0.00011124377 -0.06771048 -0.07722997 -0.16845737 0.11579008 -0.17959553
0.038942087 -0.12954693 0.08914864 0.17074537 0.15093529 -0.11551376 -0.063849226 0.073648125
-0.15036644 0.05626613 0.00020360021 0.101521194 0.09952181 -0.01560709 0.11150967 0.06622458
-0.15427627 -0.0009703525 0.083071485 -0.06293517 -0.02467567 -0.045995098 0.1100839 -0.12619585
-0.081145495 -0.14673828 0.032304127 0.15872908 0.11330026 0.043918263 -6.306324e-08 0.04693075

fc2.bias f4 [14]
00000000: a89a 5d3d f5c8 d53c 3219 c93c 06cf 993c
00000010: a5d4 293d 1be4 5dbc dee7 883c 46e9 ca3b
00000020: 728b 333c e98f 113d 44b6 523d 466c ac3c
00000030: 46d1 2d3c e76e d4bc
0.05410257 0.0260968 0.024548147 0.018775474 0.04146256 -0.013543154 0.016712125 0.006192359
0.010958539 0.035537634 0.051443353 0.021047723 0.010608977 -0.025931789
