Response14/state_dicts/10_runs/modelStateDict_1000_shallow_9.pth (torch, 89287 bytes, 5 tensors)

conv1.weight f4 [1, 1, 3]
0.4108033 0.5334375 -0.454451
00000000: cf54 d23e 5c8f 083f cdad e8be

fc1.weight f4 [140, 140]
0.028705506 -0.06146803 0.07197038 0.06958181 0.024166133 0.12750648 -0.04721808 -0.047495183
0.013179288 0.012990482 -0.05104691 -0.07084753 -0.065859936 -0.052533347 -0.027409025 -0.038613196
-0.07523198 -0.076037884 -0.0026209543 0.020004177 0.007490781 0.03308409 -0.055725563 0.021502228
0.043421324 -0.017911697 0.015825734 0.0025796685 0.0081465 -0.019624962 0.010115068 -0.0041331635
0.010483061 0.0026221175 0.071111485 -0.055945676 0.113248736 0.050662603 0.09842131 0.06673988
-0.077203274 0.023583053 0.032666788 -0.040605024 -0.057598323 -0.09650039 -0.02934515 0.076533206
0.069424376 -0.08104829 0.015318111 0.049521733 -0.02512832 -0.024342906 0.027778398 0.039587233
-0.0064837 0.058782265 0.077319376 0.07284341 0.014001131 0.033798914 0.046107307 0.04497215
0.03368048 0.03275529 0.019270217 -0.00045981753 -0.04385653 0.018998224 0.014258462 0.063828096
-0.016929662 0.038226314 0.029662386 0.050002776 -0.062465567 -0.02652646 -0.14192237 -0.092047475
0.026961554 -0.030985197 -0.010253217 -0.038393773 0.08475658 0.052888576 0.019174894 -0.004324067
0.011272934 -0.004043649 -0.031630807 -0.031234514 -0.03962802 -0.06162657 0.074496046 0.079311416
0.013798577 0.05025024 -0.04084329 -0.030625267 0.057990473 -0.041573618 -0.018892892 0.004350026
-0.05461177 0.019942354 0.03295194 -0.08203133 -0.043265104 0.059373602 0.042457778 0.022074802
-0.034271196 -0.001237894 -0.085802205 0.035352338 -0.018523188 0.0663732 0.008463303 0.008208765
0.026506798 0.038731672 -0.027519077 -0.00784291 0.024278002 -0.008715674 0.009508155 -0.04781619
-0.038020667 -0.036999412 -0.04969508 0.0017157932 0.033160258 -0.020128762 -0.013192239 0.1102191
-0.032563794 0.07846872 -0.02540192 -0.08250055 -0.0039445795 -0.0025623182 -0.0016016911 -0.0026428772
-0.0052495594 -0.01673454 0.009763384 0.011664481 0.0032631608 0.0055644633 0.009641664 0.019651521
0.0300509 0.020308401 -0.0031678453 0.024262702 0.03042351 0.01314995 -0.010031039 -0.018350214
-0.02980816 -0.050291535 -0.05073436 -0.03491773 -0.032753877 -0.037939362 -0.014928083 0.018519096
0.03465224 0.03610856 0.027306626 0.0148695 0.03889573 0.05958523 0.113060795 0.0483577
-0.0023235132 -0.021170432 -0.063515715 0.027407067 -0.042331018 -0.025051601 0.030170556 0.017910078
-0.031293787 -0.065527186 0.06746166 0.028336909 0.0071282703 -0.015447699 0.04909336 0.029272405
-0.031305976 0.07348096 0.058229912 0.02793374 0.028840464 -0.00025358505 -0.017968819 -0.04375672
-0.0046359664 -0.04013675 -0.010357356 0.013459922 0.008759542 0.0055926116 0.019909428 0.026800975
-0.024783554 -0.027077114 0.05629826 0.010657242 -0.032224745 0.0389529 0.029222136 -0.052046306
0.044030726 -0.014008842 -0.052471235 -0.0006875752 -0.021531077 -0.03891545 -0.010354224 -0.014746512
-0.017632257 -0.021635817 -0.020659743 -0.023156391 -0.036010183 -0.046699304 -0.052228354 -0.043944128
-0.010199642 -0.0015012268 0.0011529329 0.022391241 0.022428924 0.0075538983 0.021143695 -0.014831073
0.024470584 -0.028120577 -0.02185768 0.013787436 0.06025695 -0.04621973 -0.0827499 0.04816385
0.035519466 -0.10894602 0.04299965 -0.034394383 -0.019515658 0.010758476 0.01209087 -0.007839909
00000000: cf27 eb3c e7c5 7bbd 3565 933d e880 8e3d
00000010: 0ef8 c53c 0f91 023e bf67 41bd 4f8a 42bd
00000020: f1ed 573c 08d6 543c 9116 51bd 8318 91bd
00000030: 93e1 86bd 352d 57bd e488 e0bc df28 1ebd
00000040: 3913 9abd c0b9 9bbd 51c4 2bbb cddf a33c
00000050: 3a75 f53b 2f83 073d 7d40 64bd 7125 b03c
00000060: 8fda 313d 8dbb 92bc f8a4 813c a80f 293b
00000070: e678 053c 87c4 a0bc acb9 253c 7d6f 87bb
00000080: 25c1 2b3c d5d7 2b3b e6a2 913d 4b27 65bd
00000090: f4ee e73d 9783 4f3d 1d91 c93d ebae 883d
000000a0: c01c 9ebd 3f31 c13c 9ccd 053d 7451 26bd
000000b0: 38ec 6bbd ffa1 c5bd 3d65 f0bc 71bd 9c3d
000000c0: 5e2e 8e3d a5fc a5bd d0f8 7a3c 4dd7 4a3d
000000d0: e8d9 cdbc c66a c7bc 868f e33c 3926 223d
000000e0: 3875 d4bb acc5 703d 9f59 9e3d ed2e 953d
000000f0: 0065 653c bb70 0a3d 04db 3c3d b834 383d
00000100: 8bf4 093d 692a 063d 93dc 9d3c aa13 f1b9
00000110: e8a2 33bd 2aa2 9b3c 539c 693c 4eb8 823d
00000120: 13b0 8abc 3293 1c3d 88fe f23c b6cf 4c3d
00000130: e5db 7fbd 054e d9bc 1954 11be 6383 bcbd
00000140: 7ade dc3c abd4 fdbc 1cfd 27bc ca42 1dbd
00000150: dc94 ad3d b1a1 583d ab14 9d3c e7b0 8dbb
00000160: 1db2 383c 9680 84bb 4e8f 01bd 86df ffbc
00000170: fe50 22bd 246c 7cbd 6291 983d 066e a23d
00000180: 6d13 623c 32d3 4d3d 4b4b 27bd d7e1 fabc
00000190: 6b87 6d3d 1949 2abd 44c5 9abc aa8a 8e3b
000001a0: 97b0 5fbd 265e a33c 9df8 063d 0b00 a8bd
000001b0: c036 31bd bc31 733d 35e8 2d3d 37d6 b43c
000001c0: f45f 0cbd d440 a2ba 11b9 afbd 9dcd 103d
000001d0: f1bd 97bc acee 873d aaa9 0a3c 0e7e 063c
000001e0: c924 d93c 1aa5 1e3d b06f e1bc 8c7f 00bc
000001f0: a9e2 c63c 30cc 0ebc 18c8 1b3c e9da 43bd
00000200: 8fbb 1bbd b28c 17bd 118d 4bbd 77e4 e03a
00000210: 0dd3 073d 13e5 a4bc 4324 58bc 8dba e13d
00000220: 9d61 05bd 35b4 a03d b017 d0bc 0cf6 a8bd
00000230: 8841 81bb 91ec 27bb d6ef d1ba 1f34 2dbb
00000240: 7f04 acbb e016 89bc 9af6 1f3c 611c 3f3c
00000250: c1da 553b 1a56 b63b 12f8 1d3c 3afc a03c
00000260: 4e2d f63c ce5d a63c a09b 4fbb 93c2 c63c
00000270: ba3a f93c e372 573c 3a59 24bc 3053 96bc
00000280: 3e30 f4bc 7ffe 4dbd d5ce 4fbd e505 0fbd
00000290: ee28 06bd 4e66 1bbd eb94 74bc 5cb5 973c
000002a0: 82ef 0d3d 92e6 133d 25b2 df3c 349f 733c
000002b0: 2151 1f3d a40f 743d 6b8c e73d b912 463d
000002c0: 1546 18bb 9d6d adbc 8714 82bd c984 e03c
000002d0: 4a63 2dbd 0439 cdbc 3e28 f73c 28b8 923c
000002e0: ea2d 00bd 1e33 86bd 5729 8a3d ce22 e83c
000002f0: 4494 e93b 5918 7dbc 1e16 493d afcc ef3c
00000300: b23a 00bd 307d 963d 7d82 6e3d 4cd5 e43c
00000310: d642 ec3c 9cf3 84b9 5833 93bc 3f3a 33bd
00000320: 4ee9 97bb 6f66 24bd e6b1 29bc 0187 5c3c
00000330: 2f84 0f3c 3a42 b73b 1919 a33c b88d db3c
00000340: e106 cbbc d3d0 ddbc 0199 663d b69b 2e3c
00000350: 18fe 03bd 138d 1f3d 4363 ef3c 822e 55bd
00000360: 9059 343d 5885 65bc 14ec 56bd 643e 34ba
00000370: f161 b0bc cf65 1fbd c3a4 29bc 5b9b 71bc
00000380: 8671 90bc 993d b1bc 9f3e a9bc 79b2 bdbc
00000390: 6a7f 13bd c547 3fbd 66ed 55bd c2fe 33bd
000003a0: 661c 27bc d0c4 c4ba 021e 973a d66d b73c
000003b0: ddbc b73c b186 f73b 8b35 ad3c 07fe 72bc
000003c0: 8976 c83c 205d e6bc e10e b3bc b3e4 613c
000003d0: fecf 763d e650 3dbd c878 a9bd 7547 453d
000003e0: dc7c 113d 171f dfbd 6720 303d 20e1 0cbd
000003f0: 4ddf 9fbc 5244 303c c918 463c f672 00bc

fc1.bias f4 [140]
0.058357663 0.029257119 0.07408419 0.019426795 0.11001216 -0.019326922 -0.029571705 -0.033122376
-0.051321734 0.006923645 0.049080268 0.10884768 0.055067778 -0.033642013 0.06827954 -0.07247109
0.10237553 0.044188876 0.015604217 0.06609335 -0.07301197 0.10183773 -0.0335182 0.0030558757
-0.0129438145 0.007517855 0.015471812 0.08733975 -0.06036416 0.068558745 0.05863571 -0.045508962
0.02484455 0.021606002 -0.035386577 0.04239236 -0.021660274 0.010080433 0.030876957 0.03488175
-0.018973246 0.3069245 -0.07702074 -0.07125002 -0.039815985 0.024136983 0.10134788 0.063865796
-0.056481447 0.13358554 0.038831286 -0.00946906 0.048924834 -0.006293657 -0.048401482 0.10054697
0.1670854 0.026673084 0.19467294 0.074066505 0.06639551 0.09443025 -0.060851444 0.028782582
0.11156791 0.21568057 0.02061117 -0.0441812 -0.05864816 -0.00013575942 -0.08086181 0.074131295
-0.02763087 0.08669766 -0.03831162 0.09600955 -0.030104294 -0.049105655 0.111344665 -0.057679847
-0.025454696 0.031113468 0.104983695 -0.0528159 0.059475865 -0.06664419 0.08196297 0.017158138
0.06392864 0.07426873 0.014364918 0.013256525 0.0847905 -0.047505625 0.12498268 0.09555046
-0.059510715 -0.099781044 0.12252168 -0.054874633 -0.056847487 -0.017155338 0.12143186 -0.012590555
0.1107929 0.021904325 0.10260125 -0.04367632 0.069826715 0.038452808 0.12886801 0.011888646
-0.04186964 0.036273733 -0.05114847 -0.06673417 0.009933759 0.0139556015 0.07744686 -0.062045094
-0.023245657 0.102944 0.030368857 -0.009556882 0.0028754536 0.08783357 0.10431859 -0.047504693
0.020092972 0.013653589 0.15072718 -0.054445453 -0.05465405 0.1978709 -0.05167471 0.050375592
-0.108335316 0.0453123 -0.007841517 0.058547907
00000000: 7208 6f3d a0ac ef3c 74b9 973d f124 9f3c
00000010: 0e4e e13d 7e53 9ebc 5c40 f2bc 54ab 07bd
00000020: bd36 52bd bedf e23b 6408 493d 88eb de3d
00000030: c08e 613d 35cc 09bd 25d6 8b3d b96b 94bd
00000040: 43aa d13d 65ff 343d d4a8 7f3c f35b 873d
00000050: 4d87 95bd 4d90 d03d 614a 09bd 1645 483b
00000060: 4b12 54bc 5758 f63b 7c7d 7d3c 2fdf b23d
00000070: 6940 77bd 8768 8c3d 002c 703d 9b67 3abd
00000080: cc86 cb3c 12ff b03c 84f1 10bd 9ca3 2d3d
00000090: e370 b1bc 6728 253c acf1 fc3c 2ae0 0e3d
000000a0: c86d 9bbc 3525 9d3e 0dbd 9dbd 88eb 91bd
000000b0: 1616 23bd ecba c53c 7a8f cf3d 12cc 823d
000000c0: 1759 67bd a6ca 083e 8e0d 1f3d 1e24 1bbc
000000d0: 6865 483d 053b cebb a240 46bd 92eb cd3d
000000e0: 6f18 2b3e 8381 da3c 5858 473e 2eb0 973d
000000f0: 5ffa 873d a664 c13d 5d3f 79bd 73c9 eb3c
00000100: b77d e43d 5edb 5c3e c2d8 a83c 59f7 34bd
00000110: 0e39 70bd a45a 0eb9 e09a a5bd 26d2 973d
00000120: 225a e2bc 8b8e b13d a5ec 1cbd a8a0 c43d
00000130: 489d f6bc 0323 49bd ac08 e43d b441 6cbd
00000140: 5e86 d0bc ace1 fe3c b101 d73d 7c55 58bd
00000150: f79c 733d c07c 88bd 34dc a73d 398f 8c3c
00000160: 05ed 823d 341a 983d d55a 6b3c e531 593c
00000170: a4a6 ad3d 4295 42bd ebf6 ff3d f6af c33d
00000180: 82c1 73bd 015a ccbd a6ec fa3d 39c4 60bd
00000190: e9d8 68bd 5a89 8cbc 44b1 f83d 9d48 4ebc
000001a0: 63e7 e23d b370 b33c 9b20 d23d f1e5 32bd
000001b0: 4f01 8f3d b180 1d3d faf5 033e 98c8 423c
000001c0: 807f 2bbd c493 143d 0f81 51bd edab 88bd
000001d0: 35c1 223c 09a6 643c 769c 9e3d ff22 7ebd
000001e0: ad6d bebc 4ed4 d23d 1cc8 f83c 7894 1cbc
000001f0: 1b72 3c3b 16e2 b33d fca4 d53d 4894 42bd
00000200: 049a a43c 4eb3 5f3c 3a58 1a3e 3202 5fbd
00000210: eddc 5fbd ab9e 4a3e dca8 53bd a356 4e3d
00000220: e8de ddbd 6499 393d b579 00bc eecf 6f3d

fc2.weight f4 [14, 140]
0.15618846 -0.1142758 0.09834013 0.019978393 -0.041555975 -0.07306591 -0.06192509 0.034700077
-0.06052566 0.022129951 0.019458942 0.14308727 0.1450918 0.08587298 0.16975369 -0.14753173
-0.11455628 -0.09583404 0.03855776 0.061690584 -0.006713416 0.1292923 0.02595205 -0.124027014
0.049020562 0.009181266 -0.072861664 0.08170781 -0.16829234 0.031211868 0.17557725 -0.042966504
0.06916217 -0.07848794 -0.120503925 -0.0047154604 0.031865504 -0.023258504 0.06461673 0.049784493
-0.085437566 0.2513124 0.116420045 -0.1332564 -0.0024614197 -0.007488052 0.1368795 0.14194025
-0.08111821 0.13212648 0.07889324 0.06875842 0.16213165 0.10549473 -0.031458266 0.097493835
0.09826832 -0.0002217066 0.10379217 0.14257807 0.09006101 0.07764667 -0.113631375 -0.00085188646
0.11343778 0.1421206 -0.1300082 -0.0493168 0.102484405 -0.14561366 -0.09895082 0.19590777
-0.059896663 -0.025701834 -0.08348526 -0.0049477834 -0.04379993 -0.09740629 0.008377626 -0.025864191
-0.0990523 -0.025699316 0.039562233 -0.08199481 0.10797867 -0.1046287 -0.014093322 -0.050650455
0.031694952 0.12816216 -0.09209078 -0.087893635 0.13594247 -0.04368288 -0.011419718 -0.00040705362
-0.13581851 -0.032726105 -0.08126537 -0.081111476 0.0059463107 0.0048224484 0.18398522 -0.091020204
0.0709899 0.04504017 -0.03486847 -0.0143399155 -0.008519052 0.025519622 0.06917295 0.006083796
-0.13808176 -0.03883257 -0.045451287 -0.12020345 -0.03767674 -0.035748344 0.055467043 -0.13933265
-0.12222262 0.040039357 0.013619367 -0.12381307 0.0020751588 0.227585 0.15631515 0.042388786
0.16805045 -0.062170938 0.21382585 -0.08262579 -0.060352836 0.18473944 -0.08099372 -0.019055115
0.058673166 0.12525071 0.09222627 0.017164126 0.0046533113 0.05983408 0.10808519 -0.13624969
0.021602442 -0.014173721 -0.08367609 -0.1052591 -0.01587129 -0.11287364 -0.015422615 -0.061104227
-0.04903172 -0.09532402 0.09957184 -0.1474255 -0.06436168 0.022870922 0.046478577 -0.0073656584
0.038550336 0.16894718 -0.11975022 -0.021394573 0.13304904 -0.06726961 -0.012776335 0.06817715
-0.08510363 0.16262473 -0.054464888 0.07595492 0.13396695 -0.13905564 0.10645097 0.1388688
-0.108382486 0.012545351 0.05430135 -0.043872263 -0.11575283 0.15081702 -0.1906335 0.20264594
-0.15466908 -0.01322652 0.060334947 0.11823741 -0.075448856 0.049548626 -0.0841554 -0.14057057
0.13517764 -0.059196763 -0.056988377 0.14915454 0.035835627 0.043366984 0.07407199 0.011098346
0.110286735 0.09694733 -0.104188174 0.07219123 0.0991321 0.14763473 -0.15240088 -0.017824579
-0.1763994 0.009920105 -0.10630525 0.025317078 -0.08105249 0.26835412 0.053627566 0.11446855
-0.17234497 -0.14092891 0.132729 -0.10869697 -0.14960428 0.13982987 0.10011108 -0.15089822
0.06661976 0.108362086 0.05909941 0.19840719 0.16299342 -0.039912738 0.123118296 -0.0071405675
-0.044129968 -0.05794463 0.22273666 0.21272126 0.121690035 -0.0038182314 0.07144086 -0.13408594
-0.12171109 0.08811167 0.096350305 0.13926898 -0.03645 -0.055278752 0.12547503 -0.11359724
0.044084575 0.01510492 -0.007005108 -0.076833576 -0.10078423 0.15686005 0.029208597 0.023567257
00000000: deef 1f3e 6e09 eabd 8d66 c93d baa9 a33c
00000010: 9936 2abd 94a3 95bd 2aa5 7dbd ab21 0e3d
00000020: c1e9 77bd df49 b53c 5c68 9f3c 7885 123e
00000030: f292 143e 2cde af3d e9d3 2d3e 8f12 17be
00000040: 7c9c eabd a344 c4bd beee 1d3d 44af 7c3d
00000050: 37fc dbbb 3365 043e 6599 d43c e001 febd
00000060: c9c9 483d 056d 163c 7f38 95bd 6d56 a73d
00000070: d454 2cbe 08b0 ff3c 86ca 333e a5fd 2fbd
00000080: e5a4 8d3d 49be a0bd c3ca f6bd 2684 9abb
00000090: 6785 023d 9e88 bebc c755 843d d3ea 4b3d
000000a0: e4f9 aebd 05ac 803e a26d ee3d 5e74 08be
000000b0: c54f 21bb 555e f5bb 242a 0c3e c958 113e
000000c0: 4e21 a6bd 2a4c 073e c792 a13d 37d1 8c3d
000000d0: d705 263e 9f0d d83d 62da 00bd d9aa c73d
000000e0: e740 c93d ea79 68b9 fd90 d43d fcff 113e
000000f0: e871 b83d 3805 9f3d 91b7 e8bd 2251 5fba
00000100: 1152 e83d 1088 113e df20 05be 6a00 4abd
00000110: 58e3 d13d bf1b 15be baa6 cabd 0c9c 483e
00000120: 3456 75bd a78c d2bc 52fa aabd 0421 a2bb
00000130: 8e67 33bd f37c c7bd 4f42 093c 24e1 d3bc
00000140: efdb cabd 5f87 d2bc 020c 223d e5ec a7bd
00000150: ec23 dd3d 9247 d6bd ade7 66bc da76 4fbd
00000160: 91d2 013d f13c 033e 179a bcbd 9401 b4bd
00000170: 8134 0b3e d2ec 32bd c519 3bbc d069 d5b9
00000180: 0214 0bbe cf0b 06bd 756e a6bd c61d a6bd
00000190: 45d9 c23b a105 9e3b 9f66 3c3e cd68 babd
000001a0: 2763 913d 0b7c 383d 3ed2 0ebd f7f1 6abc
000001b0: 7e93 0bbc 870e d13c 8caa 8d3d 945a c73b
000001c0: 4e65 0dbe e70e 1fbd 212b 3abd 3a2d f6bd
000001d0: ed52 1abd db6c 12bd 6931 633d 38ad 0ebe
000001e0: da4f fabd 4f00 243d c423 5f3c b591 fdbd
000001f0: 63ff 073b 0b0c 693e 1411 203e dd9f 2d3d
00000200: 6b15 2c3e f4a6 7ebd 2af5 5a3e b637 a9bd
00000210: 8934 77bd 562c 3d3e 09e0 a5bd 7919 9cbc
00000220: 4653 703d b941 003e 20e1 bc3d c89b 8c3c
00000230: ce7a 983b 9514 753d c55b dd3d 0a85 0bbe
00000240: 9bf7 b03c e538 68bc 5f5e abbd 1592 d7bd
00000250: 8204 82bc 4c2a e7bd 23af 7cbc 6d48 7abd
00000260: 7cd5 48bd 3d39 c3bd 52ec cb3d b6f6 16be
00000270: 0ed0 83bd cd5b bb3c 5260 3e3d 9f5b f1bb
00000280: f5e6 1d3d 7d00 2d3e 9a3f f5bd ac43 afbc
00000290: 023e 083e a6c4 89bd d553 51bc 76a0 8b3d
000002a0: d04a aebd 1987 263e 9316 5fbd 418e 9b3d
000002b0: a22e 093e 9a64 0ebe f702 da3d 9f33 0e3e
000002c0: a3f7 ddbd 048b 4d3c 186b 5e3d 67b3 33bd
000002d0: d20f edbd c76f 1a3e 6e35 43be 6b82 4f3e
000002e0: 9261 1ebe 0cb4 58bc c721 773d 7526 f23d
000002f0: ee84 9abd 80f3 4a3d ab59 acbd bbf1 0fbe
00000300: 026c 0a3e 4e78 72bd a56c 69bd f8bb 183e
00000310: 61c8 123d 94a1 313d 0eb3 973d d6d5 353c
00000320: 03de e13d 528c c63d 9c60 d5bd ffd8 933d
00000330: c505 cb3d 8f2d 173e fa0e 1cbe da04 92bc
00000340: 0ba2 34be f087 223c 91b6 d9bd c365 cf3c
00000350: d9fe a5bd b665 893e 94a8 5b3d 7d6e ea3d
00000360: 337b 30be ab4f 10be 1cea 073e 849c debd
00000370: dd31 19be 902f 0f3e 0a07 cd3d 1085 1abe
00000380: f16f 883d f1ec dd3d 3912 723d 412b 4b3e
00000390: bfe7 263e 8a7b 23bd 7225 fc3d 6cfb e9bb
000003a0: a0c1 34bd 5957 6dbd 1415 643e 9ad3 593e
000003b0: a038 f93d 4b3b 7abb 964f 923d d34d 09be
000003c0: aa43 f9bd e473 b43d 4f53 c53d 879c 0e3e
000003d0: 984c 15bd f96b 62bd 877c 003e aba5 e8bd
000003e0: 0792 343d a07a 773c 1b8b e5bb ec5a 9dbd
000003f0: f667 cebd ec9f 203e de46 ef3c 1f10 c13c

fc2.bias f4 [14]
0.09091775 0.08847719 0.08216666 0.042635754 0.13538691 0.020007104 0.021934168 0.045234546
0.04939019 0.082983345 0.13776039 0.0374326 0.047871623 0.04644576
00000000: 1633 ba3d 8733 b53d fe46 a83d d4a2 2e3d
00000010: dea2 0a3e f0e5 a33c 49af b33c dc47 393d
00000020: 5e4d 4a3d 2cf3 a93d 0f11 0d3e ed52 193d
00000030: 0915 443d e93d 3e3d
