SingleResponse65K/modelStateDict_40_shallow.pth (torch, 2791 bytes, 4 tensors)

conv1.weight f4 [1, 1, 3]
000000 22 79 c4 3e e3 fa cd be 2d 5f a6 3e
       0.38373667 -0.40230474 0.32494488

fc1.weight f4 [3, 35]
000000 a1 94 51 bd 74 4b 52 be c7 7d 60 3c b6 85 cb bd
       -0.051167134 -0.20536596 0.013701863 -0.09937613
000010 e4 c0 4b be 30 27 f7 3e f7 65 3d be f6 5d ca 3e
       -0.198978 0.48272085 -0.18495928 0.39524812
000020 d3 f7 f2 3d 04 45 17 3e 1d 5b de 3d 83 6a c3 bd
       0.11863675 0.14772421 0.10857222 -0.095418
000030 f7 af ae be 33 69 9b 3e b8 f1 ab 3d af 1a 9f 3e
       -0.34118626 0.30353698 0.083957136 0.31075045
000040 98 64 a7 3c 28 55 8d 3e 60 a3 9d bd fc dc 89 3e
       0.020433709 0.27604032 -0.07697177 0.2692641
000050 c4 a4 50 3e 18 bd 8f be 04 f3 4f 3e 44 f8 15 be
       0.20375353 -0.28073955 0.20307547 -0.14645487
000060 40 da 6a be e7 d7 92 be ae 5d a6 bd 5e 0b 1f be
       -0.22934818 -0.28680345 -0.08123337 -0.1553168
000070 e8 7b c0 3e 26 71 ac be 3c 21 95 be 53 0f 0a 3e
       0.37594533 -0.33680075 -0.29126918 0.13482408
000080 2b 17 78 be 7f a9 de bd b7 f3 49 3e a8 82 35 be
       -0.24227588 -0.108721726 0.19721876 -0.17725623
000090 29 92 a7 be e9 f4 a4 3e 02 cf d6 bd 25 d4 85 be
       -0.327287 0.32218102 -0.10488702 -0.26138416
0000a0 50 43 d5 3e 41 35 57 3c 5f 9b 11 3f 34 52 d1 3e
       0.41652918 0.013135255 0.568777 0.40883029
0000b0 db 24 cf 3e 72 e3 bf 3e 08 b0 39 be e6 c1 a8 be
       0.40457806 0.37478215 -0.18133557 -0.32960433
0000c0 71 e8 ab be f3 7e 20 3d 6c 48 e7 3d 61 ef 94 be
       -0.33575776 0.03918357 0.1129311 -0.29088882
0000d0 74 34 98 be fd 2c cd 3e a3 0b a6 3e 4e 38 38 ba
       -0.2972752 0.40073386 0.32430753 -0.0007027433
0000e0 a1 dc e6 3d 20 11 7d 3e d9 98 29 bd 42 85 08 3f
       0.112725504 0.24713564 -0.041405533 0.53328335
0000f0 98 6e 86 bc 11 f0 30 3d c3 0e be 3d 9d 41 cf 3e
       -0.016410157 0.043197695 0.09280159 0.40479746
000100 c9 93 5a 3d 32 e6 69 be 97 2f bd 3e b3 b2 c0 3d
       0.053363595 -0.22841719 0.3695037 0.09409084
000110 b3 83 f6 3e d4 b7 13 3e 11 da 7e be 69 41 9a bd
       0.48147354 0.14425594 -0.24887873 -0.07532007
000120 58 1e 99 be 26 f3 d6 be 02 73 ab 3d 3c 7c 29 3e
       -0.29905963 -0.41982383 0.083715454 0.16551298
000130 b8 a1 ed 3d 7c 58 d9 3d b9 0e a7 be 56 5b 65 3e
       0.11603111 0.1061258 -0.3262842 0.22398123
000140 5c 59 b0 bd 9c 6b 82 3d fc fe 90 bd 0f 3a af be
       -0.08610794 0.06368181 -0.070798844 -0.34223983
000150 b8 b8 1b be 51 15 52 3e a2 aa d6 be f6 94 d4 3c
       -0.15207183 0.20515944 -0.41927058 0.025949936
000160 aa 41 3c be 57 cd eb bd 9e e6 31 be 09 7f 45 3c
       -0.18384424 -0.11513775 -0.1737313 0.012054213
000170 04 8d c1 3d 13 c9 c4 be bf aa 97 3b 8a 39 65 3d
       0.09450725 -0.38434657 0.004628509 0.055963077
000180 71 7a 57 3e a2 09 85 bd 99 41 c4 bd f3 8d 94 be
       0.21042801 -0.06495978 -0.09582824 -0.2901455
000190 bc 11 20 3e a9 69 94 3e 41 bf a3 3e 19 af c2 be
       0.15631765 0.28986862 0.31981853 -0.38024214
0001a0 a8 87 aa be
       -0.33306623

fc1.bias f4 [3]
000000 57 e1 19 bd 68 f2 47 3e 62 75 5e bd
       -0.037568416 0.19526064 -0.054311164

fc2.weight f4 [1, 3]
000000 1b 52 99 3f 09 62 9c bf 1a 97 49 3f
       1.1978182 -1.2217418 0.7874619
