SingleResponse65K/modelStateDict_1000_shallow_final.pth (torch, 4007 bytes, 4 tensors)

conv1.weight f4 [1, 1, 3]
00000000: 486b debe d32f c5be 79d2 1a3e
-0.43441224 -0.3851305 0.15119351

fc1.weight f4 [10, 35]
00000000: 1d13 273e d7c1 ac3d 6e5e 113e 5cdc acbd
00000010: e37e 96bc a52b a4bd c07e babe dd82 2c3e
00000020: d721 023e 056b c6bc 58fb 38be 4bd6 893c
00000030: aa4a 893c 2d1a 353c a10f 34bc 0a0d dcbc
00000040: 0c79 9ebc 467f f1bd a842 26be 9000 b4bd
00000050: fc9d adbd 960a da3d 35dc 923e fa2a c0be
00000060: 7288 62bd a446 083d b829 c73d 9b7f bf3d
00000070: 9416 4abd 1b0b 76bd 7428 1e3d 2caa 993d
00000080: 6181 543e 92b5 613e de26 8b3e ebaa 6cbd
00000090: 8701 3cbd 1891 d3bd 589a e33d 777a 03be
000000a0: 5c8f ab3d 1920 bb3e 4ddf 283d cb4a 29be
000000b0: df20 a23e a2de 1e3d 8926 9e3d aead e73d
000000c0: f002 2e3d 1d9e afbd 0f8d 153c d834 1e3d
000000d0: 012d 903d f5be 91bb 8f0f eabd 5267 83bd
000000e0: 847b 4a3e 45ef 05bd 5358 983d 8162 ca3d
000000f0: 118f a43d f033 03bd ea7d a13d d5a6 c63c
00000100: 5245 843e 3cd2 c03c b8cd 0dbd edfe 96ba
00000110: 23b4 503d 8588 7fbc e03b 823c 240e cdbd
00000120: 1b9f 16bd bdee 063e 0d13 21be 18e6 bf3c
00000130: 960e 5b3d 95f2 9ebd 2947 aebd 385c 643d
00000140: ef79 4a3d 6867 93be cdcf 333d 426d b93d
00000150: 2d7d 96bc 746c dcbd e7ac 153e fd58 113e
00000160: ab06 bb3d be51 6ebe 811f 9dbd 6550 be3b
00000170: d4d5 43be c52e 673e a36d 123d 4a38 863d
00000180: 098e ad3d 0f7e 033e e1c7 a83e 7f51 0e3f
00000190: 5df9 2ebe 4289 b7bd 2835 183e 7a76 cabd
000001a0: ad7b dbbd 6b65 cdbc 1bde 8c3e 6457 063e
000001b0: 6ad3 02be 3e5d c4bb efb9 67bc afef a6bd
000001c0: 9d60 cabc 19d0 213e c24a 233e 3f47 adbd
000001d0: 2a44 113a 55da e4bd 0b8d f5bc bbf5 3c3d
000001e0: 9db8 023e 9ed7 a03d 386d f63d 5e5a 8e3d
000001f0: 97b9 4d3e 005b 86be 81af 0c3f 7cb5 593d
00000200: 05f0 b6bd af08 f53c 34ee ee3d 0343 16be
00000210: f1d9 0a3e 5ccd 74be 662f b3bc 7cf6 ca3d
00000220: 4dba b63d 4e63 88be 6d25 4cbc 82d9 1c3e
00000230: aec0 e13d 6044 9b3e 31ad c7bd 54cf 5d3e
00000240: 06c8 1cbe a3da 93bd 2d1e 453e f4c2 2abe
00000250: d3c8 b23e fe7e f33d c346 a4bd d3f8 0bbd
00000260: f520 843c 4ae9 14bd 1857 eb3c 4a04 573e
00000270: b10e 883d 348a cd3d 3f02 333e acbc 3ebd
00000280: 07e3 3f3e b974 edbd 4343 88be 868f 753e
00000290: c1a5 333e 0255 37be 48b7 e6bc 6584 60bc
000002a0: e2d8 303e 5ddc 623e 6ddf 113e fbaa 053d
000002b0: 1941 2e3e e310 f8bd 2f50 09bb 3760 d83d
000002c0: 53a0 203e a88f 873d c2d9 87bd 65a8 5ebd
000002d0: 2794 36bb 3c4e c4bc 5aaa e43c e653 c03c
000002e0: 17d8 76bd e154 7ebd cd41 193d 1e42 a73d
000002f0: fb55 503d 3cd0 80bd f501 d7bd b702 66bd
00000300: 0047 02bd e41a 2dbd 7f01 a9bd 2a92 1fbe
00000310: f9cc bc3c 686c 59bd a53e 65bd e513 b13d
00000320: e91b bb3d 89ca c43c 450f d83d d5f4 1bbc
00000330: 2f21 9cbd fad2 dabb e5bc a23c 7acf 01bb
00000340: ec09 873c 6021 0ebd 7f89 a4bc ad30 12bd
00000350: 9710 673e a948 45bd 7942 a93d deba 9cbc
00000360: c966 4cbd 3f4f dfbd ba21 4dbe f5d7 d63d
00000370: 9231 35be 30f4 a4be 7c86 353d a587 af3d
00000380: df74 413d 4379 1abd be8d 9a3b 5556 42bc
00000390: 2b49 fcbb 8f81 71be 70c0 b6be 50ab 383e
000003a0: ad4a 353d 243f e1bd f017 acbe 7a5b 113e
000003b0: d4a6 863d cc83 d03a 6f0b 453d ba88 cb3d
000003c0: 43eb 8c3d 8d79 09bc 4bf6 fb3d 9c6b a23e
000003d0: f7f1 e03c c1e1 fb3d 6a8c c6bc 9f78 3a3e
000003e0: ae4f 973c 6353 4d3d 62b6 b33d 7ba7 66be
000003f0: fc63 2c3e 6bef 183e c70a 733e 077f 333d
0.16315885 0.084354095 0.14196178 -0.08440468 -0.018371051 -0.08016137 -0.36424828 0.16846795
0.12708221 -0.024220953 -0.1806463 0.016825816 0.016759235 0.011053604 -0.010990054 -0.026861686
-0.019344829 -0.117918536 -0.16236365 -0.0878917 -0.08477399 0.1064655 0.2868363 -0.3753279
-0.055305906 0.033270493 0.09724754 0.09350511 -0.04933794 -0.060069185 0.038612798 0.07503161
0.20752479 0.2204192 0.2717809 -0.057780188 -0.045899894 -0.10330409 0.11113423 -0.12839685
0.08376953 0.36547926 0.04122858 -0.16532438 0.31665704 0.038786538 0.07722194 0.11312424
0.04248327 -0.085750796 0.009127869 0.038624614 0.07039834 -0.0044478127 -0.11428749 -0.06416191
0.1977368 -0.03269889 0.074387215 0.098820694 0.080351 -0.032031953 0.07885344 0.024249474
0.25834137 0.023537748 -0.034620017 -0.0011520066 0.05095304 -0.015596514 0.015897691 -0.10012463
-0.03677283 0.13177009 -0.15729924 0.023425147 0.053480707 -0.077611126 -0.085096665 0.05575201
0.04943269 -0.2878983 0.043899346 0.090540424 -0.018370235 -0.10762873 0.14616738 0.14194103
0.09132131 -0.2327337 -0.076720245 0.0058079236 -0.19124538 0.22576435 0.03574909 0.06553705
0.08474357 0.12841056 0.32964996 0.55593103 -0.17087312 -0.08961727 0.14864028 -0.09885879
-0.10716949 -0.025072774 0.27513203 0.13119274 -0.1277596 -0.0059925606 -0.014143451 -0.08151185
-0.024704272 0.15802039 0.15946487 -0.08460855 0.0005541468 -0.11174456 -0.029974481 0.046132784
0.12765737 0.07853626 0.120325506 0.0695083 0.20090328 -0.26241302 0.549553 0.053151593
-0.08932499 0.029911367 0.116665274 -0.14674 0.135597 -0.23906463 -0.021873187 0.099102944
0.08922253 -0.26638263 -0.012460095 0.15317348 0.11023079 0.30325603 -0.097498305 0.2166112
-0.15310678 -0.07219436 0.19249792 -0.16675931 0.34918842 0.11889456 -0.08021309 -0.034172844
0.016128996 -0.036355294 0.028728053 0.2099773 0.06643427 0.10036126 0.17481326 -0.04656665
0.18738948 -0.11594529 -0.26613817 0.23980531 0.17543699 -0.17903522 -0.028163567 -0.01370344
0.17270234 0.22154374 0.14245386 0.032633763 0.1701702 -0.12112596 -0.0020952334 0.105652265
0.15686159 0.06619197 -0.06633331 -0.054359812 -0.0027859302 -0.023963086 0.027913261 0.023477506
-0.060264673 -0.062092666 0.03741627 0.08166908 0.050863247 -0.062897176 -0.1049842 -0.056154933
-0.031805992 -0.042261973 -0.082522385 -0.15583101 0.023046957 -0.0530819 -0.055967946 0.08646373
0.09136183 0.024022358 0.105497874 -0.009518822 -0.07623517 -0.0066779824 0.019865463 -0.0019807504
0.016484223 -0.034699798 -0.020085094 -0.035690952 0.22564922 -0.048164997 0.08264632 -0.019132074
-0.04990271 -0.10903787 -0.20032397 0.10490409 -0.17694691 -0.3221755 0.044317707 0.08570794
0.047230598 -0.0377133 0.004716604 -0.0118614035 -0.007699152 -0.23584579 -0.35693693 0.180341
0.04426067 -0.10998371 -0.33612013 0.14195052 0.06574789 0.0015908419 0.048106607 0.09938188
0.0688081 -0.008390796 0.12302836 0.31722724 0.027459128 0.122989185 -0.024236877 0.18210076
0.018470611 0.050128352 0.08775021 -0.22524826 0.16835016 0.1493508 0.2373458 0.043822315

fc1.bias f4 [10]
00000000: 8170 c53e bfc0 2bbe 53b7 0b3f dba4 953e
00000010: ef3b 8ebe 2e9d 08be 9636 603e f024 673e
00000020: 85c5 a63e 0786 52be
0.38562396 -0.16772746 0.54576606 0.29227337 -0.277801 -0.1334121 0.21895823 0.22572684
0.3257257 -0.2055894

fc2.weight f4 [1, 10]
00000000: 8960 cabe bddf e03e c1bd 6abf 19a0 1abf
00000010: 6efd fa3e 2ea2 b13e 9c21 3d3f 5214 a6be
00000020: b39f 28bf 223e 2b3f
-0.39526775 0.439207 -0.9169579 -0.6040054 0.49021477 0.34694046 0.7387941 -0.32437378
-0.6586868 0.6689168
