Response14/state_dicts/model_state_dict_3000e.pth (torch, 468069 bytes, 8 tensors)

conv1.weight f4 [32, 512, 3]
000000 9b 36 4f 3f 45 60 67 3f 79 b6 58 3f a4 cf 3d be
       0.80942696 0.9038127 0.8465343 -0.1853624
000010 4a 78 82 be 3b dc 9b be 31 c3 2d bd de d2 0f 3d
       -0.25482398 -0.3044146 -0.042422477 0.035113208
000020 5d b8 e2 3d f3 01 3b be 4a 57 b9 bd 2e 1e c2 bc
       0.11070321 -0.18262462 -0.09049852 -0.023696031
000030 ab b4 ce be 29 ad b0 be b8 79 82 be bf 00 1f 3f
       -0.40372214 -0.3450711 -0.2548349 0.62110513
000040 6c 04 11 3f 17 db fa 3e 98 37 d4 3e d8 c0 15 3f
       0.5664737 0.48995277 0.41448665 0.5849738
000050 0a b3 33 3f 31 16 43 3e 51 68 17 3f 9a 11 43 3f
       0.70195067 0.19051434 0.5914355 0.7619873
000060 86 30 67 be 0d ae e4 be 74 be 05 bf 72 27 cc bc
       -0.22577104 -0.4466404 -0.52243733 -0.024921153
000070 09 28 07 be c1 7e 90 be 38 4d 5f be 31 6f 44 be
       -0.13198866 -0.28221706 -0.218068 -0.19183041
000080 73 14 9d be 92 cb 3f 3e 91 30 57 3e 91 eb e8 3d
       -0.30679664 0.1873 0.2101462 0.11373056
000090 31 a5 f1 3e 22 95 f5 3e e3 15 0d 3f 52 9f a0 3f
       0.47196344 0.47965342 0.5511152 1.2548621
0000a0 d8 c0 9c 3f ba fc 8d 3f ed df 93 be da 34 df bd
       1.2246351 1.1092751 -0.2888178 -0.108987525
0000b0 ad f1 12 3e 40 15 11 bf 6b 87 ca be 6b fe 93 be
       0.14350004 -0.5667305 -0.3955644 -0.28905043
0000c0 9a 62 ed 3e 45 6a 33 3f 65 94 66 3f 83 52 7f be
       0.4636429 0.7008403 0.9007018 -0.2493382
0000d0 17 9e 2f be b4 15 49 bd db d9 82 be 8f 33 cc bd
       -0.1715015 -0.049092963 -0.25556836 -0.099707715
0000e0 88 f4 46 3d 32 a5 3f bf 53 e8 24 bf 95 1f 14 bf
       0.048573047 -0.74861443 -0.64417 -0.5786069
0000f0 2c 34 6c bd f9 4d 3c be ac ad 50 be 4e 2b 71 bf
       -0.057666942 -0.18389119 -0.2037875 -0.942067
000100 47 9f 64 bf f0 87 59 bf 0e 83 0a be cb f6 a5 be
       -0.8930554 -0.8497305 -0.13526556 -0.3241485
000110 03 2a c7 be 22 78 93 3e b7 59 85 bc dd 1f 39 be
       -0.3889924 0.28802592 -0.016278131 -0.18078561
000120 81 44 64 bd 82 b0 78 3d 2a 79 86 3e 6c 37 42 3f
       -0.055729393 0.060715206 0.26264316 0.7586582
000130 50 9b 6a 3f 63 3b 86 3f c7 e9 bc bd 13 54 9e bd
       0.9164324 1.0486873 -0.09224277 -0.0773088
000140 7b f8 f1 bd cf 5e f1 be e8 b0 f7 be d7 fc fc be
       -0.11814972 -0.47142646 -0.48377156 -0.49411651
000150 90 88 cc be d5 7e e3 be 94 a6 d4 be a4 d5 d1 be
       -0.3994794 -0.44432703 -0.4153334 -0.40983307
000160 58 c1 25 bf fd 0a 88 bf 3a 95 45 be db 5c 0a bf
       -0.64748144 -1.0628353 -0.19295207 -0.54047936
000170 00 86 a7 be b5 c7 8e 3e ce 38 85 3e a0 63 7a 3e
       -0.3271942 0.2788674 0.260199 0.24452066
000180 26 ed 1b 3f ea 71 13 3f fd 5d 36 3f 1a f3 3b bf
       0.60908735 0.57595694 0.71237165 -0.7341782
000190 8b 85 40 bf 61 d7 4c bf 77 9a cf be 0e 91 b0 be
       -0.7520377 -0.8001614 -0.40547535 -0.34485668
0001a0 3e 78 d4 be 0e bd d8 be 51 70 cf be cc a9 a0 be
       -0.41497988 -0.42331737 -0.40515378 -0.31379545
0001b0 30 37 8a be 80 db 2d be 7d 6c 87 be 17 92 be be
       -0.2699523 -0.16978264 -0.26449957 -0.37220833
0001c0 ae a1 9e be fd 8e 36 be 1c 29 b8 3e d4 f9 cc 3e
       -0.30982727 -0.17827983 0.35968864 0.40034354
0001d0 64 e4 ce 3e 16 32 b6 be 4a fe e6 be bd 09 ac be
       0.40408623 -0.35585088 -0.45115882 -0.3360118
0001e0 f0 13 02 3f 78 cb b3 3e ef ba 3e 3e 4e 16 52 3e
       0.5081167 0.35116172 0.18625997 0.20516321
0001f0 43 95 af 3e 3d 7c 12 3f b8 10 26 3e 21 04 a1 3e
       0.34293565 0.5722082 0.16217315 0.31448463
000200 ce 1b fc 3e 81 cf 60 3f bc 91 50 3f d6 69 3f 3f
       0.49239963 0.87816626 0.81472373 0.7477087
000210 5e fb 38 bf 1c c6 20 bf e6 e4 1a bf 9e 6b d4 3e
       -0.72258556 -0.6280229 -0.6050552 0.41488355
000220 70 33 34 3e b4 a2 f1 3d 3a 69 94 be 06 e0 0d bf
       0.17597747 0.11798611 -0.28986531 -0.5541996
000230 13 38 3d bf e8 52 14 3e b6 5f a2 bd b8 bb aa be
       -0.7391369 0.14484751 -0.07928412 -0.33346343
000240 5e 65 63 3e 1f 28 b1 3e d1 13 e8 3e 1b 85 ff be
       0.22206637 0.34600922 0.4532762 -0.4990624
000250 b6 94 00 bf 56 c2 dc be 45 49 22 be 9b a7 4a 3d
       -0.50226915 -0.43117017 -0.15848263 0.049476247
000260 dc 51 35 3e 8d 55 69 bf 4f 40 1e bf f3 b6 00 bf
       0.17707008 -0.91146165 -0.6181688 -0.5027916
000270 01 47 66 be 1d 91 ba bd 20 85 87 3d 19 63 89 3e
       -0.22488023 -0.091097094 0.066171885 0.26833418
000280 60 b6 bc 3c 9a 41 48 be a7 3a 01 3d 27 cb 5e 3e
       0.023036182 -0.19556275 0.031550076 0.21757184
000290 ca 52 8a 3e 41 05 24 be 0d 42 61 bd f7 3b 13 bd
       0.27016288 -0.16017629 -0.05499463 -0.03594586
0002a0 e6 9f 0e be 45 3f 4b bd 66 3a c8 ba ed a4 87 bf
       -0.13928184 -0.049620885 -0.0015276193 -1.0597206
0002b0 15 0c a7 bf 0f 8e bb bf 1f ae 7d 3e d5 51 8f 3e
       -1.3050562 -1.4652728 0.24773453 0.2799212
0002c0 09 f8 be 3e 9b 0b a7 3f a0 16 a7 3f f0 c6 9a 3f
       0.3729861 1.3050417 1.305378 1.2091961
0002d0 c8 bb 83 3d ee 17 93 3e ec 9c 08 3f d0 bd 8c bf
       0.06432301 0.28729194 0.53364444 -1.0995426
0002e0 0d e2 8c bf 0d 4f 88 bf ed c6 e7 be 22 d2 be be
       -1.1006485 -1.0649124 -0.45268956 -0.37269694
0002f0 00 0f c7 be 41 8f 08 bf 1e 89 ff be 7c 45 db be
       -0.38878632 -0.5334359 -0.499093 -0.4282645
000300 fa e6 2b 3e 5c d2 a1 3e d7 42 d7 3e 6b 7c e5 be
       0.1678733 0.31605804 0.42043182 -0.44821486
000310 96 25 cf bd 64 d0 1f 3e a8 d8 86 3f 20 55 16 3f
       -0.10114591 0.15606838 1.0534868 0.5872364
000320 fa 9c 56 3e e9 1b 1b 3f 39 fd 2e 3f c5 c1 34 3f
       0.2095832 0.6058946 0.6835514 0.7060817
000330 68 71 41 bf f8 75 39 bf ed 0b 28 bf ca c8 48 be
       -0.7556367 -0.7244563 -0.656432 -0.19607845
000340 55 48 6a bd 7a 22 10 3d 54 5f d9 bd 95 c1 59 be
       -0.057197887 0.03518913 -0.106138855 -0.21265252
000350 74 63 55 be 64 30 ae 3d c3 1c 16 3e 4d 33 3b 3e
       -0.2083872 0.085053235 0.14659409 0.18281288
000360 c2 f7 08 3f 5f 06 16 3f d8 61 46 3f b5 ce 80 be
       0.5350305 0.5860347 0.7749305 -0.25157705
000370 79 6d 43 be 56 c0 22 be 34 44 25 be 12 02 2d bd
       -0.19084729 -0.15893683 -0.16139299 -0.042238303
000380 b9 0f 66 3d f1 8c 20 be f8 2a b8 be c4 bb fc be
       0.056167338 -0.15678765 -0.35970283 -0.49362004
000390 a1 01 d6 3e c7 ce 4f 3f 87 35 70 3f 82 eb da be
       0.41798118 0.8117489 0.93831676 -0.42757803
0003a0 e5 cb c0 be 44 fc 8f be 8d 2d e0 bd 81 7c 81 3b
       -0.3765556 -0.2812215 -0.10946188 0.0039516096
0003b0 65 86 cf bb 1d 8c d3 be 64 c9 ea be a0 4e ae be
       -0.0063331597 -0.41317835 -0.45856774 -0.3404436
0003c0 39 85 7f 3f 68 18 7e 3f ce 88 81 3f 49 9e 18 3f
       0.99812657 0.9925599 1.0119874 0.59616524
0003d0 bf e9 e2 3e 63 4e ca 3e 00 db b0 be 73 85 c8 be
       0.4431896 0.3951293 -0.34542084 -0.39164314
0003e0 c9 61 1c bf 40 f2 27 be a8 a5 e4 be 9f 7e 12 bf
       -0.6108671 -0.16401005 -0.44657636 -0.5722446
0003f0 a4 c3 85 3d 83 1e ee 3b 3f a9 5c bd 89 7a 39 3f
       0.06531456 0.007266821 -0.053872343 0.724526

conv1.bias f4 [32]
000000 39 57 b2 3f b9 3a ba be de 82 a1 3f de ad 42 bf
       1.3932868 -0.36372927 1.2618062 -0.7604655
000010 da c1 da be 70 4e ab bf 11 41 91 3e eb f4 17 bf
       -0.42726022 -1.3383312 0.28369954 -0.5935809
000020 75 a4 96 bf 92 e5 30 c0 6c 4b 82 bf fa 39 24 c0
       -1.1768938 -2.7640119 -1.0179267 -2.5660386
000030 b4 99 25 bf 39 c4 a8 bf b4 24 76 3d 2c db 98 3f
       -0.6468766 -1.3184882 0.060093597 1.1941886
000040 84 6a 55 bf a3 47 ba bf fc 4b 67 3f 85 84 22 bf
       -0.83365655 -1.4553112 0.9035032 -0.6348346
000050 c1 22 dd bf 06 5d 14 c0 03 a6 93 3f ed 17 74 3f
       -1.7276231 -2.3181777 1.1535038 0.9534901
000060 25 a7 8a bf b0 44 b5 bf 94 de 0c c0 28 0f ea bf
       -1.0832258 -1.4161587 -2.201085 -1.8285875
000070 35 be 85 bf 2e 0e ee bf b7 76 ee bf 6b 0b bb bf
       -1.0448672 -1.8598077 -1.8629979 -1.461286

conv2.weight f4 [512, 32, 3]
000000 93 77 89 3e 17 06 89 3e a3 be 61 3e 01 e7 fc 3e
       0.2684904 0.2676246 0.22045378 0.49394992
000010 1e db a6 3e 3c ea 43 3e 0c 50 5a bd 57 43 c9 3e
       0.32589048 0.19132322 -0.053298995 0.3930919
000020 54 39 4d 3f 36 6f ff 3e c8 bd c3 3e 62 13 c0 3e
       0.801656 0.49889535 0.3823073 0.37514788
000030 69 e1 34 3e 13 c6 8d 3e 21 11 c6 3e 69 ed c2 3e
       0.17664112 0.2769018 0.38684943 0.38071755
000040 d2 b0 f1 3e 61 4a bd 3e fa c0 b7 3d ee 77 b3 3e
       0.47205216 0.3697081 0.08972354 0.35052437
000050 7e 3a fc 3e 74 34 3a 3e bf 3c 97 3d dc e2 0e 3e
       0.49263376 0.18184072 0.07384633 0.13953727
000060 30 92 4b 3f 0a e3 4f 3f 54 33 d6 3e b9 3e b7 3e
       0.7951994 0.8120581 0.41836035 0.3579004
000070 55 80 50 3e e0 9c be bd 4d fc f2 3e 15 c4 f8 3e
       0.20361455 -0.09307265 0.47458115 0.485871
000080 3b fe e9 3e 89 56 e4 3e 28 16 32 3f b2 62 1f 3f
       0.45701775 0.4459727 0.6956506 0.6225997
000090 20 3c 1f 3f 77 1d 39 3f 6d 9c 71 3e 2a c2 60 3e
       0.6220112 0.72310585 0.23594828 0.21949068
0000a0 6e 81 ac 3d c1 ab 3b 3e c6 d2 ef 3e 2b 35 db 3e
       0.08423124 0.18327238 0.46840495 0.42814
0000b0 e8 34 c6 3e dd 5c 19 3f ca 17 b9 3e c7 fe bf 3e
       0.3871224 0.59907323 0.36150962 0.37499067
0000c0 f3 6d 09 3f 26 7b f4 3e 56 94 be 3e 08 c9 23 3f
       0.53683394 0.47750205 0.37222546 0.63978624
0000d0 f7 4a c5 3e d1 d9 34 3e 21 a5 13 3f 3a de cc 3e
       0.38533756 0.17661215 0.5767384 0.40013295
0000e0 06 f7 99 3e 57 54 0b 3f 46 6a d1 3e 4c 73 de 3e
       0.30071276 0.5442557 0.40901393 0.4344734
0000f0 05 c7 fd 3e 97 78 f4 3e 31 1f c2 3e 3f c6 c0 3e
       0.49565902 0.47748253 0.37914422 0.3765125
000100 d9 56 ce 3e ac b8 01 3f 85 8c c3 3e 1b 9b 14 3f
       0.40300635 0.5067241 0.38193145 0.5804917
000110 42 8f 53 3f 3b 3c 76 bd 3a 96 04 3f f2 7d 49 3f
       0.8264047 -0.060116034 0.5179173 0.787078
000120 0a 96 e2 3e f8 91 c4 3e 09 7f 83 3e ab 37 0f 3f
       0.44255096 0.38392615 0.25682858 0.5594432
000130 4f 6d 0c 3f 09 9c 20 3f 1f ec 69 3e dd 8b ae 3e
       0.5485429 0.6273809 0.2284398 0.34091082
000140 fe b3 ef 3d 59 fc ff 3d 6c 9c 0b 3f fc 72 aa 3e
       0.11704253 0.12499303 0.54535556 0.3329085
000150 91 49 62 3e 2b fc 3a 3e 1b c2 b7 3e 77 db 79 3e
       0.22098376 0.18260257 0.35890278 0.24400125
000160 21 7d a1 3e 36 3f d6 3e 97 50 a2 3e 68 cc 1e 3f
       0.31540778 0.418451 0.3170211 0.6203065
000170 3b 93 82 3f 7d 83 72 3e ea 41 4d 3e 9b 70 9a bd
       1.0201181 0.23682971 0.20044675 -0.07541009
000180 28 0f ef 3e be 94 05 3f 38 f3 8e 3e 7c e3 2a 3f
       0.4669125 0.5218009 0.27919936 0.66753364
000190 63 b5 04 3f 29 b1 ae 3e ea b6 f9 3e 32 a5 df 3e
       0.51839274 0.34119537 0.48772365 0.43680722
0001a0 10 e9 10 3f a1 2a b2 bc 45 57 8c 3e a0 5d d6 3e
       0.56605625 -0.021748843 0.2741033 0.41868305
0001b0 d0 69 22 3f ef 53 3a 3f 95 e0 4b 3f 2b 60 ff 3e
       0.6344271 0.7278432 0.7963956 0.49878058
0001c0 45 2f f1 3e fe 36 b9 3e 3c 37 19 3e ff 40 ee 3e
       0.47106376 0.36174768 0.14962476 0.46533963
0001d0 6c d5 2f 3f 5f 71 83 3e 42 9c 56 3e 8b 3f b9 3e
       0.6868503 0.25672433 0.20958045 0.36181292
0001e0 bd 7d e1 3e 95 b3 99 3e 83 3a 9a 3e 2b a9 a8 3d
       0.44041243 0.30019823 0.30122766 0.08235391
0001f0 de 07 0b be 30 4c 72 be d8 d0 24 3e aa 3c be bd
       -0.1357722 -0.23661876 0.16095293 -0.092889145
000200 fe 00 32 be 8e 9d 99 3d 0a 79 16 3e c4 94 96 3e
       -0.17383191 0.07500754 0.1469461 0.29410374
000210 41 c5 25 3f 1d 75 d4 3e 89 87 aa 3e 4c 01 07 3e
       0.6475411 0.414956 0.3330653 0.13184088
000220 92 09 84 3e 97 32 a1 3e 61 fb 60 3e 55 3a c3 3e
       0.25788552 0.3148391 0.21970893 0.3813044
000230 36 ad 33 3e d2 cd 22 3f 39 ef 17 3f 00 67 33 3f
       0.17546543 0.63595307 0.593494 0.7007904
000240 69 19 60 be 40 a4 41 3e 9e 29 cf 3e d3 1f c8 3e
       -0.21884693 0.18910313 0.4046144 0.3908678
000250 4c 77 82 3e 03 84 cc 3d 4d c3 45 3f e4 48 00 3f
       0.2548164 0.09986117 0.7725113 0.5011122
000260 14 91 8f 3e d8 68 d7 3e a1 5f 9f 3e b9 5e c0 3e
       0.28040373 0.42072177 0.31127647 0.37572268
000270 8a da 02 3f c7 e8 11 3f 38 59 07 3f f2 03 4a 3e
       0.51114714 0.56995815 0.5287051 0.19728068
000280 ac 3a 8f 3e c9 a4 c1 3e ac e4 e2 3e f3 8e 1c 3f
       0.2797445 0.37821034 0.44315088 0.61155623
000290 a6 6c 45 3f 03 ac 0c 3f 5c bb e4 3e e4 bd 0a 3f
       0.7711891 0.5494997 0.44674194 0.54196
0002a0 6f 26 74 3e ed 39 6a 3e c2 b3 eb 3c cb 93 46 3e
       0.23842786 0.2287366 0.028772239 0.19392316
0002b0 a4 20 89 3e 7a a5 4f 3e 28 d0 92 3e e2 6e 95 3e
       0.26782715 0.20277968 0.28674436 0.2918616
0002c0 87 a1 03 3e 80 65 bb 3e fd f3 80 3e 9d 82 64 3e
       0.12854587 0.36600876 0.25186148 0.2231545
0002d0 e9 41 04 3f 42 0c 24 3f 08 a9 68 3f bb 6c c2 3d
       0.5166307 0.64081204 0.9088292 0.09493395
0002e0 ab e1 e3 3e b8 1f b4 3e e7 a4 0f 3e 73 a5 5a 3e
       0.44508108 0.3518045 0.14027749 0.21352176
0002f0 2f ae 98 3e 8d 6e fb 3e 0f ad 09 3f 0d 82 0d 3f
       0.29820392 0.4910778 0.5377969 0.55276567
000300 47 5c cd 3e 26 d5 ab 3e 9b c8 27 3f 09 d6 85 bd
       0.40109465 0.33561057 0.65540475 -0.065349646
000310 0d 14 24 3f 6c 81 8c 3f 44 cd 21 3f 4b ec fc 3e
       0.64093095 1.0976996 0.63203835 0.49399027
000320 9c c7 ad 3e 25 22 8c 3e 5b f9 43 3e 2a c1 82 bc
       0.33941352 0.273698 0.1913809 -0.015961248
000330 db 30 ce 3e 29 02 5b 3e 25 7e 6d 3e b4 5c 78 bd
       0.4027165 0.21387543 0.23192652 -0.060635284
000340 2d d9 65 3e 60 24 1b 3e 40 7d d2 3e 18 75 ce 3e
       0.22446127 0.15150595 0.41111183 0.4032371
000350 ae ba 0b 3f 32 79 09 3e 7c 67 83 bd 14 f4 1d 3d
       0.54581726 0.13425139 -0.064162225 0.03856285
000360 c6 4a 35 bc c0 30 db 3d f5 f2 50 3e 09 a0 83 3b
       -0.011065191 0.10702658 0.20405181 0.0040168804
000370 96 8e 03 bd dd 6e d7 3d 0e 00 5c bd fd 48 1c 3e
       -0.032118402 0.10519192 -0.05371099 0.15262218
000380 0d e5 cc 3e 21 c3 78 be fb 0a 88 bd 8a fc 98 3d
       0.40018502 -0.24293186 -0.06642719 0.07470043
000390 df 66 1b 3f 9b 20 0c 3f bd ac de 3e 10 7c 9e 3e
       0.60703844 0.5473725 0.43491164 0.30954027
0003a0 17 df d7 3e 55 c7 2e 3f c1 6b 19 3f c3 bc 1f 3f
       0.42162392 0.68272907 0.59930044 0.623974
0003b0 85 23 67 3e a3 47 e4 3e 8e 27 2c 3f cd e0 3d 3f
       0.22572143 0.44585904 0.67247856 0.74171144
0003c0 d8 64 28 be 20 b6 08 3e 9f 38 de 3e b3 b6 0e 3f
       -0.16444719 0.13350725 0.43402573 0.55747527
0003d0 3b 8c b9 3e 72 74 a8 3e 2c 64 6f 3e f6 48 91 3e
       0.362398 0.3290134 0.23378056 0.28375977
0003e0 e6 d4 d7 3e 86 43 82 3e 0a e8 1b 3f 29 2f 68 3f
       0.42154616 0.2544214 0.6090094 0.9069696
0003f0 aa 6c 6b 3e fc 66 78 3e a0 75 14 3f 98 93 8c 3e
       0.22990671 0.24258035 0.5799198 0.27456355

conv2.bias f4 [512]
000000 7d 25 33 3f a8 88 07 3f e2 68 15 3f dd df fe 3e
       0.6997908 0.52942896 0.58363163 0.4978017
000010 4d db f9 3e 84 73 f9 be 28 e6 24 3f 1e 13 53 3f
       0.48800126 -0.48720944 0.6441369 0.82451046
000020 7d 72 00 3f 55 06 11 3f ab fe 06 3f 97 2f 0c 3f
       0.50174695 0.56650287 0.5273234 0.54760116
000030 2e 22 37 3f 7e 88 0f 3f 01 5b 30 3f 3f ff 27 3f
       0.7153653 0.56067646 0.6888886 0.6562385
000040 a4 91 09 3f c0 ba 15 3f b6 f7 f4 3e 61 82 1e 3f
       0.53737855 0.5848808 0.47845238 0.6191769
000050 f8 35 f5 3e 05 ad 31 3f 18 29 33 3f 72 dd 18 3f
       0.47892737 0.6940463 0.6998458 0.597129
000060 0a 38 0f 3f a5 e9 09 3f 7d 82 22 3f 82 39 ef 3e
       0.55944884 0.5387214 0.6348036 0.46723562
000070 e9 cf ad be ef 37 38 3f 70 96 22 3f 69 03 34 3f
       -0.33947685 0.7196035 0.635108 0.70317703
000080 53 e7 27 3f ff b7 1a 3f 2d d0 56 3f fc 48 42 3f
       0.6558735 0.60437006 0.839114 0.75892615
000090 89 4b 06 3f 90 d4 41 3f b5 e8 18 3f 3b b4 28 3f
       0.5245901 0.7571497 0.5973008 0.6590001
0000a0 cf db f9 3e 5a 13 2d 3f bb 45 24 3f 83 f1 cf be
       0.48800513 0.67607653 0.641689 -0.40613946
0000b0 43 9a 5f 3f d2 65 27 3f d1 9c 5a 3f f8 42 24 3f
       0.8734476 0.6538974 0.8539553 0.64164686
0000c0 6f 36 1d 3f 75 24 54 3f 23 a3 4f 3f 1c fc 34 3f
       0.61411184 0.8286813 0.811083 0.7069719
0000d0 4d db 22 3f 1f 42 17 3f 32 36 13 3f cf fe 2e 3f
       0.63615876 0.5908527 0.5750457 0.6835756
0000e0 0c 76 05 3f d5 26 53 3f 2d 23 52 3f 3b a8 0a 3f
       0.5213325 0.8248113 0.82084924 0.5416295
0000f0 fd 24 19 3f d5 ef 1b 3f 68 ab 1f 3f 6f 38 0c 3f
       0.59822065 0.6091283 0.6237092 0.5477361
000100 a4 07 0b 3f eb 49 2f 3f 92 57 49 be 51 d7 36 3f
       0.54308534 0.68472165 -0.19662312 0.71422297
000110 55 18 18 3f 76 1d 1c 3f b7 d8 1a 3f 21 3e 0a 3f
       0.5941213 0.60982454 0.6048693 0.5400105
000120 c5 ca 1e 3f 8b e5 77 3f de 6a 48 3f 57 a7 55 3f
       0.6202815 0.9683463 0.78288066 0.83458465
000130 67 01 52 3f 94 65 31 3f 35 18 35 3f bc e6 42 3f
       0.8203339 0.6929562 0.7074006 0.7613332
000140 67 2f 30 3f fd 84 3a 3f 3c a7 36 3f 33 c5 54 3f
       0.6882233 0.72859174 0.7134893 0.831134
000150 24 d8 44 3f 32 ac 09 3f bf db 2a 3f 0f 14 1d 3f
       0.76892304 0.53778374 0.66741556 0.6135873
000160 e3 f2 c4 3e 3e d1 3f 3f f0 23 48 3f 48 03 17 3f
       0.38466558 0.74928653 0.78179836 0.5898938
000170 e9 c3 16 3f f3 0d 2c 3f bf 5a 41 3f da 7c 4e 3f
       0.58892685 0.67208785 0.7552909 0.8065926
000180 10 7c 11 3f e8 2e 45 3f 71 3f 3e 3f 6c 9d 28 3f
       0.5682993 0.770247 0.74315554 0.65865207
000190 f1 07 eb 3e ef 99 31 3f 26 5d 4f 3f a4 71 0b 3f
       0.45904496 0.6937551 0.8100151 0.54470277
0001a0 49 16 07 3f af 80 0d 3f 30 79 4d 3f 34 27 09 3f
       0.5276838 0.5527448 0.8026304 0.53575444
0001b0 69 00 24 3f 06 e6 19 3f cb 9a f9 3e 57 ae 36 3f
       0.64063126 0.6011661 0.4875091 0.7135977
0001c0 41 c7 20 3f ec 73 c9 3e 59 e7 2b 3f 58 c5 41 3f
       0.6280404 0.39346254 0.67149884 0.7569175
0001d0 9f 98 53 3f fd 31 1d 3f e4 27 33 3f 11 4f 2a 3f
       0.82654756 0.614044 0.69982743 0.66526896
0001e0 ff 9d 4c 3f 49 1c 61 3f 50 d1 65 3f dc ab 0c 3f
       0.7992858 0.87933785 0.8977251 0.54949737
0001f0 d6 2f 31 3f 12 1e 13 bf c4 bf 31 3f da b2 0a 3f
       0.69213617 -0.5746776 0.69433236 0.54179156
000200 a8 37 0f 3f 9d 87 1e 3f f8 96 dc 3e 3f ed 24 3f
       0.559443 0.6192568 0.4308393 0.6442451
000210 28 4b 34 3f 49 66 35 3f 59 a1 21 3f 8a 13 05 3f
       0.7042718 0.708592 0.6313682 0.5198294
000220 26 cc 33 3f a2 86 28 3f 98 b0 4c 3f 5e 7d 34 3f
       0.7023338 0.65830433 0.7995696 0.70503795
000230 2b 2c f6 3e 32 0c 19 3f 59 b6 64 3f e8 07 7a 3f
       0.48080572 0.59784234 0.8934074 0.97668314
000240 49 e8 33 3f 4e ff 27 3f 97 1d 02 3f e9 f7 35 3f
       0.70276314 0.6562394 0.508264 0.71081406
000250 7d 00 13 3f 46 2d 06 3f 6a 78 28 3f 8c eb 2c 3f
       0.5742262 0.5241283 0.6580874 0.67546916
000260 66 41 1e 3f 33 9b 26 3f ed eb 0f 3f 58 36 1c 3f
       0.6181854 0.65080565 0.5621937 0.6102042
000270 1f 47 0c 3f 9a 7c 26 3f c9 90 f9 3e 0f d6 37 3f
       0.5479602 0.65033877 0.48743275 0.71811
000280 8b d2 11 3f 1a 01 2d 3f e8 03 04 3f 56 d8 be be
       0.5696189 0.67579806 0.5156846 -0.37274426
000290 aa 40 39 3f 0a 58 41 3f 18 62 3a 3f b9 d9 28 3f
       0.72364295 0.7552496 0.7280593 0.6595722
0002a0 8e 5b 29 3f 82 e4 03 3f bc e5 19 3f 46 59 42 3f
       0.66155326 0.5152055 0.6011617 0.7591747
0002b0 db e6 15 3f f7 ee 13 3f 0f 66 29 3f 8c 34 4d 3f
       0.5855538 0.57786506 0.66171354 0.80158305
0002c0 0d 51 32 3f 5c e6 3b 3f c7 4a 3a 3f eb 34 51 3f
       0.69654924 0.73398376 0.7277035 0.8172137
0002d0 d0 d0 4d 3f 25 0b 4c 3f c5 52 04 3f 69 ff 39 3f
       0.8039675 0.79704505 0.51688796 0.7265535
0002e0 ec 12 21 3f 89 57 38 3f 26 10 4d be 05 34 1d 3f
       0.629195 0.7200857 -0.20025691 0.614075
0002f0 e9 dc f8 3e 1c 04 01 3f 75 4a 3b 3f a7 10 f6 3e
       0.4860604 0.50396895 0.7316049 0.4805958
000300 c6 77 49 3f da 2e e1 3e 40 ed 03 3f d5 66 11 3f
       0.78698385 0.43981057 0.5153389 0.56797534
000310 34 e6 52 3f d6 e5 11 3f 01 42 2a 3f 04 f8 4d 3f
       0.8238251 0.56991327 0.66506964 0.80456567
000320 83 c7 ad 3e 44 01 03 3f 79 96 4a 3f 32 d9 2b 3f
       0.33941278 0.51173806 0.79135853 0.6712829
000330 e1 38 4f 3f 7f 32 14 3f 60 ad 5e 3f fd e0 20 3f
       0.80946165 0.5788955 0.869833 0.62843305
000340 17 cc 12 3f 1b ce 39 3f 7d 0d 0b 3f 71 c0 44 3f
       0.57342666 0.72580117 0.54317456 0.7685614
000350 d4 48 be be 2b e9 5b 3f 29 2b 39 3f cc 01 3b 3f
       -0.37164938 0.8590266 0.7233148 0.73049617
000360 1d d8 33 3f 91 87 44 3f b9 68 13 3f 60 5b 2b 3f
       0.7025164 0.7676936 0.5758167 0.669363
000370 a4 3d 2e 3f 0f 30 1f 3f 34 d7 fb 3e 36 64 25 3f
       0.68062806 0.62182707 0.49187624 0.64606035
000380 81 80 26 3f 3b b0 33 3f 9a f7 3f 3f 5b 20 20 3f
       0.6503983 0.7019078 0.74987185 0.6254937
000390 dc 4c f4 3e 35 03 18 3f 5f a9 0a 3f 4c aa fa 3e
       0.4771489 0.59379894 0.5416469 0.4895805
0003a0 04 74 26 3f 94 2d 0b bf 1b f8 1f be b2 d4 17 3f
       0.65020776 -0.5436642 -0.15621988 0.5930892
0003b0 49 2a 28 3f 69 d7 3b 3f 80 f8 18 3f ec 11 0c 3f
       0.6568952 0.73375565 0.5975418 0.54714847
0003c0 b5 6c 1b 3f 05 a2 2f 3f d6 2a 45 3f 57 2b 11 3f
       0.6071275 0.686066 0.7701849 0.56706756
0003d0 6c e2 36 3f 90 12 1d 3f e7 25 41 3f 62 22 1b 3f
       0.7143924 0.6135645 0.7544846 0.6059934
0003e0 90 23 26 3f 45 b7 1e 3f be f3 63 3f 05 8a e8 3e
       0.64898014 0.619984 0.89043796 0.454178
0003f0 98 93 20 3f 9d 50 1c 3f 86 fb 3a 3f ff c4 0c 3f
       0.6272521 0.61060506 0.73040044 0.5498809

fc1.weight f4 [256, 53]
000000 2d 15 34 bf 37 b3 55 be 01 9c 4d bd b5 04 fa be
       -0.7034481 -0.20869146 -0.050197605 -0.48831716
000010 e8 81 19 bf 25 19 16 bf b1 50 1b bf 88 cb 11 bf
       -0.59963846 -0.5863212 -0.6067 -0.5695119
000020 be 3d 08 bf d4 32 f2 be 40 6c f6 be d0 3d 23 be
       -0.5321921 -0.47304404 -0.48129463 -0.15941548
000030 15 2b f6 be d2 a6 89 be ec 57 09 3e be bb 40 be
       -0.48079744 -0.26885086 0.13412446 -0.18821618
000040 2b 51 95 be 9f 94 90 be 1e 19 f7 be 22 e3 27 bf
       -0.2916349 -0.2823839 -0.4826135 -0.6558095
000050 a8 53 f8 be a8 4f ff bd 4f ee a4 be 4f 4b 51 3d
       -0.48501325 -0.12466365 -0.32213065 0.05109721
000060 d4 75 8f 3d b7 3d cb be a5 ce 3c be 68 7d 25 bf
       0.07004896 -0.39695522 -0.18438204 -0.6464448
000070 41 fa 1c bf 29 16 a5 be 6b 66 fb be bd 80 86 bb
       -0.6131936 -0.3224347 -0.49101576 -0.0041047023
000080 cd 66 e7 be 81 12 08 be 0d e1 ce bd ed d9 27 3d
       -0.45195618 -0.13288309 -0.10101519 0.040979315
000090 43 29 38 be 6c 35 dd bd dc 08 2b be e5 e6 1c bf
       -0.1798449 -0.10801205 -0.16702598 -0.6128982
0000a0 9a bc 30 bf 9e 5e bf be ae 6c 11 bf 9e e4 2a bf
       -0.69037783 -0.37376875 -0.5680646 -0.6675509
0000b0 92 34 61 3d d0 4f 57 3e 13 3b 0f bf e4 1a f5 be
       0.054981776 0.2102654 -0.55949515 -0.47872078
0000c0 e3 1a 2e 3d a5 7e 19 be 32 b1 b6 be 25 22 23 be
       0.04250611 -0.14989717 -0.35682064 -0.15930994
0000d0 ae ca c7 be 29 ea eb bd 55 10 fd bc b7 15 0d 3e
       -0.3902182 -0.11519272 -0.030891577 0.13777815
0000e0 5d 03 b4 3e 74 a6 6b bd 2c a4 8d be 1c c2 43 3e
       0.35158816 -0.05753179 -0.27664316 0.19117016
0000f0 68 86 00 3e 08 5a a4 bd 6e b0 9b 3d a5 9c fb 3c
       0.12551272 -0.080249846 0.07602011 0.030714342
000100 c8 4c 2a 3e 33 0c 42 be 55 2e 58 3e cc 24 23 be
       0.16630852 -0.18949966 0.21111424 -0.15932006
000110 b7 45 b9 3d 5c 81 70 3e 68 7f a7 be 58 21 9b 3d
       0.090465 0.23486847 -0.3271439 0.07574719
000120 4a bd ed bd 6e 21 ea 3d 6e ed b5 3c 28 c6 d7 3d
       -0.1160837 0.114321575 0.022207942 0.10535842
000130 bb a4 4a 3e a4 78 44 bd 83 be 68 be cc 6e 21 3e
       0.19789402 -0.047966614 -0.22728924 0.15764922
000140 07 c0 98 bc 88 0e 3c 3e 93 a8 af 3d c7 64 4b 3e
       -0.018646253 0.18364918 0.08577075 0.19862662
000150 ce bf 1b 3d 5a 46 f2 3e b8 08 85 bd 00 85 c3 3d
       0.038024716 0.473193 -0.064958036 0.09546852
000160 79 36 93 be 97 30 27 bd 29 fb d8 3d 5c f2 9c bd
       -0.28752497 -0.040817823 0.1059478 -0.07663414
000170 a1 a0 72 be bd 20 54 3e 72 fe 11 3e 20 db 81 3e
       -0.23694088 0.20715614 0.1425722 0.25362492
000180 09 92 29 3e cc 3b 58 bc 46 ef b1 bd 37 e9 ae bd
       0.16559614 -0.01319785 -0.08688216 -0.08540576
000190 5d c3 9e 3e 27 c4 0a 3f b1 60 08 3d 1f 61 40 be
       0.31008425 0.54205555 0.033295337 -0.18787049
0001a0 69 39 85 3c d2 e0 b2 3e d2 ca d5 bd dd 9c c0 be
       0.016262727 0.3493715 -0.104390755 -0.37619677
0001b0 44 c6 82 be 4d 0a 01 bd 37 14 5a bd 5b 6d 09 3d
       -0.2554189 -0.031503964 -0.053241935 0.033551555
0001c0 f9 48 17 3d 6a 2d 02 bd 1c e7 f1 bd 60 ca da bc
       0.036934827 -0.03178159 -0.11811659 -0.026707828
0001d0 41 be 6c be 46 bf 74 be 29 c7 c3 be 28 24 0c be
       -0.23119451 -0.2390109 -0.38237885 -0.13685668
0001e0 5a 91 58 3e 69 8d 4f be 90 21 a7 bd 05 5a b6 3c
       0.21149197 -0.20268787 -0.081606984 0.022259722
0001f0 ee 85 bb be 5d cd 3a be 68 f7 98 be e1 0a 14 3e
       -0.36625618 -0.18242402 -0.29876256 0.14457275
000200 14 f7 0d be 0c e0 a2 be cd e1 b2 be 0a 23 96 be
       -0.13863784 -0.3181156 -0.34937897 -0.29323608
000210 e8 b5 f2 3d 6e fc ab bc bb bd 80 3d 3d c4 82 be
       0.11851102 -0.020994391 0.06286188 -0.25540343
000220 39 05 68 bd fe 26 be be fe f6 21 3e 5d 77 df be
       -0.056645606 -0.37139124 0.15816876 -0.43645754
000230 2e f0 cc be 5b 60 54 bc 8c a1 1c be 98 52 0c 3e
       -0.40026993 -0.012962426 -0.15296 0.13703382
000240 12 13 23 3d 36 0c 94 bb 58 c0 9b bd a0 ec 2d 3e
       0.03981311 -0.004518057 -0.07605046 0.16984797
000250 90 86 85 3e d5 3a 11 3e 58 d8 e9 bc ba cf 60 be
       0.26079226 0.14182599 -0.028545544 -0.21954241
000260 e4 1d c8 3d 94 5a ca be 0f f1 ff bd 5d f7 87 be
       0.09771326 -0.3952223 -0.1249715 -0.2655591
000270 ea 58 5a 3d 1e c2 5f be eb 4e 97 3d e4 fc 1f bf
       0.05330745 -0.21851394 0.07388099 -0.62495255
000280 ad 6e f6 be 43 b2 d4 be 62 42 52 be ce d1 2b be
       -0.48131314 -0.41542253 -0.20533136 -0.16779253
000290 4e 6b 0e bf f1 e3 23 bf 88 f9 0e bf 86 a0 75 be
       -0.55632484 -0.64019686 -0.55849504 -0.23987016
0002a0 79 0b 95 be 19 86 9d be f7 2d 01 be 9b f9 eb be
       -0.29110315 -0.3076637 -0.1261519 -0.4608887
0002b0 09 ac 07 bf ce 49 45 be 01 07 c6 be 8c 15 39 be
       -0.5299688 -0.19266436 -0.3867722 -0.18074626
0002c0 93 0b cc 3a b7 2d 3c be d6 3c 7f 3d 02 d6 f1 bc
       0.0015567414 -0.18376814 0.062313877 -0.029520992
0002d0 9b a5 e8 be 0a c0 8c be e0 34 25 be 26 cf 20 be
       -0.45438847 -0.27490264 -0.16133451 -0.15704021
0002e0 a9 aa 01 bf a4 f6 69 be 1d 38 2c bf 82 02 2a bf
       -0.5065103 -0.22847992 -0.6727312 -0.66410077
0002f0 6d 81 47 be c9 f3 2d bf 72 3b 27 bd 7b a0 80 be
       -0.19482966 -0.6795011 -0.040828176 -0.25122437
000300 20 85 1e bf c8 8c cb be 61 de 30 be 8b ce 0e bf
       -0.6192188 -0.39755845 -0.17272331 -0.5578391
000310 27 d5 00 bf 73 46 05 be 4a 3e 72 be f3 87 fb be
       -0.50325245 -0.13015155 -0.23656574 -0.4912716
000320 bc cb 0f be 09 a5 75 be c9 a9 1e bf 6e 6a 5f be
       -0.14042562 -0.23988737 -0.6197782 -0.21817943
000330 5f 9d ad 3d 51 15 37 bf 4c 3e 1a bf 50 f8 1e bf
       0.08477282 -0.715169 -0.6025131 -0.62097645
000340 e4 31 8c bd 2a 12 12 bf 2f 89 d6 be f2 cb 07 bf
       -0.068454534 -0.57058966 -0.41901538 -0.5304557
000350 8c 55 e2 be f0 f1 84 bd a4 ca ac be 75 24 84 3c
       -0.44205892 -0.064914584 -0.33748353 0.016130665
000360 b1 a9 05 bf b0 34 05 bf 40 ac de be 51 d9 e6 be
       -0.52212054 -0.5203352 -0.4349079 -0.45087674
000370 20 fa 10 3e 4b 71 1e bf 3d 24 b2 be 60 6f f3 be
       0.14157915 -0.6189162 -0.34793273 -0.4754591
000380 d1 31 ad be 9b 22 03 bf 4f 38 17 bf 61 d1 15 be
       -0.3382707 -0.5122468 -0.59070295 -0.14630653
000390 5b 70 10 bf be 26 4f be 04 68 fc be 6a a1 fd be
       -0.5642144 -0.20229623 -0.49298108 -0.49537212
0003a0 08 0b c3 be 60 57 06 bf 63 ec 85 be 27 42 1a bd
       -0.38094354 -0.52477074 -0.2615691 -0.037660744
0003b0 2e 55 bf be 41 52 5f be 1f 14 59 3e b7 da 29 be
       -0.37369674 -0.21808721 0.21199082 -0.1658734
0003c0 c6 a5 80 be f0 f6 09 be 6a 98 ea be ac e9 fe be
       -0.25126475 -0.13473105 -0.45819408 -0.49787652
0003d0 56 d7 07 bf 68 50 ed be f6 e5 d4 be 50 73 00 bd
       -0.5306295 -0.46350408 -0.41581696 -0.03135997
0003e0 c3 17 0f bf 26 cc fe 3d b6 68 fa be dc 58 a2 be
       -0.5589563 0.12441282 -0.48908013 -0.3170842
0003f0 e2 c0 a3 be 22 a3 f1 be 2d 3f 43 3e b5 38 47 bf
       -0.31983095 -0.47194773 0.19067068 -0.77820903

fc1.bias f4 [256]
000000 ad 79 c0 3f 6e 9b 26 41 a2 a2 e7 bd cf d1 f2 bd
       1.5037133 10.412947 -0.113103166 -0.11856424
000010 09 12 a5 be 09 8c 0c 40 16 f3 03 be f1 16 ad bd
       -0.32240322 2.196047 -0.12885699 -0.08451641
000020 5e 41 7d bd f0 ae 7c bd d0 a3 8a 40 cb 03 3d 40
       -0.061829917 -0.06169027 4.3324966 2.9533565
000030 89 0b 1f 3f c4 66 84 3f 1b 36 07 40 04 35 be 40
       0.62126976 1.0343862 2.1126773 5.9439716
000040 09 56 18 be cc 73 03 41 44 1e d7 3f 69 f4 34 be
       -0.1487657 8.215771 1.6806111 -0.1767136
000050 90 7d 0f 40 97 e2 8d bd f5 b5 23 41 40 4b d4 bd
       2.2420387 -0.06927984 10.231923 -0.10365915
000060 ad 87 e4 40 d0 88 52 3f f2 7d 93 be f1 79 e8 be
       7.141562 0.8224001 -0.28807026 -0.45405534
000070 28 ee 27 41 1c fd 13 bd 15 5d c7 bd bd 79 0f 40
       10.495644 -0.036130056 -0.09734551 2.2418053
000080 2f 58 29 41 d0 c9 07 41 1e ec bb be 98 b3 9b 40
       10.584029 8.486771 -0.3670358 4.865673
000090 8c 75 23 41 78 7b 66 40 46 fb 07 41 3d b0 e8 40
       10.216198 3.601286 8.498846 7.2715135
0000a0 fb 3a af 3f f6 8c 0c bd 29 a6 c7 bd ef 23 b0 be
       1.3689874 -0.03431412 -0.097484894 -0.34402415
0000b0 83 ab bb be e2 82 ab 3f 17 05 11 3f 9b 77 e1 3f
       -0.3665429 1.3399317 0.5664839 1.7614626
0000c0 a3 6b 03 40 94 0f 02 41 46 8a f0 3f 33 a2 04 41
       2.0534446 8.128803 1.8792198 8.289599
0000d0 a6 19 29 41 93 6f f3 3f 88 a4 5f be e9 10 37 be
       10.568762 1.9018425 -0.21840107 -0.17877544
0000e0 dd 63 1c 40 10 c6 08 be ba e9 f4 3f 9a 8d db bd
       2.4435952 -0.13356805 1.9133828 -0.10720368
0000f0 d9 4d b2 be cb 7a c9 bd 25 82 d3 3f db 13 1a 40
       -0.34825018 -0.09837874 1.6524092 2.407462
000100 e2 1a e9 3f 01 6e 9d 40 14 ef 6d 40 37 cc e8 40
       1.8211329 4.919678 3.7177172 7.2749286
000110 2c ad 3f be 79 61 9e 3f 5b dd 82 3f cb 0e a8 40
       -0.18718404 1.2373496 1.0223802 5.251806
000120 d9 0b e4 40 6c 38 4b 40 6d 81 10 40 59 ce c6 3f
       7.1264462 3.1753187 2.2578995 1.5531722
000130 27 d2 60 3f ff 56 9e bd 21 45 45 40 a1 83 b7 40
       0.8782067 -0.07731437 3.0823443 5.734818
000140 28 e6 07 41 42 9d 19 40 5e df 9f 3f d5 9b cf bd
       8.4936905 2.4002233 1.2490041 -0.101371445
000150 5a 3b 57 40 2e 11 bd bd ee 6b f5 40 58 cf 3b 40
       3.3629975 -0.092317924 7.669425 2.9345303
000160 ab 12 ca 40 9f 48 d3 bd de b8 01 40 7f 64 f9 40
       6.314779 -0.10316586 2.0269084 7.7935176
000170 8a c7 21 40 31 cf df 40 91 44 e6 40 65 85 a8 40
       2.527804 6.994042 7.19587 5.2662835
000180 db 62 9e be af c5 91 be 1c 65 37 40 f5 e1 25 41
       -0.30934796 -0.28471133 2.8655462 10.367665
000190 5c c3 18 40 70 89 90 40 61 2f d0 bd 08 21 b1 bd
       2.3869238 4.516777 -0.10165287 -0.08648878
0001a0 55 2e e8 3f 3e d5 40 40 a8 09 a7 3f 70 41 fd 3f
       1.813914 3.0130153 1.3049822 1.9785595
0001b0 14 00 f9 3f 36 ad c4 40 90 dd 2b 41 09 c6 a7 be
       1.9453149 6.146144 10.741592 -0.32768276
0001c0 72 b2 a6 bc 79 24 46 40 ff 26 97 bd c7 ce 9e 3f
       -0.020348761 3.095976 -0.07380485 1.2406853
0001d0 c2 64 8f 40 4e 4a cf 40 65 42 53 3f 0e 57 08 40
       4.4810495 6.4778204 0.82523185 2.1303134
0001e0 d7 e7 1d 40 71 53 b1 bd b3 7f b6 bd 6b 1d be bd
       2.4672754 -0.08658493 -0.089110754 -0.09282955
0001f0 e8 c6 2e 40 48 92 80 40 76 f7 58 40 95 35 2f 41
       2.7308903 4.0178566 3.3901038 10.950582
000200 84 44 db 3f 51 94 9f 40 4c b5 07 40 03 5c 4c 40
       1.7130284 4.986855 2.1204405 3.193116
000210 2d 03 dd 3f 5e c6 0b 40 33 0e 74 be 56 04 e8 3f
       1.7266594 2.1839824 -0.23833542 1.8126323
000220 b0 e0 2f bc 0f d8 df bd 74 5e 84 be ed 22 2d 40
       -0.010734722 -0.10929882 -0.25853312 2.7052567
000230 0d a2 d8 3f d0 0f e8 bd 38 2e ae bd 60 9e bc 3f
       1.6924454 -0.11331141 -0.08504909 1.4735832
000240 0b e8 10 40 94 c9 43 be 23 74 bf 40 d9 74 4d 40
       2.2641628 -0.19119865 5.982927 3.2102568
000250 0e e7 76 3f ae 75 5c 40 47 10 07 40 e3 c2 d9 40
       0.9644631 3.4446826 2.1103685 6.80504
000260 56 11 fe 40 ca 77 e4 bd 5e e1 49 be cc 16 ae 3f
       7.939616 -0.111556605 -0.19714877 1.3600707
000270 1e 5f 3b 40 0d 2f 08 40 0e 0e 5b bd 07 0f ff bb
       2.9276805 2.1278718 -0.0534802 -0.007783774
000280 81 6c 97 40 a0 0d 9a be 0f c2 c8 40 e3 05 b7 be
       4.731995 -0.3008852 6.273689 -0.3574668
000290 8b 53 0c 40 f2 f9 e5 3f 60 6b e2 40 ff 30 b7 bd
       2.192599 1.7966902 7.0756073 -0.08944892
0002a0 f8 e3 bd be 50 45 1f bd d7 a2 ef 40 cd 05 70 40
       -0.3708799 -0.03888446 7.488628 3.750354
0002b0 36 73 31 40 22 3a 2b 41 fa 2b e3 3f 99 8f 26 bb
       2.772657 10.701693 1.7747796 -0.002541518
0002c0 8b d8 c6 bd 38 89 87 3f 66 5f 25 41 c2 ef f4 bd
       -0.09709271 1.0588751 10.335791 -0.11959793
0002d0 72 e9 27 41 9f e5 d6 3f d5 df a8 be 9e 4b 36 40
       10.4944935 1.6788825 -0.3298327 2.8483653
0002e0 71 19 cd 3f 42 05 d0 bd 26 d2 27 40 56 4f e7 3f
       1.6023389 -0.10157253 2.6222014 1.8071086
0002f0 2e 95 cb 40 fe ba b1 3f 4e 04 18 3f 3e 4b c1 bc
       6.3619604 1.388519 0.5938157 -0.023595449
000300 bd 9a e9 3f 14 32 fe 3f 38 b0 e7 3f 20 b2 3b 40
       1.8250347 1.9859033 1.8100653 2.932747
000310 7d 23 26 40 ff ac 44 40 38 be ee 40 c8 6d 18 40
       2.595916 3.0730588 7.46072 2.3817005
000320 05 65 2a 41 7e 7e d0 be 09 dc 00 bd 4e 3d 40 3f
       10.649663 -0.40721506 -0.031459842 0.75093544
000330 e7 ac be 40 fb 07 e2 40 61 4e ac be 7c 66 a9 3f
       5.9586062 7.063474 -0.33653548 1.3234401
000340 47 f3 96 3f 8e e3 0b 40 d5 a6 c1 be a7 b0 0d 41
       1.1792992 2.1857638 -0.37822595 8.855628
000350 1b 6b 76 bd 14 c7 bd 3f fc c8 97 3f f0 cd f8 3f
       -0.060160737 1.4826379 1.185821 1.9437847
000360 b0 7c 00 40 45 31 0a 41 30 ff 3a 40 72 00 21 40
       2.0076103 8.637029 2.9218254 2.5156522
000370 59 5f a5 40 08 4d 5f 3f b9 2b 54 40 cf bd 7e 3f
       5.167889 0.87226915 3.3151686 0.99508375
000380 fb f3 40 be 95 4e ee 3f 93 b7 a8 bc 77 18 88 be
       -0.18843071 1.8617731 -0.020595348 -0.26581165
000390 dc 3f ff 40 ba 29 b9 40 be f5 df 3f d3 29 00 40
       7.9765453 5.7863436 1.749687 2.0025527
0003a0 97 8b a8 3f 49 be 96 bd 7e 19 3e 40 75 c3 2c 40
       1.31676 -0.07360513 2.970306 2.6994298
0003b0 af 25 f2 40 b3 ca 04 be 2f 04 59 be 22 2d 55 40
       7.5671 -0.12967949 -0.21193002 3.3308797
0003c0 a3 7b 28 3f 06 50 f4 bd e2 05 7c bd a2 da 51 3f
       0.65813655 -0.11929326 -0.061529048 0.8197423
0003d0 69 d5 9e 40 d4 41 57 40 db 4c 32 41 1a 06 04 41
       4.963551 3.3633928 11.143764 8.25149
0003e0 aa 37 c5 be 4f b3 bc be 68 13 c7 bd f0 be e9 bd
       -0.3851903 -0.36855552 -0.09720498 -0.114133716
0003f0 7a 34 05 3e 03 cf 9c be eb e0 6d be 26 a8 ea bd
       0.130083 -0.30626687 -0.2323033 -0.11457853

fc2.weight f4 [14, 256]
000000 b4 64 30 3e 9f 67 b6 b9 7a ea f0 3d 66 af a5 be
       0.17225915 -0.0003479095 0.11763473 -0.3236038
000010 d7 ba 9a be d3 e1 99 3c 06 3d 5e 3e b8 70 53 be
       -0.30220672 0.01878444 0.21702966 -0.20648468
000020 32 96 14 be fb dd 32 3e 57 12 5d be 63 f8 6b ba
       -0.1451042 0.17467491 -0.21589027 -0.0009001551
000030 2e 47 cc 3b 65 0c 6f 3d 43 bb 03 3d 61 73 1e be
       0.006234071 0.05836143 0.03216101 -0.15473701
000040 ce 1e 43 bd 0d 20 b7 3c f7 c8 1d be 5d 20 d4 3e
       -0.0476368 0.02235415 -0.15408693 0.4143094
000050 19 da 41 bb bc 00 a4 3d 90 99 d4 38 b5 23 56 be
       -0.002957946 0.080079526 0.00010137551 -0.20912059
000060 cb 4e b0 3c 96 17 e0 bc 86 08 bd 3e 98 78 a4 be
       0.021521946 -0.027354997 0.36920565 -0.32123256
000070 46 5e de b8 36 c7 ad 3d 27 43 20 3e 4e 62 2a bc
       -0.00010603345 0.08485262 0.15650617 -0.010399414
000080 e5 58 ac b8 3a 7f f6 3b 73 c9 a3 3b 72 3f 8d 3c
       -8.218157e-05 0.007522491 0.00499838 0.017242167
000090 d7 39 d6 b9 a6 97 ec 3c fd 1a 6f bb b7 ca 27 3d
       -0.00040860355 0.028880905 -0.0036484592 0.04096481
0000a0 43 d8 ff 3c 4f ff ab bd b6 08 02 3f ba be 84 3d
       0.031231051 -0.083983056 0.5079454 0.06481691
0000b0 94 ce 94 3b 9c ac a5 3d 33 21 85 be 9c 7c 22 bc
       0.0045412276 0.08089563 -0.26001891 -0.0099174045
0000c0 fb 41 ce bb 66 bd 3b 3c a7 b2 91 bc 51 9c 40 3c
       -0.0062944866 0.01145873 -0.017785383 0.011756019
0000d0 20 d2 74 39 67 f8 eb 3b d3 c0 bb be b2 83 c1 bd
       0.00023347931 0.0072012427 -0.3667055 -0.09448947
0000e0 44 78 25 3e 5f 16 ab 3d bd 6e 8b bc 56 44 ad bd
       0.16159159 0.08353876 -0.017020578 -0.084603
0000f0 4b 72 c1 3c 8e d4 c2 be 12 7f 0d 3e 42 31 d7 3c
       0.02361407 -0.3805279 0.13818005 0.026268605
000100 5e 29 4b bc 94 be b2 3c 6e 8f 60 bd 22 57 72 3c
       -0.012399999 0.02181939 -0.054824285 0.014791282
000110 5d 54 54 3e 3a ea 99 3d 81 cc 71 bd 42 33 16 be
       0.20735307 0.07515378 -0.05903292 -0.14667991
000120 ce 67 ba 3c 70 3a 98 3c 53 a4 b9 bd 48 a1 00 3d
       0.022754576 0.018582553 -0.090645455 0.03140381
000130 f5 df 0a 3e 75 24 6d bd 70 71 59 bc 36 a1 46 3c
       0.13561995 -0.057896096 -0.0132716745 0.012123397
000140 a3 ff da 39 c8 94 3d 3d d6 b4 f1 3d 9e 23 10 be
       0.00041770664 0.046284467 0.1180207 -0.14076087
000150 63 99 29 bd 81 04 82 bd 0d ef b0 bd c1 02 0d 3c
       -0.041406047 -0.06348515 -0.08639345 0.008606614
000160 5d 39 ca 3c 64 2b 43 be c9 8f c0 3c f6 63 91 3c
       0.024685556 -0.19059521 0.023506062 0.01774786
000170 2a 89 ac 3b 65 0f 13 3b 63 06 bb bc 6e 72 8e 3c
       0.0052653747 0.0022439596 -0.022830194 0.017388549
000180 0e 02 a1 3e 13 e6 c1 3e ef f5 0a 3d 90 6d 73 b9
       0.3144688 0.37870845 0.033925947 -0.00023215101
000190 c1 60 a1 3e f9 e7 9a bc 81 ff 88 3e 9b e9 2c be
       0.3151913 -0.018909441 0.26757434 -0.16885988
0001a0 02 6a fd 3c b9 f0 38 bd a2 5f 89 3b b1 04 c9 3b
       0.030934338 -0.045151446 0.0041923085 0.0061345925
0001b0 b9 c9 8d 3b 76 88 01 3d 1e 7d b8 37 60 e9 6b bd
       0.0043270257 0.03162428 2.1992772e-05 -0.05759561
0001c0 f4 dd 8e bd 29 92 19 3c 97 db 09 3e 4d 2f 26 3d
       -0.06975928 0.009373226 0.13462673 0.040572453
0001d0 76 e8 c0 3c 62 f5 ed 3b e3 c4 9d 3c 7e 6a 04 3c
       0.023548346 0.007261918 0.019258922 0.00808203
0001e0 e0 4c c3 3d ff 60 d4 bd 3f ca 8d 3d 75 68 bf be
       0.09536147 -0.10370063 0.06923341 -0.37384382
0001f0 de af d6 bc fd fe 94 3c 01 63 41 3d 96 1d 0f 39
       -0.026206907 0.018187994 0.047213558 0.00013648564
000200 33 bb 0a bc b3 23 b9 3d 71 32 d3 3b fa 46 55 3c
       -0.008467483 0.09040012 0.006445222 0.01301741
000210 4f 5d db bb b6 73 76 3d 6f 54 4e 3e 24 6c 95 bd
       -0.006694473 0.060168944 0.20149396 -0.07296017
000220 4a d6 a9 3e 57 99 2d be 7a 0b 3b be 62 da 0c bc
       0.33171302 -0.16953026 -0.18266097 -0.008596988
000230 c0 f4 14 3c 00 ef 5f bd 7c 83 80 be 1d 61 53 bc
       0.009091556 -0.054671288 -0.25100315 -0.012901572
000240 62 d0 17 3c 9a de 2d bc 84 f6 6a 3c b5 49 a7 3b
       0.009265991 -0.010612154 0.0143410005 0.005105222
000250 e3 43 27 3d 79 55 11 3d 5e 3e cc 3c 03 6f 90 3c
       0.040836226 0.035481904 0.024932083 0.01763106
000260 d0 9d 3e 3c 9e c2 80 3e 57 8d 43 3e 5c 97 e8 3d
       0.011634305 0.2514848 0.19096886 0.113569945
000270 54 f0 cf 3c 85 50 cd bc 41 ad 59 3e 17 e4 87 3d
       0.025383152 -0.025062809 0.21257497 0.066353016
000280 1e 4d 09 3c e6 8d 40 be 67 4f 49 bc b3 00 a5 3e
       0.008380203 -0.1880413 -0.012286997 0.32227096
000290 61 4e af bc cd 8b 15 3c 31 ad d9 bc a5 5c 4b be
       -0.021399679 0.009127569 -0.026571842 -0.1985956
0002a0 75 0e b2 bd e6 94 7d be 98 aa f2 3b a3 81 7d 3c
       -0.08694164 -0.24763831 0.0074055903 0.015472802
0002b0 94 87 70 3d 2d 29 07 39 da 35 d5 3c 9a a1 f5 3c
       0.058723047 0.00012889942 0.026026655 0.029984284
0002c0 50 8f 25 3e 9c e1 0c 3c 84 81 e1 38 e5 1f d0 bd
       0.1616795 0.008598711 0.0001075296 -0.101623334
0002d0 8d 75 d7 39 83 37 03 bd 21 e3 fa bb 0d c1 32 3c
       0.00041095578 -0.032035362 -0.0076564704 0.010910285
0002e0 79 30 0d 3d 10 b4 13 3e af 7b 69 bb 26 77 19 bc
       0.034470055 0.14424157 -0.00356267 -0.009366786
0002f0 49 33 08 3c af 6b 1a 3c ba 60 55 bd e9 a6 6a be
       0.008313009 0.009425088 -0.0520942 -0.22915234
000300 31 0e 2b 3c 64 bb e1 bb c7 3d 0c bb 1b e4 b2 bd
       0.010440395 -0.006888794 -0.0021399127 -0.08734914
000310 ff ad ad bc 35 f0 db 3c 91 68 26 3c 31 ec 81 3c
       -0.021201132 0.026847938 0.0101567665 0.015859695
000320 4e c4 7e b9 6b 69 87 bd 8c fd ec 3d 5c 00 c8 bc
       -0.00024296457 -0.06611904 0.11571798 -0.024414234
000330 6e 17 91 3c 0d c1 51 3c 15 bb 40 3e 70 75 f4 3c
       0.017711367 0.012802375 0.18821366 0.029841155
000340 28 70 ff bc 70 ba 22 bd b8 5e 9d 3e c6 0d ac 39
       -0.03118141 -0.039728582 0.30736327 0.00032816658
000350 db 30 72 be 80 b9 c8 3d 4f 15 56 3c dd 7f e7 3b
       -0.2365145 0.09801006 0.013066604 0.007064803
000360 99 fa 38 bd 4b e7 2a 3c c5 f3 be 3c ce ab 1a bc
       -0.045160864 0.010431121 0.023309598 -0.0094403755
000370 7b 1f 08 be 33 7c c7 3d 08 ea af 3d 5c 50 ce 3c
       -0.13293259 0.09740486 0.0858956 0.025184803
000380 00 5d 8f 3e 21 0d 7c 3b fd 41 68 bb f4 1a bb 3d
       0.2800064 0.0038459974 -0.0035439723 0.09136
000390 0c 1e 9d bd a4 49 2d bb a9 bc 2a 3c 91 2a 41 3c
       -0.076717466 -0.0026441598 0.010420957 0.011789934
0003a0 6a e6 f9 bb 72 64 98 be 90 bb 20 3c b5 27 cb 3b
       -0.0076263444 -0.29764134 0.009810343 0.006199802
0003b0 82 4b 35 3c 5b 9f ae bd 87 da 05 be 9b 9c 00 bb
       0.011065366 -0.085264884 -0.13071643 -0.0019624594
0003c0 4b fb 14 3e 0d 40 e7 3d 04 5d 45 3d d6 b2 a8 3d
       0.14548986 0.112915136 0.04818441 0.08237235
0003d0 dc 17 04 3d 9a 1d 9b bc ba ca be 37 32 f5 a3 3b
       0.032249317 -0.018935014 2.2744167e-05 0.005003595
0003e0 77 d7 0c bd b0 f3 8c be 9b 0b 7b 3d 2a a7 f2 bd
       -0.03438517 -0.2752967 0.061290365 -0.1184829
0003f0 39 31 60 3d 56 3c 45 be 6c 48 a6 bd 30 6d 15 be
       0.054734442 -0.19261298 -0.08119282 -0.14592433

fc2.bias f4 [14]
000000 38 97 b4 3e 90 47 10 41 7c 85 44 40 9b 51 47 40
       0.3527162 9.017471 3.0706472 3.1143558
000010 37 3c 94 40 f6 33 da 3f 1e f6 0b 3f 8d 83 a3 3f
       4.6323504 1.7047107 0.5467242 1.2774521
000020 54 eb fa 3e 00 00 00 00 60 d6 b3 41 1b 90 40 3f
       0.49007666 0.0 22.479675 0.7521989
000030 72 ad b0 3f e4 68 e1 3e
       1.3802931 0.44025338
