Response14/state_dicts/model_state_dict_250e.pth (torch, 216603 bytes, 8 tensors)

conv1.weight f4 [32, 128, 3]
00000000: 8cdb bd3d feba 173d 5296 cebb 3e5a ed3c
00000010: 254c 533d f9ab 023d 743a ac3d 22f0 053d
00000020: 2060 adbc e974 343e c9f8 113e 66b3 bd3d
00000030: 88f2 093c 54ca 643d e2a7 a13c fc2e 303d
00000040: 4c93 17bc 8aae 093d c80c 60bd a72a 26bd
00000050: adc4 b5bd 28a6 ee3d c52e 1e3e 3482 7c3d
00000060: bc56 623d 0e0b ab3d 14f6 233d ed2b ce3d
00000070: 2e1e ea3d 96b4 003e bc4c 02bd 8bd2 65bd
00000080: 99ac ffbd 3a62 95bc b512 bdbc 86df ecbd
00000090: 66a3 1c3e 14d4 f93d 94ab ca3d 4142 243d
000000a0: b03b 93bc a141 a23c 4a0b 133d 210c 123d
000000b0: 0518 163c 7245 bd3d 45a4 313d a033 6b3d
000000c0: d9c9 2b3d b4cd c13a f721 1a3d d369 e43d
000000d0: f69e 0e3e 83ec d23d dc76 e7bc 14c5 a2bd
000000e0: 2d1f adbd eb40 0a3e 080c 243e 7ebf b03d
000000f0: 5378 053e 827c 0c3e 3553 d53d cb33 203e
00000100: d563 ef3d e242 d43d f17b 123e 4984 463d
00000110: 7ed7 8d3d 407f 633d 42ff 083e 843d e13d
00000120: 1a37 d73c ecdd 8c3d f859 e1bc 30f2 153d
00000130: e152 8cbb 2d77 b03c 334d 193d 57a6 1cbd
00000140: 0846 b2bc 0521 3a3e fe0b 283e bc57 443e
00000150: b445 573d 9b03 0b3d 46e5 8c3d cf82 fd3d
00000160: 1a96 db3d a4ef 293e 0469 a73d eed9 de3d
00000170: 9e31 da3c dac4 2abd bb22 b93c f2f1 953a
00000180: f127 443d 79b8 0b3d 0718 35bd 24fd d43d
00000190: 5a3f c53d 3c78 a83d 0986 033e 67b3 a73d
000001a0: 6545 013e d84b 813d 3c21 493d c5fe 3c3d
000001b0: 1bde fa3d 3921 043e 0f42 243d cade 1b3e
000001c0: de40 223e 31e8 293e 5852 b03d a595 9b3d
000001d0: 3245 c1bc f1b8 533d a265 db3c 0e2c 7a3c
000001e0: f880 f83d ff63 d93d ddf0 823d 18ca 013e
000001f0: 5978 3a3e f5f3 ce3d 5601 a6bd eb3c c7bd
00000200: 18c9 f2bd 301f a03d 7e60 543d d27d 1c3c
00000210: e6a7 033e fe72 333d cb4a 723c 7e79 92bc
00000220: 0a9e 63bd 808d 87bd 8a1c 873d c451 f83c
00000230: 2280 543d 62cc 2d3e b065 3c3e 480c 153e
00000240: 8529 bfbd 38fd e0bd 8791 efbd b0ae ff3c
00000250: 681e b03c 427e 54bb 175b 5d3e 0cce 413e
00000260: 5e11 0e3e 5b6e 123e ad53 fd3d 43e1 aa3d
00000270: f7dc d33d 7ccc bd3d 6f79 993d 67e4 493c
00000280: b114 993d 2aed 153d 9ff1 293e fa77 3e3e
00000290: e8e8 103e c829 3dbd 95a2 ccbd 5b56 9fbd
000002a0: 7f97 973d 7b54 cd3d 8303 1f3e 7ca8 043e
000002b0: 7e89 953d d8e1 3b3d 8fef 753d 10c6 9a39
000002c0: c03e 4d3d e3d8 c83d c852 6f3d f6af c03c
000002d0: acef e33c cc91 7a3b 7885 9abc 695d 103e
000002e0: 6644 be3d ac15 943c 36d5 42bd 6f84 abbc
000002f0: 2961 45bd 3e2f f23a 9717 6abc 7ac7 a63b
00000300: cbaf 083d ceba 763d 21f4 ddbc 5cb7 f03c
00000310: 2456 823d 1b57 093d 081f ac3d d07e ae3d
00000320: 5f37 893c 3492 403e 80b8 793e de52 083e
00000330: d913 123e 08e9 ff3c f28e 4a3d 5fcb 4e3d
00000340: 3346 853d 4b24 843c ff25 253e d766 3a3e
00000350: 0a40 013e 7ef2 7c3d 0eff 043d 0f14 003d
00000360: 9572 523e bbe1 5a3e d968 cf3d d47f cf3d
00000370: 7558 e33d 16d9 0b3e a991 00bc 8b67 343d
00000380: 3928 533c 4471 5c3d 99e2 cf3c f9ff 533d
00000390: bd98 fc3b 9415 bd3c f9e9 45bc 62f4 d43c
000003a0: 4275 da3d b6f1 eaba 20aa 123e 126d 3a3e
000003b0: a6b4 bf3d 53d7 a03d 7d98 b4bc f00a 223c
000003c0: 387b ef3d 2631 d93d c711 1f3e 3413 98bd
000003d0: 6318 91bd 6d33 cebd bd26 cbbd 2b2e 0dbe
000003e0: 1247 2dbe 93d8 db3b e12c 01bb d9a8 35bd
000003f0: a424 843b 12aa 90bc 1a81 9fbd 277a d13d
0.09270391 0.037043564 -0.0063045407 0.028973695 0.05158629 0.031902287 0.084095865 0.03269971
-0.021164 0.17622723 0.1425506 0.09262733 0.00841964 0.055857018 0.019733373 0.043013558
-0.009251427 0.03361372 -0.05469969 -0.04056802 -0.088754036 0.116527855 0.15447529 0.06164761
0.055258498 0.08351718 0.0400296 0.10066972 0.114315376 0.12568888 -0.03181146 -0.056108993
-0.12484092 -0.018235315 -0.02308021 -0.11566071 0.15296707 0.12198654 0.09896007 0.040102247
-0.017972797 0.019806685 0.035899438 0.0356561 0.009161 0.09241761 0.04336955 0.05742228
0.041940544 0.0014786036 0.037630048 0.11152997 0.13927826 0.10299017 -0.028254919 -0.07947746
-0.08453212 0.13501327 0.16020215 0.08630274 0.13034181 0.13719371 0.10416261 0.15644757
0.11688963 0.103643194 0.14305092 0.048466 0.069258675 0.055541277 0.13378623 0.10998061
0.026271392 0.06878266 -0.02750872 0.03660792 -0.004282341 0.021541202 0.03742714 -0.03824457
-0.02176191 0.18176658 0.16410825 0.19174093 0.05255671 0.033938985 0.06879668 0.123784654
0.10721989 0.16595322 0.08174327 0.108814105 0.026634987 -0.04169164 0.022599569 0.0011439903
0.047889654 0.034111474 -0.044212367 0.10399845 0.09631224 0.08226058 0.12844099 0.08188515
0.12624128 0.06313294 0.04910396 0.046141405 0.122493945 0.12903298 0.04010206 0.15221706
0.15845057 0.1659248 0.08609456 0.07596902 -0.023592565 0.051690046 0.02678186 0.0152692925
0.12133974 0.10614776 0.06393597 0.12674749 0.18209971 0.10105125 -0.081057236 -0.09728416
-0.11854762 0.078184485 0.051849835 0.009551482 0.12857017 0.043810837 0.01478834 -0.017880198
-0.05557064 -0.06618786 0.0659724 0.030312426 0.05188001 0.16972497 0.18398166 0.14555466
-0.09334091 -0.10985798 -0.11697679 0.031211227 0.021498874 -0.0032423888 0.2161678 0.18926257
0.13873813 0.1429991 0.123694755 0.083437465 0.1034488 0.09267518 0.07493865 0.012322522
0.0747465 0.03660313 0.16596077 0.18600455 0.14151347 -0.046182424 -0.099919476 -0.07780143
0.074019425 0.10025879 0.15528683 0.12954897 0.07301615 0.04586968 0.060042914 0.00029520737
0.05010867 0.09806993 0.058428556 0.023521405 0.027824245 0.0038233874 -0.018862471 0.14098133
0.0929039 0.01807674 -0.047566615 -0.020937173 -0.048188362 0.0018477214 -0.014287851 0.0050896974
0.033370774 0.060236745 -0.027093949 0.029384308 0.06364086 0.033530336 0.08404356 0.08520281
0.016750036 0.18805772 0.24386787 0.13312861 0.14265384 0.031239048 0.04945273 0.05048692
0.0650753 0.016130587 0.16127776 0.18203293 0.12622085 0.061754696 0.0324698 0.03126913
0.20551522 0.21375172 0.1012742 0.10131803 0.11100856 0.1365703 -0.007847228 0.04404406
0.012888008 0.053818956 0.025376605 0.051757786 0.0077086375 0.023081578 -0.012079709 0.025995437
0.106668964 -0.0017924819 0.1432271 0.1820567 0.09360628 0.0785357 -0.022045368 0.009890303
0.11693424 0.106050774 0.15534125 -0.07425538 -0.070847295 -0.100684024 -0.09919498 -0.13787143
-0.16921642 0.0067091673 -0.0019710588 -0.04435048 0.004032688 -0.01765922 -0.07788296 0.10228377

conv1.bias f4 [32]
00000000: 0ddf e0be 95fe bfbf 427d 8cbf 617a 043f
00000010: 5a66 523e bb3c 7fbf dcbb 5bbf dc5d 89bf
00000020: d570 a1be badb 40bf 6cdb 84bf 4db3 ca3e
00000030: 13bc 2abf b96a 85bf 9dc7 39bf ccc0 51bf
00000040: 75fe 59bf 4e7f 0fbf 4d5f ddbe 4731 86be
00000050: aedf 57bf 7090 ec3e 1c7f 74bf 5e95 3dbe
00000060: 6ad9 62bf fedd 02bf dad3 0cbf 688e 023f
00000070: fa40 f93e 07d3 61bf eee8 8bbf 1ba1 033f
-0.43920174 -1.4999567 -1.0975726 0.51749235 0.20546857 -0.9970204 -0.85833526 -1.0731769
-0.31531397 -0.75335276 -1.0379462 0.3958992 -0.6669323 -1.0423194 -0.7257021 -0.8193481
-0.85153896 -0.56053627 -0.4323677 -0.2620947 -0.84325683 0.46203947 -0.95506454 -0.1851401
-0.88613 -0.51119983 -0.5501076 0.50998545 0.48682386 -0.8821263 -1.093046 0.514177

conv2.weight f4 [128, 32, 3]
00000000: 3a0b ae3d 9483 0b3e f51e b93d cefc 6fbd
00000010: c669 2ebe 4f97 dcbd 6aea 493e 4e74 333e
00000020: d6a4 0c3e a75d 673e 489f 353e 6211 823e
00000030: 1f0a a43e ff0c 9a3e 28ee aa3e c9d8 49bd
00000040: b67a 23bc b8a9 e8bc caeb 483c e36e bc3c
00000050: 0e61 5c3a 5e9b 04be 81d0 3bbe 1727 a9bd
00000060: f74b 93bc d97f 13bd f4aa 293d f874 213e
00000070: b4a6 0e3e 776a 6b3e 2248 d93d d6f4 c6ba
00000080: 5863 6c3d 8cb0 a63e 4fd8 9e3e a6b6 8d3e
00000090: 94ce 61bd 6bfe 3dbd b8f3 12be 07ba e03c
000000a0: e844 793c 8769 cfbd 1876 0e3e 56c5 453d
000000b0: 45f4 293e 2059 dfbc 6855 383e d4d6 3e3e
000000c0: 0edb 8c3d 7f1b a93c 1e48 873d 9e70 053d
000000d0: c468 013d c867 d43d 8bdd bb3d 8435 0ebd
000000e0: cc97 023e 6e1b b9bd 485f 8abd be08 5e3c
000000f0: aa9a 6a3e b110 cd3d 36e8 733e 3594 d03e
00000100: 95a8 d33e 5f05 423e f2c8 313e 5085 7c3e
00000110: d230 753e a42a 27bd 174b e63d 9b2d 09bc
00000120: 7359 c03d 0efc d13d d0ff 263e e97b 223c
00000130: 38a7 6dbc 9e8c 813d b986 37bb d238 d0bd
00000140: 5d4b a23d dac3 cb3e 1bb9 b63e 54d7 a23e
00000150: 2924 ab3e bf40 ab3e fc9a 5a3e a586 9e3d
00000160: 24e8 093e 4e89 093e 1c56 1b3f bf5e 223f
00000170: 6199 343f b85e bb3e 5b1e ad3e 5814 413e
00000180: 44c9 31be 88e8 9abd 7415 763d 57dc 4b3e
00000190: 13df 2a3e c346 ef3d 16e8 a13e 89e6 873e
000001a0: 4e87 5b3e a59d e03e 6651 b13e 3448 803e
000001b0: 729f 873e c261 8e3e 0717 1d3e 4cd3 c73d
000001c0: 89dd 683d 3146 213d 5349 1e3e 75f7 073e
000001d0: 5857 a5bc 9ae7 4a3e 7478 0a3e 8dc5 373e
000001e0: ce6e d5bd 04eb 1abd 1de7 b1bc 53c8 babd
000001f0: 0177 e6bd e2bc 81bc 5146 d8bb 0306 5bbd
00000200: 6c7c bb3d 4b69 8c3e 82dd ba3e 87e7 5d3e
00000210: 0750 bf3d 98ed f13d 4ac3 393e 90b9 21be
00000220: 90b8 b7bd 36ad adbc 3b40 1abd e001 9cbd
00000230: 27a4 eabd f0b8 aebd e374 90bd 2892 67bc
00000240: f859 b53e e1ed d43e abd8 ad3e ce94 8b3e
00000250: 61eb 053e 4da1 423e 76c8 b5be 9ee2 a8be
00000260: c111 87be e3f2 17be f888 d8bd 1a7e f3bd
00000270: f6c8 9dbd 68d0 47bd d660 e7bb f126 b43e
00000280: e1e4 993e 6298 7c3e d308 cbbd a3d0 94bd
00000290: 2d27 50be 7290 7ebe 09a2 66be 9085 0cbe
000002a0: 416a 3b3e f45d d93d 4ba0 663e f5e2 94be
000002b0: 0340 81be 9201 67be 9996 a5be c5dd 69be
000002c0: c2f8 f4bd 48d7 a83e b391 8e3e 3110 ac3e
000002d0: 7658 aa3e 6d58 c83e 5f9f 6a3e 2b61 b8bd
000002e0: cbd1 7cbc 2575 b2bd 194e 9e3e c200 a13e
000002f0: 6a95 d13e f41f a33e 3bd3 bd3e 2eb5 863e
00000300: 1966 c83d f3ae 113e e2d4 a03d 462e 473d
00000310: c42f 49bc d4a1 783d 0ff1 27be d974 8fbd
00000320: cc11 113d ed50 bf3e 57a3 b13e a74f 9f3e
00000330: 21af bd3d db1d 863e 3049 c63d ac91 3dbb
00000340: 9db1 9bbd 1b95 bc3d 9ae4 ef3d 0fe1 0c3d
00000350: 51fa 8a3c d20e ea3d 0546 033d 7487 123e
00000360: 141c ec3d 3037 cb3d 03ad 523e d6c5 293e
00000370: 52e3 bd3d 711d 9b3d 3632 eb3d c9f4 3a3e
00000380: 8da3 4d3e 40ba 903e dc5c fc3d 47f0 743e
00000390: 86aa be3b 98a5 c53d ff54 453d 32b8 573d
000003a0: 945e b93c 3af9 8a3c 4c22 56bd 1e19 863c
000003b0: bed2 393d b17a 8f3d 81fa 88bc f41f 80bc
000003c0: c0d7 8f3e 0a9f 4d3e 3c83 293e c0fa 8b3d
000003d0: 2a76 9a3c 13d3 e93d 88bd 3c3e 8b2c 273e
000003e0: 0c57 153e 0ac6 433d c54a 6b3e a37a 073e
000003f0: 1b91 5c3e 1bda 683e d78c fb3d 1234 943e
0.08498235 0.13624412 0.09039108 -0.058590703 -0.17032537 -0.10771047 0.19718328 0.17524835
0.13734755 0.2259432 0.17736542 0.25403887 0.32038972 0.3008804 0.33384824 -0.049279008
-0.009977987 -0.02840124 0.012263248 0.023002094 0.0008406796 -0.12949893 -0.18341257 -0.08259409
-0.017980559 -0.036010597 0.0414228 0.15767276 0.1393078 0.22989832 0.10609461 -0.0015179168
0.05771193 0.3255657 0.31024405 0.27678412 -0.05512865 -0.04638521 -0.14350784 0.027432455
0.015214182 -0.101275496 0.13912237 0.048283897 0.16597088 -0.027264178 0.1800133 0.18636638
0.06877719 0.020642994 0.06605552 0.032578103 0.031594053 0.10371357 0.09173115 -0.034719005
0.12753218 -0.09038435 -0.06756455 0.013551889 0.22910562 0.10012949 0.2381905 0.40738073
0.41339555 0.18947361 0.17361811 0.2466023 0.23944405 -0.04081215 0.11244791 -0.00837269
0.09392061 0.10253154 0.16308522 0.009917238 -0.0145052 0.06325649 -0.0028003885 -0.101670876
0.07924531 0.3979786 0.356881 0.31804907 0.33426026 0.33447835 0.21348184 0.07740525
0.13467461 0.13431284 0.6067827 0.6342582 0.7054654 0.36595702 0.33812222 0.18855417
-0.17361933 -0.07563883 0.060079053 0.19908272 0.16686659 0.116834186 0.3162238 0.26543072
0.21438333 0.43870273 0.34632415 0.25055087 0.26488835 0.27808958 0.15340815 0.097570986
0.056851897 0.03937358 0.15457658 0.13277991 -0.02018325 0.19814911 0.13522512 0.17946453
-0.10421525 -0.037821785 -0.021716649 -0.0912024 -0.11253167 -0.015837137 -0.0066001792 -0.05347253
0.09154591 0.27424082 0.36497122 0.21670352 0.09341436 0.118128955 0.18140903 -0.15793443
-0.089707494 -0.021200757 -0.03765891 -0.07617545 -0.11457091 -0.08531368 -0.07053544 -0.014133967
0.35420203 0.41587737 0.33954367 0.27261966 0.13078071 0.19006844 -0.35504502 -0.32985395
-0.26380733 -0.14838748 -0.10573 -0.11889286 -0.07704346 -0.048782736 -0.0070611043 0.3518596
0.30057433 0.24667504 -0.099137925 -0.07266357 -0.20327444 -0.24859789 -0.22522749 -0.13722825
0.18302251 0.10613623 0.22522084 -0.29079404 -0.2524415 -0.22559193 -0.3234146 -0.22838505
-0.11961509 0.32976747 0.27845535 0.33606103 0.33270615 0.39129964 0.22912358 -0.09002908
-0.015430878 -0.0871375 0.3091896 0.3144589 0.40934306 0.31860316 0.3707522 0.26310104
0.097850986 0.14226894 0.07853104 0.048628114 -0.012279455 0.060701206 -0.1640055 -0.07004709
0.035417363 0.3736643 0.3469493 0.31115457 0.09261919 0.26194653 0.09681928 -0.0028925939
-0.076022364 0.09208127 0.11713524 0.03439432 0.016965063 0.11428608 0.032049198 0.14309484
0.11528793 0.099226356 0.20573811 0.16579375 0.092718735 0.07573975 0.11484186 0.1825744
0.20081921 0.28267097 0.12322399 0.23919784 0.005818668 0.09650725 0.04817676 0.052665897
0.022628106 0.016964544 -0.0522788 0.016369399 0.045366995 0.070058234 -0.016721012 -0.015640236
0.28094292 0.200802 0.16553968 0.06834936 0.018855173 0.11417212 0.18431675 0.16325586
0.14583987 0.047796287 0.22977741 0.13230376 0.21539728 0.2273945 0.122827224 0.28945976

conv2.bias f4 [128]
00000000: d557 ac3e e319 ed3e dab0 d53e 02e9 ee3e
00000010: d3fe ac3e d78f a23e c048 cea4 ff16 10bd
00000020: 9dec 14bd 0a85 6c3e 4fd8 d83e 660a 153f
00000030: 2360 873e 9372 e03e 0c8f 0a3d 5a73 5bbe
00000040: 79d6 033f 0ba7 7daf 6d83 6bbe 627a 173f
00000050: 2bda e03e f3fa cd3e 1305 403e 8e6c d93e
00000060: 32fd bf3e 7978 d23e 1b22 fb9f 6f5b d03e
00000070: cb96 4cbe 0b30 953e 004a c33e af65 b63e
00000080: 4d67 c13e a4da 5ebc 11a1 cf3e 36a0 b2ab
00000090: 8cb8 71bc 6764 c93e cdfb c33e 6e08 2f3e
000000a0: d827 d13e 302b ae3e 63d9 f03e f992 ef3e
000000b0: 41f7 a73e 6363 1c3e e25d d23e 9d37 43bd
000000c0: 9d42 833e d529 c33e ae0f 23ae cb95 4fab
000000d0: a531 183d b884 4c3e fb5f 233f ff68 9d3e
000000e0: f32d 813e 616c c73e d32c 95ab 3292 9cac
000000f0: 3202 7fbe fe94 f43e c833 d23e 4909 733e
00000100: 308d c73e 3816 a43e 7f14 2e3f b3c2 b13e
00000110: e5ac e73e b17b ec3e 27a5 5bbb 8fcb 253f
00000120: d7d9 6abd e37a 0e3f 17d3 7f3e b728 d63e
00000130: 728f bc3e f0c2 6a3e 161a d93e 98da ed3e
00000140: 733a c83e e3d0 dc3e 1f5e e6bc 02f5 fa3e
00000150: 3733 153f 8f19 f83e 25f3 e73e 894e f23e
00000160: bfe8 bb3e d2b1 bb3e 9df7 e83e b347 a73e
00000170: 845f e33e 6c28 ab3e 5124 c0a4 95dd 1c3f
00000180: 671c 613e 9056 7b3e caf5 0b3f a4d7 cbba
00000190: 0ea7 fa3e fc4b de3e ff09 c53e 4e66 ed3e
000001a0: 1183 04be d4b5 0d3f 2a99 c73e 0ce3 a83e
000001b0: 5a26 a83e 6496 203f dfe0 013f edf5 e53e
000001c0: 3cc1 033f 00b5 ab3e 3034 d33e d27b cf3e
000001d0: 6285 9f3e 37d1 d33e 097d 8b3e 80c7 773e
000001e0: 00a6 9cbc e865 03bc f615 e73e 11bc a43e
000001f0: 12ab ab3e 8fdb d83e 2219 a3bb 8c23 5a3e
0.3366076 0.46308812 0.4173649 0.46662146 0.33788165 0.31750366 -8.94615e-17 -0.03517818
-0.036358465 0.23097625 0.4235253 0.5821899 0.26440534 0.43837413 0.033827826 -0.21430722
0.51499134 -2.3069562e-10 -0.22999354 0.59171116 0.4391645 0.40230522 0.18751936 0.42465633
0.3749786 0.41107538 -1.0635906e-19 0.40694758 -0.19979398 0.29138216 0.38142395 0.35624453
0.37774125 -0.013601933 0.4055257 -1.2692128e-12 -0.014753472 0.39334413 0.38278046 0.1709306
0.4085071 0.34017324 0.47040853 0.4679182 0.32805827 0.15272288 0.41087252 -0.04766046
0.2563676 0.38117853 -3.7075835e-11 -7.374905e-13 0.03715672 0.19972503 0.6381833 0.30744168
0.2523037 0.38949874 -1.0599528e-12 -4.4500176e-12 -0.24903181 0.47769922 0.4105513 0.23734011
0.38974905 0.32048202 0.68000025 0.34718856 0.45249096 0.4618812 -0.0033515187 0.6476373
-0.057336655 0.5565626 0.24982868 0.41827938 0.3682819 0.22925925 0.42402714 0.46455836
0.39107093 0.43128118 -0.028121052 0.4901505 0.5828127 0.48457 0.45302692 0.47325543
0.3670101 0.36659104 0.45501414 0.3267189 0.4440881 0.33429277 -8.332825e-17 0.6127561
0.21983491 0.2454474 0.5467192 -0.0015551937 0.48955578 0.43417346 0.3848419 0.46367115
-0.12940623 0.5535557 0.38984042 0.32985723 0.3284176 0.6272948 0.5073375 0.4491419
0.5146673 0.3353653 0.41250753 0.40524155 0.3115645 0.41370556 0.27243832 0.24197197
-0.019122124 -0.008019902 0.45133942 0.32174733 0.33528954 0.4235501 -0.0049773613 0.21302623

fc1.weight f4 [256, 97]
00000000: d12c 3b99 a156 3f9a 00c8 020c 5f67 14b5
00000010: 8813 a6b9 0e06 1538 f23f deb5 b660 9d1b
00000020: de27 9287 08e0 fa1d 5193 4cab 9391 a72e
00000030: ff22 ceb0 b8ad eab0 47fb a3b1 910a 782e
00000040: 878e 042c 92e5 8fa1 85ab 3a39 3e62 d1bb
00000050: 1b20 cdbc dc86 fdbc c234 09bd d41e 31bd
00000060: b54c 64bd a81d 65bd 4054 19bd 0ae4 07bd
00000070: 3cc1 0fbd c546 babc 950b 78bc 85fe 46bc
00000080: 0cc2 ebbb 92dc a0b0 f4b1 cb05 bc52 791a
00000090: 399e eaa7 c1bb 0aaf e327 c331 488d 4732
000000a0: 966a d3b3 9cbd a9b2 4854 4f32 6011 54b0
000000b0: 9f5d 332f aed5 e8b0 e2f3 c52f ef04 b1b0
000000c0: de34 1cb2 b556 2eb3 f83b ac33 aa2d 2334
000000d0: f9ae 3db5 29d1 e133 b5bc 7cbb 20a0 f1bd
000000e0: bfd9 553b e6d3 45bd 3f04 f9bc 48d1 44bd
000000f0: 08db b7bc 237e 18bd 3aeb 93bc 2ed7 eabc
00000100: 0358 b4bc 7719 3cbc e5b2 6cbc 09d8 77bc
00000110: 5c96 f2ba 4f4d a038 f56f 2ba8 6f64 0080
00000120: 332c 5508 710b 2e14 c8a1 929c 1cbd 2d24
00000130: 3abc 4b28 497a 4dad 41a5 7c2f 2cd6 a8b0
00000140: fbb4 af30 a8e3 54b0 9147 6b2a 4c5d daa4
00000150: 70cc 1494 ad73 1f00 6114 0080 ba01 0080
00000160: 3e22 e086 6599 3bb4 6952 a9b8 687a 66bb
00000170: cf37 7cbc 4365 cdbc 3590 37bd 9eba 88bb
00000180: 017e 01bc 2a00 0000 ab04 0080 b20b 0080
00000190: a80c 0000 9b0b 0000 b49c 0f80 c874 2803
000001a0: 5e37 0700 2459 0e80 ce5e 8882 db09 e105
000001b0: 5cf3 7b86 0a2a 0a06 fde6 a282 f1ff 0f80
000001c0: 8820 0080 4c0c 0000 e00a 0080 56e0 3c8f
000001d0: 2c05 3dae 2e5e 2138 a7e8 89ba daab 4fba
000001e0: 6787 143b 76a4 fb3a 68f9 84bb e64b 983a
000001f0: fa78 ddba 87ea 07ba 30b2 4437 bbf5 cbb6
00000200: 5c47 7632 8743 29ab b4a2 6288 2477 0200
00000210: cd05 5f02 d8bd 8e86 9ade 3b89 4c53 138b
00000220: d340 1a88 78c4 ab84 6431 4400 dcd9 0900
00000230: 99a6 7f80 1f6d a900 3dbf 1383 647b 3207
00000240: b709 b789 641e 750b 755a d78e 4119 8a0f
00000250: 74f3 960e f34a 8b03 8009 0080 2820 9a17
00000260: 28e5 84ae e4d9 bab8 ef4f 9cb8 8fac ad39
00000270: 0a5a 8b39 8ee9 28ba 559c 6eb9 f683 f0b8
00000280: 56e5 14b7 07cc 86b5 6127 7cb0 2432 6faf
00000290: 5b04 42aa f93f 98a1 c573 1694 8560 4981
000002a0: 0213 0000 b903 0080 7abf 0080 2f55 0000
000002b0: 9807 e881 e9dd 2e82 e2dd a685 0647 0683
000002c0: b529 e283 21e8 0280 1809 0080 4407 0080
000002d0: 9a02 0000 f603 0080 1f10 0080 0c03 0080
000002e0: 570f 0080 ce04 0000 d710 0080 840e 0000
000002f0: c2a0 0704 5309 c011 577d 20a1 4b35 90aa
00000300: 8999 b4af d6a2 a1b2 0ce5 b23d 91a2 f13d
00000310: f3e4 a4be 6131 32bd 23c6 033c 4351 ebba
00000320: 3cef 24bb aee5 b8be 416c 8fbe 5921 b23d
00000330: 4b5f 9abe 2007 15bd 2367 9cbe d815 97be
00000340: 7957 a53d 53d1 afbe 59ac 2c3d 8696 2e3c
00000350: 540f d4be 7c78 1e3d 6f5d 04bd e2ba 58bd
00000360: 3542 9fbb 1e3b febb 8ddd fd3d d96a 8ebe
00000370: 4019 d73c b7ba 34be 6c55 0e3e 7532 9c3d
00000380: 98ff 1c3e bedb 953d b046 cd3d 55ea e2be
00000390: 1e51 9ebe c901 97be 1159 683d a61f 80bd
000003a0: c707 83bd ee25 10be 2a36 c1bd 4f9b 73bd
000003b0: c504 bdbe cd3e 3abe f6a8 38be 522e 043d
000003c0: 0c82 babe 2fb5 653c f4ef e4bd 1afd 5ebe
000003d0: 8626 833d 11df 2fbe 3cc0 23be 5553 81be
000003e0: 6bd7 9bbd c201 b53d 2942 42bd 71b9 ccbc
000003f0: 36f8 833d 66fa babd 8509 97be 2ad9 773d
-9.676724e-24 -3.9567853e-23 1.0075021e-31 -5.528472e-07 -0.0003167654 3.5530007e-05 -1.65589e-06 2.603597e-22
-2.199107e-34 6.640609e-21 -7.26798e-13 7.62014e-11 -1.4998419e-09 -1.7075115e-09 -4.7724913e-09 5.6398056e-11
1.8837447e-12 -9.750824e-19 0.00017802238 -0.006389885 -0.025039723 -0.030948095 -0.03349758 -0.04324229
-0.055737216 -0.055936486 -0.037433863 -0.03317646 -0.035096392 -0.022738824 -0.01513948 -0.012145643
-0.007194763 -1.1704222e-09 1.9155398e-35 5.1558825e-23 -6.5119592e-15 -1.261773e-10 5.6797815e-09 1.1615448e-08
-9.844841e-08 -1.9760414e-08 1.2068149e-08 -7.714984e-10 1.6313216e-10 -1.6940953e-09 3.600738e-10 -1.2879847e-09
-9.092416e-09 -4.059139e-08 8.0202824e-08 1.519717e-07 -7.0662605e-07 1.0515425e-07 -0.0038564627 -0.117981195
0.0032631007 -0.048297785 -0.030397533 -0.04805115 -0.02244331 -0.03722967 -0.0180565 -0.028667059
-0.022014624 -0.011480681 -0.014446949 -0.01512719 -0.0018507945 7.6437944e-05 -9.516684e-15 -3.6029e-41
6.414931e-34 8.7870115e-27 -9.703289e-22 3.7673577e-17 1.1309579e-14 -1.1680054e-11 2.2977976e-10 -1.228448e-09
1.2784364e-09 -7.744867e-10 2.0897022e-13 -9.470048e-17 -7.512409e-27 2.888397e-39 -7.31e-42 -6.2e-43
-8.430975e-35 -1.7471537e-07 -8.073898e-05 -0.0035168175 -0.015394165 -0.0250727 -0.04481526 -0.004172637
-0.007903577 5.9e-44 -1.675e-42 -4.195e-42 4.54e-42 4.163e-42 -1.433747e-39 4.950482e-37
6.6271e-40 -1.317675e-39 -2.003782e-37 2.1162519e-35 -4.7386645e-35 2.59858e-35 -2.3936341e-37 -1.469347e-39
-1.167e-41 4.411e-42 -3.901e-42 -9.312321e-30 -4.2978218e-11 3.8473103e-05 -0.0010521606 -0.0007922031
0.0022663714 0.0019198793 -0.004058052 0.0011619299 -0.0016897016 -0.00051847886 1.1723998e-05 -6.0784782e-06
1.433531e-08 -6.0134574e-13 -6.820066e-34 2.2641e-40 1.6385117e-37 -5.3693414e-35 -2.2613973e-33 -2.8373836e-32
-4.641889e-34 -4.0382335e-36 6.262532e-39 9.04673e-40 -1.1722872e-38 1.5559344e-38 -4.341895e-37 1.3427493e-34
-4.4064783e-33 4.7208147e-32 -5.30887e-30 1.3617578e-29 3.721229e-30 8.186893e-37 -3.408e-42 9.960134e-25
-6.0433714e-11 -8.9097564e-05 -7.4535485e-05 0.00033125698 0.0002657923 -0.0006443494 -0.00022755687 -0.000114686714
-8.874884e-06 -1.0043158e-06 -9.1733027e-10 -2.1754737e-10 -1.7232172e-13 -1.0316854e-18 -7.595896e-27 -3.698712e-38
6.819e-42 -1.335e-42 -6.8689e-41 3.0558e-41 -8.5234237e-38 -1.2847186e-37 -1.5692072e-35 -3.946059e-37
-1.3292662e-36 -2.66943e-40 -3.262e-42 -2.606e-42 9.33e-43 -1.421e-42 -5.783e-42 -1.093e-42
-5.503e-42 1.724e-42 -6.041e-42 5.207e-42 1.594299e-36 3.0298005e-28 -5.4375995e-19 -2.5616518e-13
-3.2850903e-10 -1.8816916e-08 0.087350935 0.11798585 -0.32205924 -0.043504123 0.008042845 -0.0017953295
-0.002516701 -0.36112732 -0.2801228 0.08697767 -0.30150828 -0.036383748 -0.30547437 -0.29508853
0.08073325 -0.3433939 0.04215655 0.010656005 -0.41417944 0.03868912 -0.032315668 -0.0529126
-0.0048601874 -0.007758512 0.12395773 -0.27815893 0.026257157 -0.17649351 0.13899773 0.076268114
0.15331876 0.07317303 0.10023248 -0.44319406 -0.30921263 -0.2949355 0.056725565 -0.062560365
-0.06397968 -0.14076969 -0.09434159 -0.059474286 -0.369177 -0.18188019 -0.18033203 0.032270737
-0.36427343 0.014020248 -0.1117858 -0.21776238 0.06403832 -0.17174937 -0.159913 -0.2525889
-0.07609447 0.08838226 -0.047426376 -0.02499077 0.06443827 -0.09129791 -0.2949945 0.06050984

fc1.bias f4 [256]
00000000: 7bcb babb 9b9a 60bb ed1c d740 b002 c940
00000010: 2979 a140 7af2 c840 8077 83bc fa33 d340
00000020: 9f72 f8bc 122c e840 d8e2 a4b9 9e35 95bb
00000030: dc49 acb6 5363 e340 017f 84ba 2000 1fb9
00000040: 0b2e 9040 bb25 acbc 31be b940 5cdf 8d40
00000050: 467a 2ebb a924 54bd bd44 0341 aae6 b340
00000060: 6054 f740 fab1 a040 1165 52bb 78f1 e440
00000070: 9c3c a640 dab0 d440 f1dc 0141 138e dc40
00000080: 6e3a b640 3ca5 cc40 f129 d3bb 004b bbbb
00000090: be7a 6040 a282 b9ba ae8c 7b40 7e2d 00b7
000000a0: 0423 0341 0b4f 5b40 0390 83bc db3b f3bb
000000b0: b648 6d40 a1e6 d440 8803 8fb6 bc0f babc
000000c0: c34b 48bc 66b4 4ebb 7d3e 3cbd efe9 84bb
000000d0: 7072 c7bc b00f 21bd a187 36b9 fd6b 2bbc
000000e0: c9c9 b840 4387 21ba bf04 9840 1a62 b740
000000f0: 3b7a 8240 f3b5 c0ba 75d6 5a40 4599 bc40
00000100: 8052 0341 b53a d440 6d4a aebb 6893 d340
00000110: 38c2 aa40 1241 0bbb 8a42 af40 2d3e c840
00000120: fdc7 44bc be73 b340 dcff bf40 e411 0141
00000130: 5097 ab40 53df 9840 59f4 eb40 58d0 7a40
00000140: fb21 b540 b477 a540 27a8 9040 bd59 a440
00000150: 5f44 22bd 000d df40 c635 3dbb 510a 9040
00000160: 547d f140 fec9 b9b8 2cb1 b540 21c4 bc40
00000170: 96f6 f2bc c47b 7340 183b cb40 3a8c 8d40
00000180: adf0 c5bb eedb b240 2602 0dbb d08b 59bd
00000190: 50f1 8540 874e 25bc cc6b ae40 3cf0 d540
000001a0: 2803 56bc b418 84bc bf8d 9e40 007d b040
000001b0: 7285 a640 fce8 9b40 e48d 9c40 a0e7 aa40
000001c0: 30b7 bdb3 43a5 7dbb 8882 b5b9 c3d7 9b40
000001d0: 22be 4640 8c30 c440 2599 92bc 84c0 b440
000001e0: 1be1 9140 59c2 02bc 48e9 b340 14c3 6740
000001f0: 061f 5abd 941f ba40 2047 44bb 0e1b 9140
00000200: c17f 7540 a318 da40 3c58 d340 1be0 dd40
00000210: 1d1d 0241 af43 b3b9 a758 f5bc 347b 02bc
00000220: 7e01 9fb9 6668 b440 f731 0041 fe83 f03e
00000230: eb3d ba40 8bb2 2eba 561b 9b40 0546 9dbb
00000240: 6eb1 eb40 ff99 c440 f160 0fbc 0384 b840
00000250: 8a5d d940 478b f940 9a36 fa40 099f ab40
00000260: 9cdf f3bb a426 8f40 746b bb40 2426 8640
00000270: fcad 2bbc e8f8 c1bb ea64 bd40 e684 17bc
00000280: 704e af40 a5b7 6bbc b6b8 68bd 8b6b 8e40
00000290: eebf 1dbc 720e 0341 ffee aa40 f8dd 0341
000002a0: 4cb7 a340 b443 ea40 33ff 9d40 3112 3bbc
000002b0: ae1d cfbb 2394 bd40 e417 43bb 8e63 3bbb
000002c0: 780a 0fbb 7f3f bcb9 b888 bb40 2d5b b740
000002d0: f704 a040 b95d aabc e93b da40 97eb ed40
000002e0: 8472 59bd b2f4 cf40 3975 b440 6347 58b9
000002f0: 1662 a940 84c0 8b40 d40c 32bb 1132 be40
00000300: 7f8e da40 fd65 5b40 2183 63b8 48d2 ee40
00000310: 7adc 3940 8616 58b5 b967 0fbb 9ebd a940
00000320: 6ba4 cebc e7f1 d040 478d b440 ecf6 cdba
00000330: 0853 3840 f818 0ebd 7550 6bb9 ab91 b040
00000340: c210 9f40 56a9 c040 d6e0 8d40 2d4d 9b40
00000350: 4361 e840 e62b a440 8e60 9dbb 0c07 9940
00000360: f530 cd40 ad3f 4d40 7adc 45bb e102 9040
00000370: 2dc1 9d40 3030 9e40 2c5f e9b8 f697 e140
00000380: 1728 c7bb 0ce1 9640 d47f 0ebc ef95 1ebd
00000390: 8253 9540 ab8a 03bd 87b5 c640 d7c8 8540
000003a0: ba83 5940 87af 2db7 6242 7940 37f0 9fbc
000003b0: 8c37 9740 9fd5 a540 b418 a540 3c7e 8940
000003c0: 53ae 8bbc a060 ddba a653 e1b8 6abd c540
000003d0: f232 f940 988c 20bd 5ba1 89b9 7974 8ba1
000003e0: 6fe5 ba40 80e2 f340 e7c4 10bd a2a5 8c40
000003f0: 7e69 8740 c0ce 9d40 30c3 55bb 7e05 47bb
-0.0057005263 -0.003427184 6.722281 6.281578 5.04604 6.279599 -0.016048193 6.600095
-0.030328093 7.2553797 -0.0003144953 -0.004553511 -5.134598e-06 7.1058745 -0.0010108651 -0.00015163468
4.5056205 -0.021014085 5.8044667 4.4335155 -0.0026623174 -0.051792774 8.204282 5.621907
7.7290497 5.0217257 -0.0032103697 7.154476 5.1948986 6.6465883 8.116441 6.892343
5.6946325 6.39517 -0.006444209 -0.005715728 3.5074916 -0.0014153311 3.9304614 -7.6399865e-06
8.196049 3.4266994 -0.016059881 -0.007422907 3.707563 6.653153 -4.262143e-06 -0.02271258
-0.012225094 -0.0031540631 -0.04595803 -0.0040562074 -0.02434656 -0.0393216 -0.00017407398 -0.010462758
5.774632 -0.0006161818 4.7505794 5.7307253 4.0774207 -0.0014702663 3.4193394 5.8937097
8.207642 6.6321664 -0.005318931 6.611744 5.3362083 -0.0021248502 5.4768724 6.25759
-0.012010572 5.6078787 5.999983 8.066868 5.362221 4.7772613 7.3735776 3.9189663
5.660398 5.170862 4.5205264 5.1359544 -0.039615985 6.970337 -0.0028871163 4.5012593
7.546549 -8.8591114e-05 5.6778774 5.8989415 -0.029658597 3.804429 6.3509636 4.4233675
-0.0060406537 5.589347 -0.0021516173 -0.05311185 4.185707 -0.010089523 5.450659 6.6855755
-0.013062276 -0.01612506 4.954803 5.515259 5.2037897 4.8721905 4.8923206 5.3407745
-8.83432e-08 -0.003870324 -0.00034620264 4.870088 3.1053548 6.130926 -0.01789529 5.6485004
4.5587287 -0.007980906 5.6222267 3.6212816 -0.053252243 5.8163548 -0.002994962 4.5345526
3.8359225 6.8155074 6.604521 6.9336066 8.132108 -0.0003419197 -0.0299495 -0.007963944
-0.00030327955 5.637744 8.012198 0.46975702 5.8200583 -0.0006664178 4.847087 -0.0047996067
7.365409 6.1437984 -0.00875114 5.7661147 6.7926683 7.7982516 7.819165 5.3631635
-0.007442428 4.473467 5.856867 4.192156 -0.010478493 -0.0059195645 5.9185686 -0.009247994
5.478325 -0.014387046 -0.05681678 4.450628 -0.009628279 8.191027 5.3416743 8.241692
5.116125 7.3207645 4.9374022 -0.011417911 -0.0063206768 5.924333 -0.0029768879 -0.0028593275
-0.0021826308 -0.00035905463 5.8604393 5.72988 5.000606 -0.020796644 6.8198133 7.4350085
-0.053087726 6.49862 5.6393094 -0.00020625959 5.2932234 4.3672504 -0.002716829 5.9436116
6.8298945 3.4280999 -5.424314e-05 7.463169 2.9040818 -8.0499046e-07 -0.0021881892 5.3043966
-0.025224885 6.529529 5.642246 -0.0015713847 2.8800678 -0.03469178 -0.00022441319 5.5177817
4.9707956 6.020671 4.433696 4.853171 7.261873 5.1303587 -0.00480277 4.78211
6.412226 3.2070115 -0.0030191229 4.5003514 4.929831 4.9433823 -0.00011128033 7.0498
-0.006077777 4.7149715 -0.008697469 -0.038717207 4.666444 -0.032114666 6.209659 4.1807666
3.398665 -1.0352472e-05 3.8946767 -0.019523723 4.7255306 5.182327 5.1592655 4.2966595
-0.017050898 -0.0016889758 -0.00010744417 6.179372 7.787469 -0.03919658 -0.00026250895 -9.449836e-19
5.840507 7.621399 -0.03534403 4.395219 4.2316275 4.931488 -0.0032617562 -0.0030368264

fc2.weight f4 [14, 256]
00000000: 8bbd 11b2 c514 0080 da16 e23b 154d 033c
00000010: f0d7 cc38 3bd2 003d 4f12 0080 0785 9d3c
00000020: 5a09 0000 064d 333c 6214 0080 2d36 0080
00000030: 6e01 0080 cf92 ecbb 9005 0000 2724 0080
00000040: 093e e939 a508 0080 7b68 b03b fd8a 01bd
00000050: dc03 0000 dc06 0080 a68c 1fbc 48a3 1339
00000060: 0484 e3ba 489c af39 0c0e 0080 6af5 8b3b
00000070: be67 9239 a25f 143b 05c8 e0ba 26f0 6c3c
00000080: 50e2 ec37 644d 383b df04 0000 3309 0000
00000090: 2aca 003b 7b00 0000 f8f5 963b 4100 0000
000000a0: 945a 0eba ff7a 5c3b 1b09 0000 2724 1180
000000b0: e5f8 033c 32f7 36bc bc03 0080 44c4 8295
000000c0: 2608 0080 860e 0080 f504 0080 5e5d 003e
000000d0: 6213 0080 770c 0000 c011 0080 5b14 0080
000000e0: ca8c 023c 810d 0000 ba6b 833b f8be 8b3b
000000f0: 91fc 183a c3db 03bc dfeb c13b 2738 693b
00000100: c856 7f3b 8db9 573a a313 0000 0f43 b63b
00000110: 71de 0a3a e903 0000 f454 2b3b e7d3 21bb
00000120: 9601 0080 0e01 c039 7a85 2f3a c169 1c3b
00000130: bff1 853a 596f a73a 3733 463b 6314 773b
00000140: 40f6 6939 66f0 823b 9a2e 6d3b 9760 1d3c
00000150: e711 0000 befd d4bb 4491 433d fbda 13b8
00000160: 6c9a 4ebd e21c 0080 f8f9 8539 4b9f 783a
00000170: e706 0000 b3a5 773a b030 6d3b 6ab4 ae39
00000180: b2ad 1035 edc6 b73a ab2e 0080 3ef7 6831
00000190: b635 0d3b 57f0 a089 bc33 1c3c d502 3cbb
000001a0: d642 0000 6bad 7aa6 8e97 e239 b89e d9b7
000001b0: 8da3 743c 084d fa39 3cd3 b739 0956 8b3a
000001c0: d008 0000 5f13 0000 2c1c 0000 2025 a63b
000001d0: 5028 623c 2ae4 beb9 ea04 0000 9a4a ba3b
000001e0: f2d7 083a cc01 0000 fe3c 023a 26c2 563b
000001f0: 7203 d6a8 8cf3 fa39 586b e93c 1796 53b8
00000200: 7279 093c e410 e7b9 a2ab 6c39 f80e cbbb
00000210: 22c1 2b3b eca2 7137 b006 0080 ad11 0080
00000220: ac06 0000 beb4 92bb 1266 9fb7 0554 753a
00000230: 18d2 8639 5ba5 fb3b 6315 a639 397f cbb2
00000240: 70e0 58b8 c30f 8e3a 733a 0000 646b a83b
00000250: 4710 833c 6fe4 963b 19bf 403b 9fdc bb39
00000260: af09 0000 d920 8b3b 09f2 6e3a 2fa2 ee3a
00000270: ce01 0000 c55c 0000 10ed 5f39 ae04 0000
00000280: 5487 39b9 7c07 0000 39e9 37bc baa5 7639
00000290: b204 0080 eb3d 08ba ff56 8139 f4c7 1639
000002a0: 362f 093a 0d93 6e3b 5cfd 1138 6906 0000
000002b0: b70c 0080 a1ed 903c 7bd9 a4ab 9d32 0000
000002c0: dea6 18b1 a32a aa1a 7780 0f3a 11db ac3c
000002d0: ea8a 9339 d823 8739 9687 a23b 616b e8bb
000002e0: 0618 0080 bc15 aa38 e25a 803b 030b 0080
000002f0: 3c9c 82bc 48a7 d339 af07 0000 7cf8 ef3b
00000300: e0e6 60ba 2321 2f3a ed82 a0b5 7276 e8bb
00000310: 18da 033b ef0f 0000 1612 0080 73bc 3039
00000320: dd0a 0080 a34e b2bb 4aa7 b13b d349 37bc
00000330: 91e6 d73a 266b 0dbd c827 0000 1660 e93a
00000340: c521 4339 729c 823c 6f25 f3bb fe52 4c38
00000350: d45c 67bc 2efc d939 3777 442e bc8f 7c39
00000360: 7cb5 ba3b 4f12 1b3b 6d39 c79d 2e31 083d
00000370: e48f d83b e629 803a 8e1a 0080 f491 fcba
00000380: 0d73 0bbb 9b81 0c39 fe0c 0000 61b1 c2ba
00000390: 0004 1239 3f04 0000 34d8 c1bc e021 ee3a
000003a0: 3778 433b 2559 0080 2039 9a3a 4205 0080
000003b0: a39d e23b 4812 5bb8 b0d4 f8b7 5971 ec3b
000003c0: 9e01 0000 bd06 0000 1d3a 0000 7c70 cf3b
000003d0: 4aae 643b c20c 0000 83b2 673c dc3e 331f
000003e0: 4e1f 0e3b 7231 84bb 5e06 0000 a2c6 55ba
000003f0: 8c97 2c3a 024c 7b38 700e 0000 f085 efba
-8.483208e-09 -7.451e-42 0.006899697 0.008013983 9.7676995e-05 0.03145049 -6.568e-42 0.019228471
3.355e-42 0.010943657 -7.312e-42 -1.9435e-41 -5.13e-43 -0.0072196494 1.995e-42 -1.2969e-41
0.00044487443 -3.101e-42 0.005383549 -0.03162669 1.384e-42 -2.46e-42 -0.009738123 0.0001407984
-0.0017358069 0.0003349504 -5.039e-42 0.004271199 0.00027924584 0.002264001 -0.0017149454 0.014461553
2.8238777e-05 0.00281223 1.747e-42 3.3e-42 0.001965175 1.72e-43 0.0046069585 9.1e-44
-0.00054303673 0.0033642647 3.266e-42 -1.574172e-39 0.008054947 -0.011167334 -1.34e-42 -5.2816234e-26
-2.923e-42 -5.21e-42 -1.778e-42 0.12535617 -6.953e-42 4.472e-42 -6.368e-42 -7.302e-42
0.007968137 4.844e-42 0.0040106447 0.0042647086 0.0005835975 -0.008048001 0.0059180106 0.0035586448
0.0038961638 0.00082292483 7.044e-42 0.005562193 0.00052974286 1.403e-42 0.0026143165 -0.0024692954
-5.69e-43 0.0003662188 0.000669561 0.0023866745 0.0010219141 0.0012774273 0.0030242929 0.003770136
0.00022312347 0.003995943 0.0036191107 0.009605548 6.422e-42 -0.006499975 0.047745958 -3.5251473e-05
-0.050440237 -1.0361e-41 0.00025553978 0.0009484186 2.476e-42 0.00094469934 0.003619235 0.00033322285
5.389694e-07 0.0014021076 -1.6741e-41 3.3900984e-09 0.0021546907 -3.8744613e-33 0.009533819 -0.0028688211
2.3976e-41 -8.69712e-16 0.00043218996 -2.5942325e-05 0.014931572 0.0004774111 0.00035061862 0.0010630499
3.161e-42 6.949e-42 1.0106e-41 0.0050703436 0.013803557 -0.0003640962 1.763e-42 0.0056851627
0.00052201666 6.45e-43 0.0004968195 0.003276953 -2.3760267e-14 0.00047865172 0.028493568 -5.0446102e-05
0.008390771 -0.00044072338 0.00022570652 -0.006196853 0.0026207645 1.4402653e-05 -2.399e-42 -6.341e-42
2.393e-42 -0.0044771126 -1.9001807e-05 0.0009358528 0.00025715004 0.007679624 0.00031677922 -2.3690164e-08
-5.1707437e-05 0.0010838438 2.0968e-41 0.005139755 0.015998973 0.004604868 0.0029410778 0.00035831795
3.474e-42 0.004245859 0.00091150455 0.0018206293 6.47e-43 3.328e-41 0.0002135525 1.679e-42
-0.00017693389 2.685e-42 -0.011225038 0.00023522126 -1.684e-42 -0.0005197215 0.00024669615 0.00014379603
0.000523317 0.0036403567 3.4806653e-05 2.3e-42 -4.561e-42 0.017691435 -1.1713264e-12 1.8157e-41
-2.2213764e-09 7.0379235e-23 0.000547416 0.021100553 0.00028141524 0.00025775912 0.0049600108 -0.0070928787
-8.618e-42 8.11028e-05 0.003917084 -3.95e-42 -0.015943639 0.0004036969 2.756e-42 0.007323323
-0.0008579325 0.0006680658 -1.1959033e-06 -0.007094198 0.0020119008 5.716e-42 -6.488e-42 0.00016854871
-3.897e-42 -0.005441503 0.0054215537 -0.011187035 0.0016471912 -0.034526013 1.4271e-41 0.0017805125
0.0001860923 0.01594374 -0.007420234 4.8714683e-05 -0.014121253 0.00041577354 4.4671124e-11 0.00024086138
0.005697904 0.0023662036 -5.273424e-21 0.033250026 0.00660895 0.0009778112 -9.526e-42 -0.0019269572
-0.0021278292 0.00013399722 4.661e-42 -0.0014853888 0.00013925135 1.523e-42 -0.023662664 0.0018168055
0.0029826292 -3.1979e-41 0.0011766292 -1.886e-42 0.0069157644 -5.2230695e-05 -2.9662944e-05 0.0072156605
5.8e-43 2.417e-42 2.0847e-41 0.006330548 0.0034893923 4.577e-42 0.014141682 3.795672e-20
0.002168614 -0.0040342147 2.284e-42 -0.0008154904 0.00065838615 5.991385e-05 5.179e-42 -0.0018274169

fc2.bias f4 [14]
00000000: 3c8e 983e 4ef6 2c40 5f2a ba3f 0807 d33f
00000010: 9efe c73f 4442 683f f2ac be3e ae39 4e3f
00000020: d57c 6a3e cfe2 8e40 7869 c340 75b1 a73e
00000030: ad3a 0c3f f309 823e
0.29796016 2.7025332 1.4544181 1.6486521 1.5624578 0.90726113 0.37241322 0.8055676
0.22899182 4.4651866 6.1066246 0.32752576 0.5477703 0.25398216
