Response14/state_dicts/model_state_dict.pth (torch, 775337 bytes, 8 tensors)

conv1.weight f4 [32, 64, 3]
0	0xbdf4b784	-0.11949065
1	0xbdc39c3c	-0.09551284
2	0xbccddbc8	-0.025129214
3	0xbd6a649c	-0.057224855
4	0xbdd7f254	-0.10544267
5	0xbdda828e	-0.106694326
6	0x3ca07d90	0.019591123
7	0x3d9f9421	0.07791925
8	0x3de71f7f	0.11285304
9	0xbdb08578	-0.08619207
10	0xbdbfc6cc	-0.09364089
11	0xbdca69de	-0.09883474
12	0x3d30c004	0.04315187
13	0x3d898ec8	0.067166865
14	0x3b594cce	0.0033157351
15	0x3d112448	0.03543499
16	0x3cc27d22	0.023741309
17	0x3d5cd680	0.0539155
18	0x3c865377	0.016397221
19	0x3d5115d2	0.0510462
20	0xbb9c1719	-0.0047634956
21	0xbe40139e	-0.18757483
22	0xbe8183ff	-0.25296018
23	0xbe9b8803	-0.30377206
24	0x3e3dff68	0.18554461
25	0x3ea1c679	0.31596735
26	0x3e832bc1	0.2561932
27	0xbf16113e	-0.5862006
28	0xbf15fdd9	-0.58590466
29	0xbf067dea	-0.5253588
30	0x3a0e1a7b	0.0005420816
31	0x3d91793c	0.07103202
32	0x3cf61079	0.030037152
33	0x3e29dfe9	0.16589321
34	0x3e32c6aa	0.17458597
35	0x3e6ce061	0.23132469
36	0x3e8622fe	0.26198572
37	0x3eb22fb7	0.3480203
38	0x3e9d72d8	0.3075168
39	0xbdcdeb62	-0.10054661
40	0xbe02ed48	-0.12785828
41	0xbda0bb41	-0.07848216
42	0xbe8867de	-0.26641744
43	0xbe8e5293	-0.27797374
44	0xbe8d2429	-0.2756665
45	0xbdc11d52	-0.094294205
46	0xbd83e235	-0.0643963
47	0xbe2d3bb0	-0.169173
48	0x3e2c370e	0.16817877
49	0x3dd307d4	0.103042275
50	0x3e479e92	0.19494084
51	0x3e32d2d0	0.17463231
52	0x3d9fd884	0.07804969
53	0x3dceb045	0.100922145
54	0xbe26cd4a	-0.16289249
55	0xbe1946e1	-0.14968444
56	0xbe3d1844	-0.18466288
57	0xbe85f6f1	-0.26164964
58	0xbebf6fa4	-0.37389863
59	0xbeb7e512	-0.35916954
60	0x3e0d2ee5	0.1378742
61	0x3e0f6fb5	0.14007457
62	0x3e14da62	0.14536431
63	0x3e1a4c4e	0.1506817
64	0x3de7ab64	0.11311987
65	0x3df7806b	0.12085041
66	0xbe82b740	-0.25530434
67	0xbe9d1d9b	-0.3068665
68	0xbe917dc3	-0.2841626
69	0xbed8682a	-0.4226697
70	0xbea5feb0	-0.32420874
71	0xbe9f675a	-0.31133538
72	0xbdecb0bd	-0.11557148
73	0xbe2b37f1	-0.16720559
74	0xbd73f77c	-0.05956219
75	0xbc882c17	-0.016622586
76	0xbbafad3a	-0.0053612264
77	0x3cfed72c	0.031108461
78	0x3f253b73	0.6454384
79	0x3f1ffbc5	0.62493545
80	0x3f23652e	0.6382626
81	0xbe3bad0f	-0.18327735
82	0xbe6a6767	-0.22891007
83	0xbe80311e	-0.25037473
84	0xbe34f3d1	-0.17671134
85	0xbe5f4fc1	-0.21807767
86	0xbe867849	-0.26263645
87	0x3ebb7a67	0.36616823
88	0x3e911e92	0.28343636
89	0x3eb2ffce	0.34960788
90	0xbdb27a2c	-0.08714709
91	0xbcab4911	-0.020908864
92	0xbc96bfef	-0.018402068
93	0xbe70efe9	-0.23529018
94	0xbe89a433	-0.26883087
95	0xbe135cea	-0.14390913
96	0xbcbb052c	-0.022829615
97	0xbd9c0e45	-0.07619909
98	0xbd07ff50	-0.03320247
99	0x3d289f2e	0.04116743
100	0xbd528142	-0.0513928
101	0xbce59d36	-0.028029066
102	0xbec328ba	-0.3811701
103	0xbeab7903	-0.33490762
104	0xbec5f732	-0.38665158
105	0x3cb2aae0	0.021809995
106	0x3e01d1c5	0.12677677
107	0x3d18c739	0.03729937
108	0x3e1a437b	0.15064804
109	0x3e33e017	0.17565952
110	0x3e41fe43	0.1894465
111	0x3deeefa2	0.116668
112	0x3dffb04a	0.12484796
113	0x3de852c8	0.11343914
114	0x39e703df	0.00044062638
115	0x3d845b0c	0.06462678
116	0x3dddce83	0.108304046
117	0x3e7a9130	0.24469447
118	0x3e92485d	0.28570834
119	0x3e93ebc0	0.288908
120	0xbe546e34	-0.20745164
121	0xbe7a4932	-0.24441984
122	0xbe976a9c	-0.29573524
123	0x3e41f5a2	0.18941358
124	0x3e301883	0.1719685
125	0x3e82c6db	0.2554234
126	0x3ee5e432	0.44900662
127	0x3f0c7663	0.54868144
128	0x3f0ddd8d	0.55416185
129	0x3e75091a	0.23929253
130	0x3ea5ab8d	0.32357445
131	0x3e968aca	0.29402763
132	0xbc39fffc	-0.011352535
133	0x3c950a7f	0.018193481
134	0xbd8585b4	-0.065196425
135	0xbf0bbe26	-0.5458702
136	0xbf0f5954	-0.5599568
137	0xbee8488f	-0.45367858
138	0x3e918222	0.28419596
139	0x3eb57ca3	0.35446653
140	0x3ea574be	0.3231563
141	0x3ec05ca6	0.37570685
142	0x3eace1ad	0.33765927
143	0x3ee52e09	0.44761685
144	0xbe8b3ccc	-0.27194822
145	0xbe61a60e	-0.22036001
146	0xbe74dc1f	-0.23912095
147	0xbe066e0f	-0.13127922
148	0xbe1491f6	-0.14508805
149	0xbe646130	-0.22302699
150	0x3e7b1a97	0.24521862
151	0x3e75a5ed	0.23989077
152	0x3e4c6dc2	0.19963744
153	0xbd47e12c	-0.048798725
154	0xbe0d7b8e	-0.13816664
155	0xbd24b8f7	-0.04021546
156	0x3e091fc6	0.13391027
157	0x3e04699a	0.12930909
158	0x3e0f005d	0.13964982
159	0xbc3e8ee0	-0.011630744
160	0xbc1c1834	-0.009527255
161	0xbd06888c	-0.032845065
162	0x3c5161dc	0.012779679
163	0x3c56de35	0.013114502
164	0xbb43d995	-0.0029884328
165	0x3ee273f6	0.44229096
166	0x3ec986b2	0.39360577
167	0x3ed64ef2	0.41857105
168	0x3da1fde0	0.07909751
169	0x3cc1b7e3	0.023647254
170	0x3d356875	0.04428907
171	0x3e726fc2	0.23675445
172	0x3ea123ad	0.3147253
173	0x3e9eda48	0.3102591
174	0x3e23255a	0.15932217
175	0x3e6c933a	0.23103037
176	0x3e3073fd	0.17231746
177	0x3e19c9d1	0.15018393
178	0x3d86511f	0.06558441
179	0x3e0d87eb	0.1382138
180	0xbd4420fd	-0.047883023
181	0xbd6b8ae1	-0.057505492
182	0xbd2ae919	-0.041726205
183	0xbd5f7149	-0.054551397
184	0xbdcab329	-0.09897453
185	0xbd95673a	-0.072950795
186	0x3b3c9755	0.0028776724
187	0xbaee8840	-0.0018198565
188	0xbd17929f	-0.037005063
189	0xbea6ae11	-0.32554677
190	0xbe9edcaa	-0.31027728
191	0xbe97f8fd	-0.2968215
192	0x3ecde892	0.402165
193	0x3eda2883	0.42609033
194	0x3ece1454	0.40249884
195	0xbe094557	-0.13405357
196	0xbe0cb944	-0.13742548
197	0xbe4233a5	-0.18965013
198	0x3ea773f5	0.32705656
199	0x3e8a5971	0.27021363
200	0x3e6a3e25	0.22875269
201	0x3e8346cc	0.2563995
202	0x3e07d338	0.13264167
203	0x3e596c4d	0.2123272
204	0x3e5a420c	0.21314257
205	0x3e850b4b	0.25985178
206	0x3e434dde	0.19072673
207	0x3d839d80	0.06426525
208	0x3e0ee000	0.13952637
209	0x3d6f3cae	0.058407478
210	0x3e9fa146	0.3117773
211	0x3ea43345	0.32070366
212	0x3e9964a1	0.29959586
213	0xbe7a3799	-0.24435271
214	0xbe13866a	-0.14406744
215	0xbe6f8559	-0.23390712
216	0x3e1146b9	0.14187135
217	0x3e414661	0.18874504
218	0x3e11c5bf	0.1423559
219	0x3c13ce60	0.009021372
220	0xbddeff15	-0.10888497
221	0x3cdf60e0	0.027267873
222	0xbe630413	-0.22169523
223	0xbe4ddcf6	-0.20103821
224	0xbe8d0672	-0.2754398
225	0x3dab7aef	0.08373057
226	0x3e3fb60e	0.18721792
227	0x3e1a21bf	0.15051936
228	0x3ba92e95	0.0051630237
229	0x3b9687f9	0.004593846
230	0xbce4e0b6	-0.027939182
231	0x3de39337	0.111120634
232	0x3e020eb1	0.12700917
233	0x3d4ffa5b	0.050775867
234	0xbd19411b	-0.037415605
235	0x3c8112ca	0.01575603
236	0xbdd20c57	-0.1025626
237	0x3eab9c8e	0.3351788
238	0x3ea00319	0.31252363
239	0x3e87cc3a	0.26523
240	0x3e6e150a	0.23250213
241	0x3e675728	0.22591841
242	0x3dcd5b27	0.100271516
243	0x3f05d5e0	0.5227947
244	0x3f13093b	0.5743596
245	0x3f26a148	0.65089846
246	0x3ebf48b9	0.3736017
247	0x3ec4c245	0.38429466
248	0x3ed71957	0.4201152
249	0xbd8c6065	-0.06854323
250	0xbe04f0d2	-0.1298249
251	0xbdccb7eb	-0.09996017
252	0xbef30f09	-0.47472408
253	0xbf020835	-0.5079377
254	0xbeec0406	-0.4609682
255	0x3d806b39	0.06270451

conv1.bias f4 [32]
0	0x3f219543	0.6311838
1	0x3f33e538	0.70271635
2	0x3f29ee9d	0.6637972
3	0x3f2a382a	0.6649195
4	0x3f276f48	0.65404177
5	0x3f266a10	0.6500559
6	0x3f2d00b6	0.6757921
7	0x3f2218d8	0.6331916
8	0x3f2c7b0f	0.6737527
9	0x3f284d8c	0.6574333
10	0x3f1e7927	0.61903614
11	0x3f292619	0.6607376
12	0x3f2d7444	0.6775553
13	0x3f2f256c	0.68416476
14	0x3f169f32	0.5883666
15	0x3f31d7e7	0.69470066
16	0x3f29f4ba	0.6638905
17	0x3f19d553	0.6009113
18	0x3f2d9db8	0.67818785
19	0x3e064700	0.13113022
20	0x3f28cac0	0.6593437
21	0x3f2e745b	0.68146294
22	0x3f32bbeb	0.6981799
23	0x3f2755a1	0.65365034
24	0x3f1bdd44	0.608845
25	0x3f22ab15	0.635423
26	0x3f2816d3	0.65659827
27	0x3f1c8c45	0.61151534
28	0x3f1d7a53	0.61514777
29	0x3f291408	0.6604619
30	0x3f33a77e	0.7017745
31	0x3f2e0b9e	0.67986476

conv2.weight f4 [64, 32, 3]
0	0xbdfed689	-0.12443263
1	0xbd05ad39	-0.0326359
2	0xbe0fe30d	-0.14051457
3	0x3ee52375	0.44753614
4	0x3efe7289	0.49696758
5	0x3f09a5e4	0.53768754
6	0x3ece7a80	0.40327835
7	0x3eb815cd	0.35954133
8	0x3ebeb03d	0.37243834
9	0xbd696966	-0.05698528
10	0x3db78ddb	0.08962604
11	0xbd92d281	-0.07169057
12	0xbdfb86d3	-0.12281575
13	0xbe81cb3f	-0.25350377
14	0xbe5e4c0b	-0.21708696
15	0x3e8ecd37	0.27890942
16	0x3e11cd34	0.14238435
17	0x3e37cac4	0.17948443
18	0x3dc6d15e	0.09707902
19	0x3e8559c9	0.26045063
20	0x3e13309b	0.1437401
21	0x3ea0d6a8	0.3141377
22	0x3ec06315	0.37575594
23	0x3e7a5608	0.24446881
24	0xbc187fbc	-0.009307798
25	0x3d9d2799	0.07673568
26	0x3c877584	0.016535528
27	0x3ebc7db4	0.36814654
28	0x3e993a62	0.29927355
29	0x3e82e52e	0.25565475
30	0x3e34fe50	0.17675138
31	0x3e48e2da	0.19617787
32	0x3e50e8da	0.20401326
33	0x3e5cdd0f	0.21568702
34	0x3e59ee55	0.21282323
35	0x3e871ff5	0.2639157
36	0x3e0d6b51	0.13810469
37	0x3db6db7c	0.08928582
38	0x3e85903f	0.26086614
39	0xbefcf9a4	-0.4940921
40	0xbf01815c	-0.5058801
41	0xbed17f98	-0.4091766
42	0xbf3cbcdd	-0.7372568
43	0xbf0e632e	-0.55620086
44	0xbf2cadb3	-0.67452544
45	0x3ef93057	0.48669693
46	0x3ea0fef4	0.31444514
47	0x3e9c5ff6	0.30541962
48	0xbccf6a75	-0.025319317
49	0x3d8ca468	0.068672955
50	0x3de86fb4	0.11349431
51	0xbe44751c	-0.19185299
52	0xbe6d194c	-0.23154181
53	0xbe489ec3	-0.19591813
54	0x3e9b0783	0.30279168
55	0x3e99f481	0.30069354
56	0x3eaa7588	0.33292794
57	0x3e3e5f2d	0.18590994
58	0x3e69cee5	0.2283283
59	0x3e1350c2	0.14386275
60	0xbe6c5754	-0.23080188
61	0xbe7d70ac	-0.24750012
62	0xbe4b4be1	-0.19853164
63	0xbc5faf50	-0.013652638
64	0x3d47b09d	0.048752416
65	0xbd8970be	-0.06710957
66	0x3e79d17f	0.24396323
67	0x3eac9fc1	0.33715633
68	0x3e9ff6aa	0.31242877
69	0xbdced2b6	-0.10098784
70	0xba8ba12f	-0.0010652895
71	0xbe026ea7	-0.12737523
72	0x3ca10c92	0.019659314
73	0x3e3f411a	0.18677178
74	0x3e213c48	0.15745652
75	0x3d048332	0.03235168
76	0x3e11ebf9	0.14250173
77	0x3d0b5869	0.03401986
78	0xbc82f25e	-0.01598471
79	0xbe027b6a	-0.12742391
80	0xbc9c7a1d	-0.019101197
81	0xbd02d52d	-0.03194158
82	0x3e0bd2d1	0.13654639
83	0x3dc97879	0.098374315
84	0xbecc9d18	-0.39963603
85	0xbf0956c3	-0.5364801
86	0xbedca836	-0.43097085
87	0x3e886a07	0.26643392
88	0x3eaa01d0	0.33204508
89	0x3e2164dd	0.15761133
90	0xbd99ab32	-0.07503356
91	0xbdc09e03	-0.09405138
92	0xbccec2bc	-0.025239341
93	0xbce6806d	-0.02813741
94	0xbc43fb59	-0.011961781
95	0xbd127eaf	-0.035765346
96	0xbc394409	-0.011307725
97	0xbd4994c7	-0.04921415
98	0xbe2f03de	-0.17091319
99	0xbdaf79ee	-0.08568178
100	0xbd99c1d0	-0.0750767
101	0xbdc606db	-0.09669276
102	0x3e444ed7	0.191707
103	0x3e2c883b	0.16848843
104	0x3e26d795	0.16293176
105	0x3ec09c54	0.3761927
106	0x3ed7d2ef	0.42153117
107	0x3ec60664	0.3867675
108	0xbe6f228a	-0.2335302
109	0xbe1a44c2	-0.15065292
110	0xbe7df439	-0.24800195
111	0x3d7fbe03	0.06243707
112	0x3dcb77b8	0.09934944
113	0x3de780bd	0.11303852
114	0xbde94fd6	-0.113921806
115	0x3d130208	0.03589061
116	0xbca6faac	-0.020383202
117	0xbe95a126	-0.2922451
118	0xbe939eed	-0.28832188
119	0xbe87175b	-0.26385006
120	0xbe197b5d	-0.14988466
121	0xbe16e171	-0.14734437
122	0xbe0b6f0a	-0.13616577
123	0xbe397ee2	-0.18114808
124	0xbcce7aa5	-0.025204966
125	0xbd06181e	-0.032737844
126	0x3e5ff5de	0.21871135
127	0x3d97041a	0.07373829
128	0x3e3ee992	0.18643788
129	0x3d39e5c4	0.045385137
130	0xbd930811	-0.07179273
131	0x3c6ff73f	0.01464635
132	0x3d2f792a	0.04284016
133	0x3e07d221	0.13263752
134	0x3dc49019	0.09597797
135	0xbe95096b	-0.29108748
136	0xbeaf03d6	-0.34182614
137	0xbedaec01	-0.42758182
138	0x3ee569cd	0.44807282
139	0x3ef628cc	0.48078
140	0x3ecb33bb	0.39687905
141	0xbe8eda87	-0.27901098
142	0xbeb37e5f	-0.3505735
143	0xbe95acce	-0.29233402
144	0xbe099abd	-0.13437934
145	0xbdcccfac	-0.10000548
146	0xbdd68830	-0.104751945
147	0xbea572d1	-0.3231416
148	0xbeb4415a	-0.3520611
149	0xbea7822a	-0.32716495
150	0x3eaa5be0	0.3327322
151	0x3ea3e4af	0.3201041
152	0x3eafefe2	0.34362704
153	0x3e5f9d7a	0.21837416
154	0x3e4839d9	0.19553317
155	0x3e919ab7	0.2843835
156	0x3ea3733e	0.3192386
157	0x3ea37e8b	0.31932482
158	0x3eb42750	0.35186243
159	0xbdb46ecf	-0.088101976
160	0xbd65bd6b	-0.056088846
161	0xbdf077be	-0.11741589
162	0x3f20a338	0.6274905
163	0x3f0d5ebd	0.55222684
164	0x3f2462fe	0.6421355
165	0xbc848eca	-0.016181368
166	0xbcbe0e81	-0.023200275
167	0x3d648d02	0.055798538
168	0xbe31c5f6	-0.17360672
169	0xbe6939cd	-0.22775955
170	0xbe6849c0	-0.22684383
171	0x3e75f0dd	0.24017663
172	0x3db6d011	0.08926404
173	0x3e3b9c0c	0.18321246
174	0xbe732f57	-0.23748527
175	0xbe29b34f	-0.16572307
176	0xbe742b33	-0.23844604
177	0x3ecb76b7	0.3973901
178	0x3ebf7b9b	0.3739899
179	0x3eaea220	0.34108067
180	0x3e4b4d62	0.19853738
181	0x3e556eb2	0.20843008
182	0x3ebfc66d	0.37456074
183	0x3f173404	0.59063745
184	0x3f0d8527	0.552813
185	0x3f1099aa	0.5648447
186	0xbe0f588f	-0.13998626
187	0xbe309d56	-0.17247519
188	0xbe1d8049	-0.15380968
189	0x3c826e03	0.015921598
190	0x3d5be3c0	0.053683996
191	0x3d1f9592	0.038961
192	0x3ddd49a9	0.10805065
193	0x3da6665b	0.081249915
194	0x3d85423e	0.06506775
195	0x3eb1a9c0	0.3469982
196	0x3e73dedb	0.23815481
197	0x3ebf2786	0.3733484
198	0xbe47e689	-0.19521536
199	0xbe37c46d	-0.17946024
200	0xbd0ce78d	-0.03440051
201	0x3e82fa04	0.25581372
202	0x3e891bdc	0.26779068
203	0x3eb1c2cf	0.3471894
204	0x3e99791b	0.2997521
205	0x3ed3a6f7	0.41338322
206	0x3edd7925	0.43256488
207	0xbdd47b0b	-0.10375031
208	0xbe07c31a	-0.13258019
209	0xbe23ffad	-0.16015501
210	0x3e9623b8	0.29324126
211	0x3e263653	0.1623166
212	0x3e86c8fd	0.26325217
213	0xbe8c3109	-0.2738116
214	0xbe9c3977	-0.30512592
215	0xbe5c382b	-0.21505801
216	0x3d894c18	0.06703967
217	0x3e501fc0	0.20324612
218	0x3e32800b	0.17431657
219	0x3e976d08	0.29575372
220	0x3eaf8457	0.34280655
221	0x3ec8e9c6	0.39240855
222	0x3e118124	0.1420942
223	0x3dc73ba4	0.097281724
224	0xbc7ee52f	-0.015557571
225	0x3e094faa	0.13409296
226	0x3e417cbd	0.1889524
227	0x3b345df8	0.002752183
228	0x3e09c9e3	0.1345592
229	0x3e4b2ccc	0.19841307
230	0x3e81f6e5	0.25383678
231	0xbdf149ed	-0.11781678
232	0xbe33b3b8	-0.17549026
233	0xbe7ac175	-0.2448786
234	0xbecd9342	-0.4015141
235	0xbec0ea3d	-0.3767871
236	0xbefcc4e9	-0.4936898
237	0xbedbb5f0	-0.42912245
238	0xbed6fc89	-0.41989544
239	0xbedc5c55	-0.43039194
240	0x3e4c6e50	0.19963956
241	0x3d418ee8	0.047255427
242	0x3e1a1677	0.15047632
243	0xbe99cb6a	-0.30038005
244	0xbe20c6f9	-0.15700902
245	0xbeabb1bf	-0.33534047
246	0xbe985e96	-0.29759663
247	0xbe32d577	-0.17464243
248	0xbe880484	-0.26565945
249	0x3de0f119	0.10983486
250	0x3e644aa9	0.22294106
251	0x3e8f8f6c	0.2803911
252	0xbc517354	-0.012783844
253	0x3da14772	0.07874955
254	0xbd371f54	-0.04470761
255	0x3ddb89a0	0.10719609

conv2.bias f4 [64]
0	0x3eb17171	0.3465686
1	0x3e83c542	0.25736433
2	0x3e01674f	0.12637065
3	0x3de5ce72	0.11221017
4	0x3e609cb2	0.21934775
5	0x3e39d58c	0.18147868
6	0x3e6297ff	0.22128294
7	0x3ea8839e	0.32912916
8	0x3e028117	0.12744556
9	0x3e703604	0.23458105
10	0x3de385bc	0.11109492
11	0x3dcd11a8	0.10013133
12	0x3e866832	0.2625137
13	0x3e569c45	0.2095805
14	0x3e13270a	0.14370361
15	0x3ee71888	0.45135903
16	0x3e3d56f5	0.18490203
17	0x3e924d7e	0.28574747
18	0x3ea77280	0.32704544
19	0x3ea45fc8	0.32104325
20	0x3e357543	0.17720513
21	0x3e74be98	0.23900831
22	0x3e180dea	0.14849058
23	0x3e1e7fd1	0.15478446
24	0x3ec7fbd1	0.39059308
25	0x3e780f45	0.24224575
26	0x3e3db12d	0.18524618
27	0x3e33a7a9	0.17544426
28	0x3e2fb01f	0.17157029
29	0x3ec5b031	0.38610986
30	0x3e12e2e1	0.1434436
31	0x3e9cc0c3	0.30615816
32	0x3e1ce76a	0.15322652
33	0x3e8fcc9d	0.28085795
34	0x3ea9678d	0.33086815
35	0x3e186f4c	0.14886206
36	0x3e8e85fa	0.2783659
37	0x3eb65851	0.35614255
38	0x3e867543	0.2626134
39	0x3e5446de	0.20730159
40	0x3e8b66df	0.27226922
41	0x3eaf7d95	0.342755
42	0x3e3b27fe	0.18276975
43	0x3e0faebe	0.14031503
44	0x3e81539b	0.25259098
45	0x3e7555f4	0.2395857
46	0x3e315d7d	0.17320819
47	0x3e09ed0f	0.13469337
48	0x3e88ecf5	0.26743284
49	0x3e9fed82	0.31235892
50	0x3e7a0a3e	0.2441797
51	0xbcf4a50d	-0.029863859
52	0x3ea65e35	0.3249375
53	0x3e38715a	0.1801199
54	0x3e8dfe92	0.27733284
55	0x3e426afb	0.18986122
56	0x3e359d5e	0.17735812
57	0x3e5fedc8	0.2186805
58	0x3e20b995	0.15695794
59	0x3de28e7d	0.11062334
60	0x3e4e2f89	0.2013532
61	0x3e30e61d	0.17275281
62	0x3e935ffe	0.28784174
63	0x3e35ac11	0.1774142

fc1.weight f4 [128, 1397]
0	0xbd7de1df	-0.061982986
1	0xbd320039	-0.043457244
2	0xbd402909	-0.046914134
3	0x3c310812	0.010805147
4	0xbd025fa9	-0.03182951
5	0x3d1f24dd	0.038853515
6	0xbd014798	-0.031562418
7	0x3d0a658b	0.033788245
8	0xbd888c34	-0.066673666
9	0x3cec1d8d	0.028822685
10	0xbd16c72f	-0.03681105
11	0x3cb45288	0.02201201
12	0x3c99c331	0.018769832
13	0xbd88ee70	-0.06686103
14	0xbd34b6a4	-0.044119492
15	0x3cb50f83	0.022102123
16	0xbcf2730b	-0.029595872
17	0xbd5a3fc2	-0.05328346
18	0x3cb61393	0.02222613
19	0x3c1b2cb4	0.009471107
20	0xbd8906be	-0.06690739
21	0x3d3af108	0.04564002
22	0x3d34114e	0.043961816
23	0xbd049e5d	-0.03237759
24	0x3c52ff7d	0.012878296
25	0x3d29bbc1	0.04143882
26	0xbca4d137	-0.020119293
27	0x3d4f8c1e	0.050670736
28	0xbcd29c1b	-0.025709203
29	0xbd85edca	-0.06539495
30	0xbd393dfd	-0.045225132
31	0xbd5ab8c8	-0.053398877
32	0xbd8d9600	-0.06913376
33	0xbcffe48e	-0.031236913
34	0xbd177043	-0.036972295
35	0xbc991dec	-0.018691026
36	0xbc54ab14	-0.012980241
37	0x3cd65afa	0.026166428
38	0xbd2b8d8a	-0.04188303
39	0x3cfe5ec5	0.031051049
40	0x3d0a549e	0.033772103
41	0x3d4e49b1	0.050363246
42	0x3d311bf4	0.04323955
43	0xbd5fa37e	-0.054599278
44	0xbd30d1e5	-0.04316892
45	0x3cc48dc4	0.02399338
46	0xbd3ba65c	-0.04581295
47	0x3bd28941	0.0064250533
48	0x3b9ae791	0.004727312
49	0x3ceec33f	0.029145835
50	0xbc9df81f	-0.019283352
51	0xbd23a0c6	-0.039948247
52	0x3c35b4e2	0.011090489
53	0xbd8d6303	-0.069036506
54	0x3c0fa63f	0.0087676635
55	0x3d1995b2	0.037496276
56	0xbca7b02d	-0.02046975
57	0x3b907506	0.0044084815
58	0xbb21e02f	-0.0024700274
59	0xbd061116	-0.03273114
60	0xbd7ac737	-0.061225142
61	0x3d09e612	0.033666678
62	0x3d09b91f	0.03362381
63	0x3c85264c	0.016253613
64	0x3d04ce6d	0.032423425
65	0x3d4e5f6a	0.050383963
66	0x3b07beae	0.002071302
67	0xbd62ad7a	-0.05534122
68	0xba660b5f	-0.0008775498
69	0x3ce0808f	0.027405052
70	0xbb134cb9	-0.002247615
71	0xbd873774	-0.06602374
72	0x3d3307a1	0.043708447
73	0x3d2071fc	0.039171204
74	0xbc793205	-0.0152096795
75	0x3d1a3cf8	0.0376558
76	0xbc15c779	-0.009141796
77	0xbc0c07d9	-0.008546793
78	0xbd2ed891	-0.042687003
79	0x3c8e0ca1	0.017340006
80	0xbd8d2c3a	-0.06893201
81	0x3d022251	0.031771008
82	0x3d018a45	0.031626005
83	0x3d31d747	0.043418195
84	0xbd8dea8f	-0.06929504
85	0xbd0ce031	-0.034393493
86	0x3c8c0575	0.017092446
87	0xbc6e2a10	-0.014536396
88	0x3cc6f042	0.024284486
89	0x3d2b88a7	0.04187837
90	0xbd8754ca	-0.06607969
91	0xbd52944e	-0.051410966
92	0xbcb324fd	-0.021868223
93	0x3d2da93e	0.04239773
94	0x3ca247da	0.019809652
95	0x3c6129f3	0.013742912
96	0xbd66dd00	-0.056363106
97	0xbd824999	-0.06361694
98	0xbc26a5d3	-0.0101713715
99	0xbd80115a	-0.062533095
100	0x3d42d374	0.04756494
101	0x3d03b83c	0.03215812
102	0xbd130dbb	-0.035901766
103	0xbca86b05	-0.020558843
104	0xbd71ecff	-0.059063908
105	0xbd6da8a1	-0.058022145
106	0xbc10fad3	-0.008848864
107	0x3d60ce6e	0.054884367
108	0xbbd379d8	-0.006453734
109	0x3cc2d794	0.023784436
110	0x3d028e59	0.031874035
111	0xbcfb27c4	-0.03065861
112	0x3cc8c698	0.02450876
113	0x3b93b92c	0.004508158
114	0x3d3cf99f	0.046136495
115	0xbd6dd46d	-0.058063913
116	0xbcaa23b5	-0.02076898
117	0xbcfd4b47	-0.030919684
118	0x3ccd5ce7	0.025068713
119	0x3d28e318	0.0412322
120	0xbd7caf5c	-0.061690673
121	0xb988c594	-0.0002608715
122	0xbd8a0916	-0.06740014
123	0xbc56503d	-0.013080654
124	0xbcdb75a0	-0.026789486
125	0xbc9b2de1	-0.018942775
126	0xbc9aff84	-0.018920667
127	0xbd13822e	-0.03601282
128	0xbce9ce39	-0.028540717
129	0xbd849058	-0.06472844
130	0x3cfb7b10	0.03069833
131	0x3d38c0ce	0.045105748
132	0x3d3a86d7	0.04553875
133	0xbbaa47e4	-0.0051965583
134	0xbb4a4c08	-0.0030868072
135	0xbce31abd	-0.02772271
136	0x3c0119be	0.007879673
137	0x3d37c9f1	0.04487032
138	0x3c74c318	0.014939092
139	0x3d5dbb21	0.05413354
140	0xbd4f98c4	-0.050682798
141	0xbad3e06e	-0.0016164908
142	0xbc279bfd	-0.010230062
143	0xbcf0b225	-0.029381821
144	0x3cf76891	0.030201228
145	0xbd2196a9	-0.03945032
146	0x3ca2d247	0.019875659
147	0xbd368ad4	-0.04456599
148	0xbd65a73a	-0.056067683
149	0xbba6ab07	-0.005086306
150	0x3c8ca09b	0.017166426
151	0x3c885a53	0.016644632
152	0xbc38c472	-0.011277305
153	0xbd638110	-0.055543005
154	0xbc9148ba	-0.017734874
155	0x3d2fe913	0.042946886
156	0x3d47ce2d	0.04878061
157	0x3aad9b43	0.0013245124
158	0x3c600ad9	0.013674461
159	0x3d24673f	0.040137526
160	0x3d210c3d	0.039318312
161	0x3bda30db	0.006658656
162	0x3c023a6e	0.007948501
163	0xbd12e802	-0.03586579
164	0x3b87481a	0.004128468
165	0xbd419bcc	-0.04726772
166	0xbd6f6742	-0.058448084
167	0xbd225044	-0.03962733
168	0xbcedfb8b	-0.02905061
169	0xbd648bb3	-0.05579729
170	0xbd237b44	-0.039912477
171	0xbd277cd1	-0.04089052
172	0xbaa6177e	-0.0012671796
173	0xbd3f7d8a	-0.046750583
174	0xbcce2f7b	-0.025169125
175	0x3d53ec2e	0.05173891
176	0x3c98f187	0.018669857
177	0xbd1bc212	-0.038026877
178	0xbd11a49f	-0.035557386
179	0x3b295f0a	0.0025844001
180	0xbd8821ac	-0.066470474
181	0xbcbf0621	-0.023318352
182	0xbd8966ce	-0.067090616
183	0xbd0407ac	-0.03223388
184	0x3d35b26e	0.044359617
185	0x3c6f5bd7	0.014609299
186	0xbd8d909d	-0.069123484
187	0x3d480cd6	0.048840366
188	0x3c057cc1	0.008147419
189	0x3d4af8a3	0.049553525
190	0x3d20b8f6	0.039238892
191	0x3cf0f056	0.029411476
192	0x3d14abc9	0.03629664
193	0x3ce2b107	0.027672304
194	0xbd25ae92	-0.040449686
195	0x3d0520f7	0.03250214
196	0xbd5559ef	-0.05208772
197	0x3d153649	0.036428723
198	0x3bd07c44	0.00636247
199	0xbd4765b2	-0.04868097
200	0x3cd183c5	0.025575528
201	0xbb1b26c3	-0.0023674227
202	0xbd83a811	-0.064285405
203	0x3d0fd5a5	0.035115857
204	0x3d476cbd	0.048687685
205	0x3d0ddfc8	0.034637243
206	0xbd252ec3	-0.0403278
207	0x3ba05cb5	0.004893864
208	0xbc2d0003	-0.010559085
209	0x3d384cab	0.04499499
210	0x3d33ce2e	0.0438978
211	0x3d41c4c2	0.047306783
212	0x3d4ed5a5	0.050496716
213	0x3cdd2580	0.02699542
214	0x3d1a941f	0.037738916
215	0x3d2ece79	0.042677376
216	0xbd1af2da	-0.037829258
217	0xbd633a8c	-0.055475757
218	0xbd216856	-0.039406143
219	0xbd27d8e0	-0.040978312
220	0x3a7ac631	0.0009566276
221	0x3c855e8d	0.016280437
222	0x3d5b60e5	0.053559203
223	0x3d5aaa00	0.05338478
224	0xbd73cb69	-0.05952016
225	0xbd067fc9	-0.03283671
226	0xbd111307	-0.035418537
227	0xbd13930b	-0.036028903
228	0xbc7523fd	-0.014962194
229	0xbcfb36e7	-0.030665828
230	0x3d60e8ec	0.05490963
231	0xbba79480	-0.005114138
232	0x3d2fd18b	0.042924445
233	0xbd029ae4	-0.031885996
234	0xbd0da25c	-0.034578666
235	0xbcab229b	-0.020890525
236	0xbd11ff50	-0.035643876
237	0x3d2d7a7f	0.04235315
238	0xbc51ce93	-0.012805599
239	0x3d3bb052	0.04582245
240	0x3cc3eb0b	0.023915788
241	0xbb4132f4	-0.0029479833
242	0xbcedbdf7	-0.029021246
243	0xbd7c438c	-0.061587855
244	0xbb2e02b3	-0.0026551902
245	0xbd5a9358	-0.053363174
246	0x3d4f01f6	0.05053898
247	0xbd4b3217	-0.049608316
248	0xbd0fef9e	-0.035140626
249	0xb99ce322	-0.00029923866
250	0xbc887d2c	-0.01666125
251	0xbbb51c74	-0.0055270735
252	0xbc5ae03c	-0.013359126
253	0x3d0569f0	0.032571733
254	0x3d07bfe7	0.033141997
255	0x3d0da5b1	0.034581844

fc1.bias f4 [128]
0	0xbbfcab22	-0.0077108303
1	0xbbc5f6e8	-0.0060413964
2	0xbc20ece4	-0.009822104
3	0xbc150f80	-0.009097934
4	0x3c706afe	0.014673946
5	0xbbc4c9d4	-0.006005505
6	0xbc2f84bc	-0.010712799
7	0x40165110	2.3486977
8	0x3f85629a	1.0420716
9	0xbbdd16b8	-0.006747093
10	0x3f002bb4	0.50066686
11	0xbc486454	-0.012230951
12	0x400c2ccc	2.1902342
13	0xbbc4c9d8	-0.006005507
14	0xbbc59dea	-0.0060307877
15	0xbbde46ba	-0.0067833336
16	0x3ffcc44f	1.9747409
17	0x3fe52ab3	1.7903656
18	0xbc170c5f	-0.009219258
19	0xbbec08e1	-0.007203207
20	0x3d404f31	0.046950523
21	0xbc2d8ec4	-0.01059312
22	0x3fb1b2c1	1.3882676
23	0xbc4b7cce	-0.0124198925
24	0xbbf964d4	-0.0076108966
25	0xbbf1e564	-0.007382082
26	0xbc10e679	-0.008844011
27	0x3e04bde3	0.12963061
28	0x40078435	2.1174443
29	0xbc3370eb	-0.010952215
30	0x406aa980	3.6665955
31	0x3fee2bd2	1.8607123
32	0xbc0e3454	-0.008679468
33	0xbbc5974a	-0.006029998
34	0xbc161445	-0.009160106
35	0x3fbc0dfc	1.4691768
36	0x40372c97	2.8620965
37	0xbc045e69	-0.00807915
38	0xbbd2cb17	-0.0064329016
39	0xbbf47b39	-0.0074609783
40	0x406b4286	3.6759353
41	0x3fc74571	1.5568067
42	0x3d22350c	0.03960137
43	0x3ff4d801	1.9128419
44	0xbc12ca2f	-0.008959337
45	0x40022a07	2.0338151
46	0x3f875d99	1.0575439
47	0x4057be90	3.371006
48	0xbbf4fb64	-0.007476257
49	0xbc29856d	-0.010346753
50	0xbbf9581a	-0.0076093795
51	0xbc0e9fd4	-0.008705098
52	0x3fa1f72c	1.2653556
53	0x401a7138	2.4131603
54	0x3e926eae	0.28600067
55	0x401048ce	2.2544436
56	0xbc1f037e	-0.009705422
57	0x4006bff9	2.105467
58	0x3e9fb69b	0.31194004
59	0xbbee89fc	-0.0072796326
60	0xbc04d71d	-0.008107928
61	0x4013242b	2.2990825
62	0xbbc4c9d6	-0.006005506
63	0xbc053448	-0.008130141
64	0x3ff1b018	1.8881865
65	0xbc084726	-0.008317744
66	0xbbe731e8	-0.00705551
67	0x3fbd5d26	1.4794052
68	0xbbcb6d6d	-0.006208113
69	0x3dbdc465	0.09265975
70	0x40322414	2.783452
71	0x400bd4a9	2.1848547
72	0x401033a3	2.2531517
73	0x400a0948	2.1568165
74	0xbc4271f7	-0.011867992
75	0x404703d4	3.1096087
76	0xbbfa6627	-0.007641572
77	0xbc26d0e8	-0.010181643
78	0xbc08f9b7	-0.008360318
79	0xbd01a1b1	-0.03164834
80	0x3f6c4797	0.9229674
81	0x40185106	2.3799453
82	0x40287c8e	2.6326022
83	0xbbd7dd0b	-0.0065876297
84	0xbc22e305	-0.009941821
85	0x3e0151ea	0.12628904
86	0xbb9541dc	-0.00455497
87	0x3fc33252	1.5249732
88	0x4058bd7e	3.3865657
89	0x3d84d549	0.064859934
90	0x40471677	3.1107461
91	0x3ec5027b	0.38478455
92	0xbc13856e	-0.00900398
93	0x3fc182dc	1.511806
94	0xbc142a1c	-0.009043243
95	0xbc0a7f40	-0.00845319
96	0x3fe1c900	1.7639465
97	0xbc237c60	-0.009978384
98	0x3eab4cb9	0.33456972
99	0xbc0186d8	-0.007905684
100	0x4012c0e8	2.293024
101	0x402df4bb	2.7180622
102	0xbc324dd1	-0.010882811
103	0x3eaea9ea	0.3411401
104	0xbbe85ddd	-0.0070912675
105	0x4075cb82	3.8405461
106	0xbc275568	-0.0102132335
107	0x40732adb	3.7994907
108	0x402cc626	2.699594
109	0x3d90841f	0.0705645
110	0xbc33aff0	-0.01096724
111	0x3fbda1ba	1.481498
112	0xbc0e3a55	-0.0086809
113	0x400dc1d7	2.214956
114	0xbc35d33b	-0.011097725
115	0xbc02b40e	-0.007977499
116	0x3d822e0c	0.06356439
117	0xbbafa87e	-0.005360662
118	0x406dbcfc	3.7146597
119	0xbc0c48bd	-0.008562264
120	0xbbe3e3a2	-0.006954626
121	0xbbf7d4fb	-0.007563231
122	0x3f63ecb7	0.89033073
123	0xbc0371b1	-0.008022712
124	0x3ff7f136	1.9370487
125	0x4029c216	2.652471
126	0xbbe6ab88	-0.007039491
127	0xbbfaf807	-0.0076589617

fc2.weight f4 [14, 128]
0	0xbe3cca44	-0.18436533
1	0xbd0ebfd7	-0.03485092
2	0x3d0afbb9	0.033931468
3	0x3e35febb	0.17772953
4	0x3d4e985d	0.050438274
5	0x3dca465a	0.098767
6	0x3e2bba63	0.1677032
7	0xba598cb5	-0.000829886
8	0x3a3202ed	0.0006790597
9	0xbd94752e	-0.07248913
10	0x3a04c71c	0.000506507
11	0x3cb8a8ee	0.02254149
12	0xba48d557	-0.00076611846
13	0x3b6bfa6e	0.0036007422
14	0x3e211699	0.15731277
15	0x3e5a1cf4	0.21300107
16	0xbaa0ca1a	-0.0012267262
17	0xba846c60	-0.0010103099
18	0xbc7aae65	-0.015300368
19	0xbe3b5f50	-0.18298078
20	0x3da4465c	0.080212325
21	0xbdcfa368	-0.10138589
22	0x3b82b287	0.0039885673
23	0xbe341b0a	-0.1758844
24	0xbde27c26	-0.11058836
25	0x3e0fad06	0.14030847
26	0x3e3714e3	0.17879061
27	0x3e404d4e	0.1877949
28	0xba9cab9f	-0.0011953003
29	0x3e40f541	0.18843557
30	0xbc460dc1	-0.01208824
31	0x3ab61eda	0.0013894693
32	0x3e4a6bdf	0.19767712
33	0x3e561b24	0.20908791
34	0x3d597cf1	0.05309767
35	0x3a29f914	0.0006483954
36	0x3d550626	0.052007817
37	0xbe17d403	-0.1482697
38	0xbdea4a1a	-0.11439915
39	0x3d8eee5c	0.06979057
40	0x3d236e80	0.039900303
41	0x39f49146	0.00046647544
42	0xbc09ac25	-0.008402859
43	0x3c01307b	0.007885094
44	0x3c4eef95	0.012630363
45	0xba80e527	-0.0009833918
46	0x3aafda6e	0.0013416538
47	0xbd78017d	-0.060548294
48	0x3e524fee	0.20538303
49	0x3e2e2215	0.17005189
50	0x3d8d8c12	0.06911482
51	0x3d077b14	0.03307636
52	0x3ad339a8	0.0016115205
53	0x38995d12	7.312944e-05
54	0x3c7992df	0.015232771
55	0xbd662f10	-0.056197226
56	0xbb87cc67	-0.0041442397
57	0x3a50577b	0.0007947606
58	0x3da4640d	0.08026896
59	0xbd96e945	-0.073687114
60	0x3db97dbe	0.090571865
61	0xbb66a182	-0.003519148
62	0xbd95f54d	-0.07322178
63	0x3cd0d0e2	0.025490228
64	0xbac93399	-0.001535046
65	0xbe490200	-0.19629669
66	0xbe27f855	-0.16403325
67	0x3b64f804	0.0034937868
68	0xbe3a5b84	-0.18198973
69	0x3d3a121a	0.04542742
70	0x3c50247d	0.012704012
71	0x3aaded0f	0.0013269502
72	0x3b5cb26e	0.0033675688
73	0xbc8c3a81	-0.01711774
74	0x3d291954	0.04128392
75	0xbc709456	-0.014683804
76	0x3d862a3d	0.06551025
77	0x3e36a453	0.17836122
78	0x3e4b5fbc	0.19860739
79	0x3d9f5e63	0.07781675
80	0xbba7525d	-0.005106254
81	0x3a81d9cc	0.0009906827
82	0x3b12ab90	0.0022380091
83	0xbc477d7c	-0.012175914
84	0x3df70980	0.12062359
85	0x3b7bc265	0.0038415429
86	0xbdd78a5b	-0.10524436
87	0xbb33b381	-0.0027420225
88	0xbd11d27a	-0.035601117
89	0xbdb5e251	-0.08881057
90	0x3a85b122	0.0010199884
91	0xbaab1aca	-0.0013054248
92	0x3e370cc3	0.17875962
93	0xba8a6b89	-0.0010560612
94	0xbe0f9861	-0.14022972
95	0x3d8f82ef	0.070073955
96	0x3da3d5fb	0.07999798
97	0xbe4a3913	-0.19748335
98	0x3b85d3c9	0.0040840846
99	0xbe0ced01	-0.13762285
100	0x3a10abda	0.0005518772
101	0xbac559a4	-0.0015056622
102	0xbe10204d	-0.14074822
103	0x3c65c62a	0.014024297
104	0x3e3f265f	0.18666981
105	0x3ca44f6c	0.020057403
106	0x3e17bba8	0.14817679
107	0x3d623015	0.055221636
108	0xbbe3ea48	-0.0069554187
109	0xbde6eb17	-0.112753086
110	0xbe26c71b	-0.1628689
111	0x39fd22c8	0.00048281834
112	0x3ddb273a	0.10700841
113	0xbbafff36	-0.0053709997
114	0xbbce3a17	-0.006293546
115	0x3dc5c256	0.09656207
116	0x3dbb994f	0.09160101
117	0x3e58458f	0.21120284
118	0x3c8607b1	0.01636109
119	0x3e08c0e3	0.1335483
120	0x3d85c0ba	0.065309
121	0xbdee25fc	-0.11628339
122	0xb99dec07	-0.00030121228
123	0xbe439981	-0.19101526
124	0xbab9f3aa	-0.0014186997
125	0xbd859c2f	-0.0652393
126	0xbe48d399	-0.19611968
127	0xbe15d7dd	-0.14633127
128	0xbe2e641b	-0.17030375
129	0x3cce9d78	0.025221571
130	0xbda0006a	-0.07812579
131	0xbe374ba0	-0.17899942
132	0xbd5b79dd	-0.053583015
133	0xbd767ce5	-0.060177702
134	0xbe02623b	-0.12732784
135	0xbd705fda	-0.05868516
136	0x3d7ea3aa	0.0621678
137	0x3d87ae04	0.06624988
138	0x3d45907a	0.048233487
139	0x3e4f0a41	0.20218755
140	0xbc330d2c	-0.010928433
141	0xbc3b21ee	-0.011421664
142	0x3d72d97f	0.05928945
143	0xbd1a4f84	-0.03767349
144	0x3a0218fa	0.0004962828
145	0xbd081d2f	-0.033230957
146	0x3ddf3c69	0.10900194
147	0x3e581a34	0.21103746
148	0x3e2989e5	0.16556509
149	0x3d203c6a	0.039120115
150	0xbd9602ff	-0.0732479
151	0xbdf31ce8	-0.11870748
152	0x3d21e5e0	0.039525867
153	0xbe4215a4	-0.18953568
154	0x3d3aed67	0.04563656
155	0x3e2f2a75	0.1710604
156	0xbdd42ab3	-0.10359707
157	0xbe2e241b	-0.1700596
158	0x3e29836e	0.16554043
159	0xbd2b6c8b	-0.04185156
160	0xbdec32c2	-0.11533119
161	0xbde50eba	-0.111844495
162	0x3e150ed5	0.14556439
163	0xbd27dc72	-0.040981717
164	0xbd5eab39	-0.05436251
165	0xbe1ed419	-0.15510596
166	0xbbeab9a5	-0.007163244
167	0xbbf4eca1	-0.0074744974
168	0x3de0b771	0.10972489
169	0xbcd6c36d	-0.026216233
170	0x3e2d72a5	0.16938265
171	0xbe4e7cfa	-0.20164862
172	0xbd7500a7	-0.059815075
173	0xbd083b48	-0.03325966
174	0x3d91346f	0.07090079
175	0x3d5ba31c	0.05362235
176	0xbdad3d69	-0.08458979
177	0x3d54da12	0.05196578
178	0xbc7d1c0a	-0.01544858
179	0xbd3b6046	-0.04574611
180	0xbde5f1c5	-0.112277545
181	0xbcb66fcc	-0.022270106
182	0x3e22f7ab	0.1591479
183	0xbea6684a	-0.3250144
184	0xbe16afab	-0.1471545
185	0xbcce1eb3	-0.025161123
186	0x3dbbe325	0.09174184
187	0xbcf013e6	-0.029306363
188	0x3a69f12e	0.0008924183
189	0xbd806862	-0.062699094
190	0xbe36502f	-0.17804025
191	0xbe3f3eab	-0.1867625
192	0xbd5bb5da	-0.053640224
193	0x3dcc33b0	0.09970796
194	0x3ded020e	0.115726575
195	0x3db38e30	0.087673545
196	0xbe146b63	-0.1449409
197	0x3e0ae0ca	0.13562313
198	0xbda4e5ad	-0.0805162
199	0xbd569ef2	-0.052397676
200	0xbc00f399	-0.007870578
201	0xbd988295	-0.074467815
202	0xbdff789d	-0.12474177
203	0xbc63880e	-0.013887418
204	0x3e3c516d	0.18390436
205	0x3e02e89e	0.12784049
206	0x3cfc95e2	0.030833188
207	0x3e182d09	0.1486093
208	0x3e319fac	0.17346066
209	0x3d0a5c3c	0.033779368
210	0x3d7a5a9d	0.06112157
211	0x3d59e5db	0.053197723
212	0x3e48bbed	0.19602938
213	0x3d91579c	0.07096788
214	0x3e09d485	0.13459976
215	0xbd4e0d9e	-0.050305955
216	0x3e190441	0.14943029
217	0x3dd1d551	0.10245765
218	0xbc2ef4dc	-0.010678496
219	0x3da4c37d	0.08045099
220	0xbe47a3f4	-0.19496137
221	0xbbfcb8a5	-0.007712441
222	0xbd91e34b	-0.07123431
223	0xbe2d1aa9	-0.16904701
224	0xbd19a926	-0.03751483
225	0xbd4ad759	-0.049521778
226	0x3ddef89b	0.108872615
227	0xbe033ef7	-0.12816988
228	0xbd311efc	-0.04324244
229	0xbc195512	-0.009358661
230	0x3e1b549f	0.15168999
231	0x3d732f19	0.059371088
232	0xbde62ce5	-0.11239032
233	0x3ddf31c3	0.10898163
234	0x3df431b7	0.11923545
235	0x3e4f2f4b	0.20232885
236	0xbd4953d6	-0.049152218
237	0x3db2ba8e	0.08726989
238	0xbda3e63e	-0.080028996
239	0x3c962639	0.018328773
240	0x3e3f6c58	0.18693674
241	0xbea3d4bf	-0.3199825
242	0x3d9b7b6f	0.075919025
243	0x3d8e35e8	0.069438756
244	0x3e0a82e2	0.1352649
245	0xbc9c3966	-0.019070338
246	0x3e0767fe	0.13223264
247	0xbdc71fd6	-0.09722869
248	0x3df1e97d	0.118121125
249	0xbe317464	-0.17329556
250	0x3cc5573c	0.024089448
251	0x3e111d43	0.14171319
252	0xbc658c9b	-0.014010574
253	0x3e288c44	0.16459757
254	0xbe10f711	-0.14156748
255	0x3d2727d4	0.040809467

fc2.bias f4 [14]
0	0x3f5c0c36	0.8595613
1	0x410196b5	8.099294
2	0x3fecba4b	1.8494352
3	0x3fb6ede9	1.4291354
4	0x3fd27dc2	1.6444628
5	0x3efd56c3	0.49480256
6	0x3f276f31	0.6540404
7	0x3f3c1b79	0.7347942
8	0x3f3d983a	0.74060404
9	0x400e618d	2.224704
10	0x403b5993	2.9273422
11	0x3f38bc99	0.7216278
12	0x3f13d6bc	0.57749534
13	0x3ec1da6d	0.37861958
