Response14/state_dicts/model_state_dict_2500e.pth (torch, 216677 bytes, 8 tensors)

conv1.weight f4 [32, 128, 3]
0	0x3dfb2362	0.12262608
1	0x3df6b4bb	0.1204619
2	0x3dedd3aa	0.11612637
3	0xbd8b6d4c	-0.06807956
4	0xbd5c4a20	-0.05378163
5	0xbd0c0282	-0.03418208
6	0xbd79f46e	-0.061024122
7	0xbd8837f3	-0.066512965
8	0xbd9bb408	-0.076026976
9	0x3dd84a81	0.105610855
10	0x3ddd03d4	0.10791746
11	0x3dda375d	0.10655091
12	0xbe259a33	-0.16172104
13	0xbe288eb3	-0.16460685
14	0xbe29fbd7	-0.16599976
15	0xbdf49970	-0.119433284
16	0xbdeed8f9	-0.11662478
17	0xbdd9a0da	-0.10626383
18	0xbc17874e	-0.009248568
19	0xbbea7619	-0.0071551916
20	0xbb7b6824	-0.0038361633
21	0x3d9c1d8a	0.07622822
22	0x3db2ba1a	0.08726902
23	0x3dc4ed7b	0.09615608
24	0xbdd0fc36	-0.102043554
25	0xbdd8f3f4	-0.10593405
26	0xbde30b4a	-0.110861376
27	0xbc5637f3	-0.013074863
28	0xbcd954e5	-0.026529739
29	0xbd2a20a4	-0.041535035
30	0x3e05a092	0.13049534
31	0x3e02aafb	0.12760536
32	0x3df333ab	0.11875089
33	0x3d82d202	0.06387712
34	0x3d80f018	0.06295794
35	0x3d6d9366	0.0580019
36	0xbe279b8a	-0.16367927
37	0xbe2a6c54	-0.16642886
38	0xbe2b8691	-0.16750552
39	0x3ccaa1b0	0.024735302
40	0x3ce2c970	0.027683944
41	0x3cd8baf6	0.026456337
42	0x3dac10d2	0.08401646
43	0x3db88ff0	0.09011829
44	0x3dc8f668	0.09812623
45	0x3ba8604c	0.0051384326
46	0x3beac384	0.0071644206
47	0x3c158956	0.009126982
48	0x3d534156	0.05157598
49	0x3d7f6094	0.062347963
50	0x3d942ae6	0.07234745
51	0xbd1d8bb1	-0.0384633
52	0xbd36917e	-0.044572346
53	0xbd534c0c	-0.051586196
54	0xbd90a66a	-0.07062991
55	0xbd90978c	-0.07060155
56	0xbd92a104	-0.071596175
57	0x3cf1b191	0.029503616
58	0x3c83e46f	0.016100137
59	0x3b859724	0.0040768553
60	0x3d997238	0.074924886
61	0x3d8e64ce	0.06952821
62	0x3d761900	0.060082436
63	0x3d29ee46	0.041487
64	0x3d25d543	0.040486585
65	0x3d228243	0.03967501
66	0xbd4ed2b9	-0.05049393
67	0xbd2ef4d3	-0.04271395
68	0xbd20f120	-0.039292455
69	0x3bb8e3f0	0.0056424066
70	0x3c64b5bb	0.013959344
71	0x3ca86cf7	0.020559771
72	0x3e00363f	0.12520693
73	0x3dffb63e	0.12485932
74	0x3dfb4440	0.12268877
75	0x3e058f40	0.13042927
76	0x3e0c98f9	0.1373023
77	0x3e100de3	0.14067797
78	0x3e5b64ac	0.21425122
79	0x3e59d924	0.21274239
80	0x3e515e67	0.20446168
81	0x3c110935	0.008852293
82	0x3c641989	0.013922104
83	0x3cac1f82	0.021011118
84	0xbd5ec2bc	-0.054384932
85	0xbd650d55	-0.055920918
86	0xbd722acb	-0.05912284
87	0xbe046133	-0.12927704
88	0xbe115360	-0.14191961
89	0xbe1cc0ec	-0.15307969
90	0xbd9fa5e4	-0.07795313
91	0xbd85560a	-0.06510551
92	0xbd4dc8fa	-0.050240494
93	0x3d8acc58	0.06777257
94	0x3d7112e4	0.058855906
95	0x3d4d5ab0	0.050135314
96	0x3d8bae23	0.06820323
97	0x3d93554f	0.07194006
98	0x3d9ba247	0.07599311
99	0xbdf70e70	-0.120633006
100	0xbe06805c	-0.13134903
101	0xbe0eea5d	-0.1395659
102	0xbcdfce6a	-0.027320106
103	0xbcd06bc5	-0.025442014
104	0xbca983ce	-0.020692732
105	0xbbb991dd	-0.00566314
106	0x3c2e304a	0.01063163
107	0x3cbb77d6	0.02288429
108	0x3db7f604	0.08982471
109	0x3da8c959	0.08241529
110	0x3d9d99a2	0.07695319
111	0xbc7177d0	-0.014738038
112	0xbca0a0dd	-0.019607956
113	0xbca995f9	-0.020701395
114	0xbdb5a267	-0.088688664
115	0xbdbbd12e	-0.09170757
116	0xbdcd60d0	-0.10028231
117	0xbd246aa1	-0.04014075
118	0xbd5f1e03	-0.05447198
119	0xbda9607a	-0.082703546
120	0x3d678839	0.056526396
121	0x3d702684	0.05863048
122	0x3d71a94a	0.058999337
123	0x3d27227a	0.040804364
124	0x3d30fe04	0.043211
125	0x3d23e22c	0.040010616
126	0x3dbce31b	0.092230044
127	0x3dbd1a25	0.09233502
128	0x3dbd177e	0.092329964
129	0x3d2eeeaa	0.042708077
130	0x3d48a524	0.048985615
131	0x3d5b0480	0.05347109
132	0xbe04bd21	-0.12962772
133	0xbe02f201	-0.1278763
134	0xbe03e738	-0.12881172
135	0x3d4fd184	0.05073692
136	0x3d309843	0.043113958
137	0x3cf769c6	0.030201804
138	0xbcf1e588	-0.029528394
139	0xbcf2ae6e	-0.02962419
140	0xbcdc35d1	-0.02688113
141	0x3d0de590	0.034642756
142	0x3d11ad3a	0.035565592
143	0x3d140ec0	0.03614688
144	0x3d4e0256	0.050295196
145	0x3d192594	0.037389353
146	0x3c997608	0.01873304
147	0x3d680aa9	0.05665079
148	0x3d831c0c	0.06401834
149	0x3d8ee796	0.06977765
150	0x3e1cf463	0.15327601
151	0x3e1fdef4	0.15612394
152	0x3e1d5d74	0.15367681
153	0x3d190be2	0.037364848
154	0x3d05ac40	0.032634974
155	0x3cdcdccd	0.026960755
156	0xbe17ac9b	-0.14811938
157	0xbe119169	-0.14215626
158	0xbe08f96a	-0.13376394
159	0xbe637192	-0.22211292
160	0xbe63b2e5	-0.22236212
161	0xbe623264	-0.22089535
162	0x3e475592	0.19466236
163	0x3e449460	0.19197226
164	0x3e42a96d	0.19009943
165	0x3d3c5ca5	0.04598679
166	0x3d53e558	0.05173239
167	0x3d730ab5	0.059336383
168	0xbca3687d	-0.019947285
169	0xbc8afc12	-0.0169659
170	0xbc926036	-0.017868143
171	0xbd4c80c6	-0.049927495
172	0xbcd3e575	-0.02586625
173	0xbc2bcf78	-0.010486476
174	0xbd37d794	-0.044883326
175	0xbd864272	-0.06555642
176	0xbda5bf31	-0.080931075
177	0x3dca1fa4	0.09869316
178	0x3d9d849f	0.07691311
179	0x3d5483b8	0.05188343
180	0xbe1e48b9	-0.15457429
181	0xbe1950c1	-0.14972211
182	0xbe1117d9	-0.14169253
183	0xbbf52010	-0.007480629
184	0x3b46e7f0	0.0030350648
185	0x3c73d90a	0.014883289
186	0xbe135688	-0.14388478
187	0xbe1ce546	-0.15321836
188	0xbe242770	-0.16030669
189	0xbce57b76	-0.028012972
190	0xbd026f57	-0.031844463
191	0xbcff8c64	-0.031194873
192	0x3e356301	0.17713548
193	0x3e3191e5	0.1734081
194	0x3e2a87a0	0.166533
195	0x3ddbe0a9	0.1073621
196	0x3de4643e	0.11151932
197	0x3debd505	0.115152396
198	0x3e151e99	0.14562453
199	0x3e190b32	0.14945677
200	0x3e1a792e	0.15085289
201	0xbd971e64	-0.073788434
202	0xbd83c135	-0.06433336
203	0xbd589753	-0.05287869
204	0xbd0a425d	-0.033754695
205	0xbc52ef7a	-0.0128744785
206	0x3c1b4f58	0.009479366
207	0xbe33de71	-0.17565323
208	0xbe3be20c	-0.18347949
209	0xbe3eab7b	-0.18620102
210	0xbcc2da08	-0.023785606
211	0xbcb0ad12	-0.021566901
212	0xbcac3348	-0.021020547
213	0x3dbca30a	0.09210785
214	0x3db947ac	0.090468735
215	0x3db835c9	0.08994634
216	0x3d7e65aa	0.062108673
217	0x3d0dde5c	0.034635887
218	0x3c138877	0.009004704
219	0x3e1c8b46	0.15287504
220	0x3e1bc191	0.15210558
221	0x3e1a8eb0	0.15093493
222	0xbd5fefd7	-0.05467209
223	0xbd3113ba	-0.043231703
224	0xbd0886a4	-0.03333153
225	0xbd295b4e	-0.04134684
226	0xbd255abb	-0.04036973
227	0xbd0ca0e0	-0.03433311
228	0xbd00a141	-0.031403784
229	0xbccbbc92	-0.02487019
230	0xbcb3049c	-0.021852784
231	0xbd8c4a89	-0.06850154
232	0xbd9a45fe	-0.07532881
233	0xbda213fd	-0.07913969
234	0xbd9d975e	-0.076948866
235	0xbda505f8	-0.08057779
236	0xbdab4ebc	-0.08364627
237	0x3d7b4e28	0.061353832
238	0x3d6d7e44	0.057981744
239	0x3d5fa550	0.054601014
240	0xbc941e79	-0.018080937
241	0xbc0d1b48	-0.008612461
242	0x395da6f4	0.00021138397
243	0x3e015552	0.12630203
244	0x3e04b50e	0.12959692
245	0x3e046df1	0.12932564
246	0x3e01f639	0.12691583
247	0x3df8c0ce	0.121461496
248	0x3df13472	0.11777581
249	0x3c5bc960	0.013414711
250	0x3c4a66da	0.012353623
251	0x3c414358	0.011795841
252	0xbde01660	-0.10941768
253	0xbdcfaddf	-0.10140585
254	0xbdb63131	-0.08896101
255	0xbb38a8e8	-0.0028176848

conv1.bias f4 [32]
0	0xbed7aa3c	-0.42122066
1	0x389decb2	7.530431e-05
2	0xbef851fe	-0.48500055
3	0xbeddfbc0	-0.43356133
4	0xbeb04969	-0.34431008
5	0xbe5a4416	-0.21315035
6	0xbeed84f6	-0.46390504
7	0xbefd24ab	-0.49442038
8	0x234282d0	1.0544462e-17
9	0x37517bee	1.2486225e-05
10	0x3c0fdb4d	0.008780313
11	0xb2e0d2a3	-2.6172819e-08
12	0xbed83960	-0.42231274
13	0xbeb2597e	-0.34833902
14	0xbd1ae98b	-0.03782038
15	0xbee47bd9	-0.44625738
16	0xbeb76413	-0.35818538
17	0xbc36305c	-0.011119928
18	0x39dc2fb1	0.00041997203
19	0xbebf9848	-0.3742087
20	0xbef19bc1	-0.47189143
21	0x3ce5c10c	0.028046153
22	0x343efab6	1.7786337e-07
23	0xbec8d23f	-0.39222905
24	0xa4662a75	-4.9909262e-17
25	0x2a33e411	1.597752e-13
26	0xbeee2eaf	-0.46519992
27	0x3713469c	8.778323e-06
28	0xb21229a9	-8.507791e-09
29	0x2062d039	1.921184e-19
30	0xbe8fd0e1	-0.2808905
31	0x2132eade	6.061959e-19

conv2.weight f4 [128, 32, 3]
0	0xbaad2790	-0.0013210643
1	0x3bd682a1	0.006546334
2	0x3ab2a2d8	0.0013628853
3	0x3437ab5f	1.7105548e-07
4	0x33e8d026	1.0841204e-07
5	0x336c0e90	5.4961276e-08
6	0x3b4ebadc	0.0031544482
7	0xba7c1150	-0.0009615617
8	0xbb52c4f0	-0.003216084
9	0xbcb816d9	-0.022471832
10	0xbca6c85a	-0.020359207
11	0xbc2379bc	-0.009977754
12	0xbaab4af8	-0.0013068607
13	0x3b9fa550	0.0048720017
14	0x3c16bd6e	0.009200437
15	0x3cb559c6	0.022137534
16	0x3cf3d90e	0.029766586
17	0x3cfdee85	0.030997524
18	0x3cdfce80	0.027320147
19	0x3d11336f	0.03544944
20	0x3d203182	0.039109714
21	0xbcbbd21b	-0.022927335
22	0xbc1ec399	-0.009690189
23	0x3b60fbf8	0.0034329873
24	0x1c17b5cb	5.019667e-22
25	0x1c0ff58a	4.7632083e-22
26	0x1bda28c7	3.6091426e-22
27	0x30b987ed	1.3499154e-09
28	0x31af292b	5.0978506e-09
29	0x3251f30f	1.2220666e-08
30	0x362ec8c5	2.6044884e-06
31	0x3678a37a	3.7050036e-06
32	0x36a8477a	5.015111e-06
33	0xaf382df2	-1.6751026e-10
34	0xaf4a5a78	-1.8403934e-10
35	0xaf2790e5	-1.5240038e-10
36	0x3b4798e8	0.003045613
37	0x3c83facf	0.016110806
38	0x3ca1194c	0.019665383
39	0xbc62623b	-0.013817365
40	0xbc101dc8	-0.008796163
41	0xbc2b2596	-0.010445973
42	0x3c77b087	0.015117771
43	0x3c701c58	0.014655195
44	0x3c4ced22	0.012507709
45	0xbcaac586	-0.02084614
46	0xbc3c6345	-0.011498277
47	0xbbc2bb7a	-0.005942759
48	0x3d0ee201	0.034883503
49	0x3cc72e82	0.024314169
50	0x3c8e4fb5	0.017371992
51	0x3c8d06c3	0.017215138
52	0x3c910324	0.017701693
53	0x3c8e520f	0.017373113
54	0x346df496	2.2161325e-07
55	0x34a0cf7a	2.9953281e-07
56	0x34bd3b84	3.5247297e-07
57	0x3c3f8d3c	0.011691388
58	0x3cf2ddbc	0.029646747
59	0x3cde42eb	0.027131518
60	0x3b240f04	0.0025033364
61	0x3b0edfd4	0.0021800892
62	0x3ba786aa	0.0051124888
63	0x398dcc2f	0.00027045744
64	0x39d4c08e	0.00040579255
65	0x3a1b3ce2	0.0005921853
66	0x2bb71ee0	1.3011502e-12
67	0x2b812528	9.176314e-13
68	0x2bb55028	1.2883071e-12
69	0x3d3a1934	0.04543419
70	0x3d3c43f7	0.045963254
71	0x3d1f2406	0.038852714
72	0x9e93e586	-1.5659159e-20
73	0x9ec04b2c	-2.0359881e-20
74	0x9f05791c	-2.8264025e-20
75	0x22f1c1ee	6.552851e-18
76	0x22fccf14	6.852399e-18
77	0x22e7bf58	6.281527e-18
78	0xbd2e7f79	-0.042602036
79	0xbd19913c	-0.037492022
80	0xbce76bc8	-0.028249636
81	0x314be536	2.967068e-09
82	0x31856e94	3.8833807e-09
83	0x31ad3886	5.0413886e-09
84	0x2bc6bb5c	1.4120749e-12
85	0x2bdb5636	1.5584814e-12
86	0x2bff284a	1.8130022e-12
87	0x19b9705c	1.9173933e-23
88	0x19cc5461	2.1127186e-23
89	0x19c3c622	2.0242553e-23
90	0x3beda12a	0.0072518783
91	0x3c0ef176	0.008724561
92	0x3c5360e9	0.012901523
93	0x19ebbf52	2.4375704e-23
94	0x1a1bd047	3.2221494e-23
95	0x1a3c7b8d	3.8977292e-23
96	0xbc87a182	-0.016556505
97	0xbc782d19	-0.015147471
98	0xbc04130a	-0.00806118
99	0xb0636701	-8.2728496e-10
100	0xb05ef95e	-8.11175e-10
101	0xb05c5f54	-8.0171003e-10
102	0x3c3aaf30	0.011394307
103	0x3b7c7709	0.00385231
104	0xbb50f260	-0.0031882748
105	0xbc955b58	-0.018232033
106	0xbcf2dd85	-0.029646644
107	0xbcf3c742	-0.0297581
108	0x3d052f8c	0.032516047
109	0x3cf6f32c	0.03014525
110	0x3ccf723c	0.025323026
111	0xbb02589c	-0.001988924
112	0xbbf63947	-0.007514152
113	0xbc0aa5ef	-0.008462413
114	0x3d261203	0.04054452
115	0x3d2e8d73	0.042615365
116	0x3d323727	0.04350963
117	0x3c6cc1c1	0.014450491
118	0x3c990eb8	0.018683776
119	0x3cccbaa4	0.024991341
120	0x18d85f7f	5.5931118e-24
121	0x18c35967	5.049659e-24
122	0x19005ecf	6.636591e-24
123	0xb0227f6e	-5.9116345e-10
124	0xb00b1692	-5.059998e-10
125	0xb012cd32	-5.340609e-10
126	0x32752530	1.4269332e-08
127	0x331e6edc	3.6888068e-08
128	0x3311b234	3.3922518e-08
129	0xaec6e20a	-9.04415e-11
130	0xaef4f4e2	-1.1139335e-10
131	0xaf2473ad	-1.495681e-10
132	0xbc941117	-0.018074555
133	0xbca1c79f	-0.019748507
134	0xbc978a73	-0.018498635
135	0xbd541b6a	-0.051783957
136	0xbd460d8f	-0.048352774
137	0xbd3b1eb6	-0.045683585
138	0xbc1f2fa0	-0.0097159445
139	0xbc8f9222	-0.017525736
140	0xbc8996b9	-0.016795503
141	0xbd058f44	-0.032607332
142	0xbcff01c4	-0.031128772
143	0xbc8d2a11	-0.017231973
144	0xbbb2bcad	-0.005454621
145	0xbc5456be	-0.012960134
146	0xbc934559	-0.017977403
147	0x3a73c389	0.00092988514
148	0x3a7d3064	0.0009658395
149	0x3aae482b	0.0013296654
150	0xb106a10d	-1.9591113e-09
151	0xb119d763	-2.2386863e-09
152	0xb1505109	-3.0314047e-09
153	0x3c2f2339	0.01068955
154	0x3b4571f8	0.0030127745
155	0x3b7f11bc	0.0038920483
156	0xbc928c55	-0.017889181
157	0xbc705074	-0.014667619
158	0xbbb198ea	-0.00541984
159	0x363bb3bb	2.7969788e-06
160	0x365009c0	3.100009e-06
161	0x369098e2	4.3093323e-06
162	0x2a21272d	1.4313264e-13
163	0x2a206d9c	1.4248883e-13
164	0x2a1eeb05	1.4114758e-13
165	0x3cf1519f	0.029457865
166	0x3d0aa358	0.033847183
167	0x3d1580b4	0.036499694
168	0x1adf9625	9.247321e-23
169	0x1ad545d8	8.8207574e-23
170	0x1add414c	9.150895e-23
171	0x1f3f9c70	4.0575225e-20
172	0x1f3323ca	3.793433e-20
173	0x1f2ba662	3.6348287e-20
174	0xbc9e5033	-0.019325351
175	0xbbff5a58	-0.0077927522
176	0x3c192262	0.009346576
177	0xaeed0dfd	-1.0779997e-10
178	0xaed27ba3	-9.571657e-11
179	0xaefbd1eb	-1.14514474e-10
180	0x286fc378	1.3309551e-14
181	0x27e3f50c	6.3270837e-15
182	0x2741bc62	2.6886253e-15
183	0x9512026e	-2.9486382e-26
184	0x9504db98	-2.6830417e-26
185	0x951b6616	-3.1382532e-26
186	0xbc79e0ec	-0.015251379
187	0xbc7d5fb6	-0.015464714
188	0xbba0aa9a	-0.00490315
189	0x1621a693	1.3058038e-25
190	0x16119f61	1.1763298e-25
191	0x163e2b89	1.5361815e-25
192	0xbcf0b538	-0.029383287
193	0xbcf52818	-0.029926345
194	0xbce66562	-0.028124515
195	0x33a3c010	7.625215e-08
196	0xb3a21fed	-7.54952e-08
197	0xb46bc35a	-2.1957149e-07
198	0xbca8ef26	-0.020621847
199	0xbcc62e7f	-0.024192093
200	0xbce9e3b6	-0.028550964
201	0xbd11eb9d	-0.03562509
202	0xbd098e23	-0.033582818
203	0xbcc33f62	-0.023833934
204	0xbc047137	-0.008083633
205	0xbbc85df2	-0.006114715
206	0xbba3bf2e	-0.0049971556
207	0xbcde57b4	-0.02714143
208	0xbce073c0	-0.027398944
209	0xbcd30a76	-0.025761824
210	0x3cb53c4e	0.022123482
211	0x3cd934e6	0.026514482
212	0x3ce8b370	0.028405875
213	0xbbe0ecbf	-0.00686416
214	0xbb89a458	-0.0042004995
215	0x38551940	5.0806673e-05
216	0x9ea1e1c7	-1.7139917e-20
217	0x9e9c2e5e	-1.653632e-20
218	0x9e9339f1	-1.5588194e-20
219	0xb3c62ce8	-9.228262e-08
220	0xb3b04319	-8.207844e-08
221	0xb3a10739	-7.4984605e-08
222	0xb80e910c	-3.3990524e-05
223	0xb8023b1f	-3.1049476e-05
224	0xb7ee5aeb	-2.8414148e-05
225	0xb198f333	-4.451431e-09
226	0xb193d963	-4.302977e-09
227	0xb18e4210	-4.1402544e-09
228	0xbd213fc4	-0.039367452
229	0xbd1f6b6a	-0.038920797
230	0xbd278052	-0.04089386
231	0xbcc4e754	-0.024036087
232	0xbccfeb74	-0.025380827
233	0xbca88a36	-0.020573717
234	0xbd25edac	-0.040509865
235	0xbd1b3cdb	-0.037899833
236	0xbd0f5f18	-0.035002798
237	0xbca4d0d6	-0.020119112
238	0xbc8cdda2	-0.017195527
239	0xbc5be4fa	-0.0134212915
240	0xbc85b639	-0.016322242
241	0xbc8b5d52	-0.017012272
242	0xbc35a948	-0.011087723
243	0xbc5ec434	-0.013596583
244	0xbc4dc8c5	-0.012560074
245	0xbc4201b3	-0.011841225
246	0xb5f45d1a	-1.8206513e-06
247	0xb5e27c0a	-1.6874412e-06
248	0xb5cdeca1	-1.5342558e-06
249	0xbd323e51	-0.04351646
250	0xbd43c81d	-0.047798265
251	0xbd3277eb	-0.043571394
252	0xbc919735	-0.017772296
253	0xbc966e7a	-0.018363226
254	0xbc876e48	-0.016532078
255	0xbb46aa69	-0.0030313975

conv2.bias f4 [128]
0	0xbcd9322b	-0.02651318
1	0xbc83baff	-0.016080378
2	0x3c33fd04	0.010985617
3	0xbc7e0b6b	-0.015505652
4	0xbde8c4e5	-0.1136568
5	0xbdf4fa13	-0.1196176
6	0xbceb8acc	-0.028752707
7	0xbccfe3c7	-0.025377167
8	0xbcf0af48	-0.029380456
9	0xbdbc0ec0	-0.09182501
10	0xbb648e98	-0.0034875032
11	0xbb1e21e3	-0.0024129085
12	0xbe0ace1b	-0.13555185
13	0xbd1fd51f	-0.039021607
14	0xbc883906	-0.016628753
15	0xbcefb701	-0.029262068
16	0x3cffa579	0.031206833
17	0xbdf1c419	-0.11804981
18	0xbd350337	-0.04419252
19	0xbb252efc	-0.0025205007
20	0x3bb75633	0.0055949925
21	0xbd3ebd7f	-0.046567436
22	0xbd4d5179	-0.050126527
23	0xbdbf6fb5	-0.09347478
24	0xbe2378fa	-0.15964118
25	0xbd4ccf0f	-0.050002154
26	0xbd85d0f9	-0.06533999
27	0xbd6d523e	-0.05793976
28	0xbdac6a14	-0.0841867
29	0xbdbfd67d	-0.09367082
30	0xbc864832	-0.016391847
31	0xbd9ea432	-0.077461615
32	0xbdc21888	-0.09477335
33	0xbda5aaa1	-0.080891855
34	0xbd9a3fdc	-0.075317115
35	0xbcbfa1c8	-0.023392573
36	0xbcfd0a39	-0.030888664
37	0xbd7bfcb1	-0.061520282
38	0xbc9467f0	-0.018115968
39	0xbd27cedb	-0.040968757
40	0xbde16264	-0.11005095
41	0xbe1ff315	-0.15620072
42	0xbe24b5fc	-0.16085047
43	0xbda6008a	-0.081055716
44	0xbd86ae4f	-0.065762155
45	0xbc891454	-0.016733326
46	0xbc47ca8a	-0.012194285
47	0xbe02ac83	-0.1276112
48	0xbd1f5993	-0.038903784
49	0xbc9e8753	-0.019351637
50	0xbc864cec	-0.016394101
51	0xbdfa0c4f	-0.12209379
52	0xbcbcb11e	-0.023033675
53	0xbd42d754	-0.047568634
54	0xbd0d9c00	-0.0345726
55	0xbd64ad4c	-0.05582933
56	0xbda147c1	-0.07875014
57	0xbdb97fe0	-0.09057593
58	0xbbef0676	-0.0072944714
59	0x3b13454e	0.0022471729
60	0xbde5e132	-0.11224593
61	0xbdc1edf4	-0.09469214
62	0xbc9d4a38	-0.01920043
63	0xbd97dd66	-0.07415275
64	0xbe0f39f3	-0.1398695
65	0xbd5350c9	-0.051590715
66	0xbe03752d	-0.12837668
67	0xbd86d260	-0.065830946
68	0xbd9fb67a	-0.077984765
69	0xbb8cb96a	-0.004294564
70	0xbdce5328	-0.100744545
71	0xbd553404	-0.05205156
72	0xbc966457	-0.018358393
73	0xbdb02b12	-0.08601965
74	0xbd2120ef	-0.03933805
75	0xbdeb4f8a	-0.1148978
76	0xbda9533e	-0.0826783
77	0xbd048e71	-0.032362405
78	0xbd141719	-0.03615484
79	0xbe440ade	-0.1914477
80	0xbcfbae4f	-0.030722765
81	0xbe4f6825	-0.20254572
82	0xbd14de58	-0.036344856
83	0x3ccc96d1	0.024974259
84	0xbd16a24b	-0.03677587
85	0x3c6a3b47	0.014296359
86	0x3a8ca998	0.0010731695
87	0xbc7d24e0	-0.015450686
88	0xbd953805	-0.072860755
89	0xbdce4402	-0.10071565
90	0x3bf2ca32	0.0074093575
91	0xbb17cd59	-0.0023163168
92	0xbcaec528	-0.021334246
93	0xbb429728	-0.0029692147
94	0xbd5db38d	-0.05412631
95	0xbde1842f	-0.1101154
96	0xbc23cfcd	-0.009998274
97	0xbd8ef79e	-0.06980823
98	0xbdc269dd	-0.09492848
99	0xbc295ed6	-0.010337552
100	0xbd6ba004	-0.05752565
101	0xbe151fca	-0.14562908
102	0xba3eab20	-0.00072734244
103	0xbd5aa335	-0.053378303
104	0xbce89c0e	-0.028394725
105	0xbd30204d	-0.042999554
106	0xbd8ec5d8	-0.069713295
107	0xbc854b0e	-0.01627114
108	0xbcb4520c	-0.02201178
109	0xbcd87b9f	-0.026426135
110	0xbcafdf88	-0.021468893
111	0xbd988bf8	-0.07448572
112	0xbdf663dd	-0.12030766
113	0xbdc18df3	-0.09450903
114	0xbd93fc4f	-0.072258584
115	0xbcbf2035	-0.023330787
116	0xbd4e0215	-0.050294954
117	0xbe20bc9f	-0.15696953
118	0xbc31ab66	-0.010844087
119	0x3ba70d00	0.0050979853
120	0xbd8d5174	-0.069003016
121	0xbd3e40cf	-0.046448525
122	0xbdac9b57	-0.08428066
123	0xbd53efc8	-0.051742345
124	0x3b13bc76	0.0022542751
125	0xbd3d9250	-0.046282113
126	0xbd7e50bd	-0.062088717
127	0xbb936029	-0.004497547

fc1.weight f4 [256, 97]
0	0x3c11d69c	0.0089012645
1	0x3b19876c	0.0023426665
2	0x3c020ed4	0.007938106
3	0xbbb04dc4	-0.005380364
4	0xbccb6093	-0.024826324
5	0xbcb15083	-0.021644836
6	0xbc7e4bf4	-0.015521038
7	0xbb9d2e38	-0.0047967695
8	0x3c92a662	0.017901603
9	0x3d0e0842	0.034675844
10	0xbac72478	-0.0015193364
11	0x3b53a5fc	0.003229498
12	0x3cbc3452	0.022974167
13	0xbc917417	-0.017755551
14	0xbd8b993b	-0.06816336
15	0xbdafaca9	-0.08577854
16	0xbdaeee58	-0.08541554
17	0xbdab06d0	-0.08350909
18	0xbdab2e42	-0.08358432
19	0xbdac1431	-0.08402289
20	0xbdaa052e	-0.08301769
21	0xbd9fd537	-0.078043394
22	0xbd89dd2a	-0.06731637
23	0xbd5b4cce	-0.053540044
24	0xbd2d17d2	-0.042259045
25	0xbd0c56d0	-0.03426248
26	0xbce176a5	-0.027522394
27	0xbcc62e8c	-0.024192117
28	0xbcb5c986	-0.02219082
29	0xbc8291d0	-0.01593867
30	0xbb9a291c	-0.0047046077
31	0x3b5fd9dc	0.0034156954
32	0x3b79ceea	0.0038117715
33	0x3ace8ce4	0.0015758541
34	0xb8ca5780	-9.648409e-05
35	0x395567c0	0.00020351913
36	0x3ad32c44	0.0016111215
37	0x3b57a8c0	0.003290698
38	0x3b4b78e8	0.0031047408
39	0x3a9df1fe	0.0012050269
40	0x3c544ba8	0.012957491
41	0x3d1ae3bf	0.03781485
42	0x3cfed586	0.031107675
43	0x3cf768c8	0.03020133
44	0x3d191ae3	0.037379157
45	0x3d240b60	0.04004991
46	0x3d0b856f	0.0340628
47	0x3c3bbf8c	0.011459243
48	0xbc80b4ba	-0.015711177
49	0xbadd8126	-0.0016899451
50	0x3c46441f	0.012101202
51	0xbbd79d12	-0.0065800035
52	0xbd39c530	-0.04535407
53	0xbd8c37e9	-0.068466015
54	0xbd96a842	-0.073563114
55	0xbda2c6ad	-0.07948051
56	0xbda9b0b3	-0.08285656
57	0xbd9c65ea	-0.07636626
58	0xbd8e7662	-0.069561735
59	0xbd8cdb22	-0.06877734
60	0xbd93b9ac	-0.072131485
61	0xbd96acbc	-0.07357165
62	0xbd93ef3a	-0.07223363
63	0xbd8a6ccd	-0.06759033
64	0xbd645446	-0.055744432
65	0xbce755ca	-0.02823915
66	0x3c631e5e	0.013862221
67	0x3d043f1b	0.032286745
68	0x3c2f9f9b	0.010719205
69	0x3b5fbf58	0.003414115
70	0xbac75bb0	-0.001520982
71	0xbbcbf41e	-0.0062241694
72	0xbc2d5efe	-0.01058173
73	0xbc6dd9f2	-0.014517294
74	0xbc843ee1	-0.016143264
75	0xbc5c1851	-0.013433532
76	0xbbdc83b0	-0.0067295656
77	0xbb596d24	-0.0033176625
78	0xbbcd8498	-0.00627191
79	0xbc0c591b	-0.008566166
80	0xbc0f9fd7	-0.008766136
81	0xbc03158e	-0.0080007445
82	0xbbb22b1b	-0.0054372675
83	0x3d0bbe41	0.034116987
84	0x3c444ec8	0.011981674
85	0x3b4747e0	0.003040783
86	0xb965c100	-0.0002191104
87	0xbc9148b9	-0.017734872
88	0xbd62272e	-0.055213146
89	0xbdb16c14	-0.086631924
90	0xbdcf781a	-0.101303294
91	0xbde11efd	-0.10992239
92	0xbdde9dfa	-0.108699754
93	0xbdcb819d	-0.09936831
94	0xbdb3c304	-0.08777431
95	0xbd98acef	-0.074548595
96	0xbd6690a6	-0.05629029
97	0xbd811ab2	-0.0630392
98	0xbd7511bf	-0.059831377
99	0xbcb0381c	-0.02151113
100	0x3c7d76c2	0.015470209
101	0x3ccf8642	0.025332574
102	0x3ce2ee08	0.027701393
103	0x3cead70e	0.028667
104	0x3d1174ee	0.035511903
105	0x3d321f32	0.04348678
106	0x3cd44872	0.02591345
107	0xbcb14c62	-0.021642867
108	0x3c595e96	0.01326718
109	0x3c858e56	0.016303223
110	0x3c130fd3	0.008975941
111	0xbbfd5c3b	-0.007731942
112	0xba1521b0	-0.0005688919
113	0x3c7c2146	0.015388792
114	0x3cb71fbc	0.022354
115	0x3cd742c9	0.026276963
116	0x3cdd0814	0.026981391
117	0x3cc64468	0.02420254
118	0x3c9e5d00	0.019331455
119	0x3c600df3	0.013675201
120	0x3c0dd724	0.008657251
121	0x3ba128f6	0.004918213
122	0x3b95a390	0.0045666173
123	0x3c05c7f0	0.008165345
124	0x3c69aae9	0.01426194
125	0x3c8de118	0.017319247
126	0x3c63cfe4	0.013904545
127	0x3bb0c088	0.0053940453
128	0xbab90380	-0.0014115423
129	0xbaa7c387	-0.001279936
130	0x3ad79432	0.0016447364
131	0x3b40931c	0.002938456
132	0x3b2d2c10	0.0026423968
133	0x3af7330e	0.001885982
134	0x3b5de2a7	0.003385702
135	0x3c318166	0.010834074
136	0x3c0ac428	0.008469619
137	0xbc6849d0	-0.0141777545
138	0x3c78d10b	0.0151865585
139	0x3cb46eec	0.022025548
140	0x3ca3efd4	0.02001182
141	0x3c7624d7	0.015023432
142	0x3be31d8a	0.0069310116
143	0xbbb81db6	-0.005618776
144	0xbce2b49d	-0.027674014
145	0xbd3fb7ae	-0.04680603
146	0xbcb9f996	-0.02270202
147	0xbc21d482	-0.009877326
148	0x3be414d6	0.0069604916
149	0x3b971834	0.0046110395
150	0xbbf0b932	-0.0073462958
151	0x3b0b7ff8	0.0021285992
152	0x3cfe9d80	0.031080961
153	0x3ce242e4	0.027619787
154	0x3c89f0b5	0.01683841
155	0x3c44985f	0.011999219
156	0x3c5d9a85	0.01352561
157	0x3c930392	0.017946038
158	0x3cbcdaaa	0.023053486
159	0x3cde588c	0.027141832
160	0x3cdb94c0	0.026804328
161	0x3c943bcb	0.018094918
162	0x3a02f440	0.00049955025
163	0xbcad1af2	-0.021131013
164	0xbc8eb649	-0.017420905
165	0xba685dc0	-0.00088640675
166	0x3afb7064	0.0019183275
167	0x3b16fbe0	0.0023038313
168	0x39a39f40	0.00031208433
169	0xba9cd154	-0.001196424
170	0xbae2c204	-0.0017300253
171	0xbb65b6a0	-0.003505148
172	0xbc08557b	-0.008321161
173	0xbc2c90ea	-0.010532597
174	0xbbefb546	-0.0073153106
175	0xba2a6780	-0.0006500408
176	0x3a723420	0.00092393346
177	0xbc15cffa	-0.009143824
178	0xbcbbba82	-0.022916082
179	0xbd0f8c52	-0.03504593
180	0x3c362ca5	0.0111190425
181	0x3cea18ea	0.028576333
182	0x3cf4631a	0.029832412
183	0x3cfbcef1	0.030738326
184	0x3cfc2cff	0.030783175
185	0x3cdcdb92	0.026960168
186	0x3d0421e8	0.032258898
187	0x3d2661c6	0.040620588
188	0x3d32fff4	0.043701127
189	0x3d26c5db	0.040716033
190	0x3d0866d8	0.033301204
191	0x3cd2729a	0.025689412
192	0x3cbd2cc2	0.023092631
193	0x3cb02904	0.021503933
194	0x3d050370	0.03247398
195	0x3cd230d9	0.025658058
196	0x3c852151	0.016251238
197	0x3c994641	0.018710257
198	0x3cd6a66d	0.026202405
199	0x3ca0f380	0.01964736
200	0x3bdba840	0.0067034066
201	0x3b797aca	0.0038067573
202	0x3b640537	0.0034793147
203	0x3bb6dbce	0.005580402
204	0x3c026c65	0.007960414
205	0x3c46962d	0.012120766
206	0x3cbebb4e	0.023282673
207	0xbcb8487e	-0.022495504
208	0xbd87025f	-0.06592249
209	0xbdb17fe2	-0.0866697
210	0xbdbd6d3c	-0.092493504
211	0xbdbee7ee	-0.09321581
212	0xbdc1189c	-0.09428522
213	0xbdc0bdba	-0.094111875
214	0xbdb79fb7	-0.0896601
215	0xbd9f7d0e	-0.07787524
216	0xbd73b386	-0.05949738
217	0xbd233dd4	-0.039853886
218	0xbcbd0949	-0.023075717
219	0xbbe55df4	-0.0069997255
220	0x3c407acf	0.01174803
221	0x3c979e98	0.01850824
222	0x3c1278ed	0.008939964
223	0x3acbbde6	0.0015544265
224	0xbb19c31d	-0.0023462244
225	0xbb7129ac	-0.003679852
226	0xbb63bd86	-0.0034750416
227	0xbb2e12d4	-0.0026561515
228	0xbad8c169	-0.0016537133
229	0x37bab3c0	2.225663e-05
230	0x3af8cfde	0.0018982848
231	0x3b7bb1ee	0.0038405615
232	0x3bd1d3fc	0.0064034443
233	0x3be10dd5	0.006868104
234	0x3b480a95	0.0030523886
235	0x399afd90	0.00029562088
236	0x39bac4d0	0.0003562332
237	0x39cc8fd0	0.0003901706
238	0xb86f9d80	-5.7128724e-05
239	0xbafe04b8	-0.0019380068
240	0xbb884b4c	-0.0041593667
241	0xbbb23bf1	-0.0054392745
242	0xbb960032	-0.00457766
243	0x3a8aca4a	0.0010588851
244	0x3c77633e	0.015099345
245	0x3c231fa7	0.009956277
246	0xbceed828	-0.029155806
247	0xbd7c7f4d	-0.06164484
248	0xbd9ff2dc	-0.078099936
249	0xbda5b7ee	-0.080917224
250	0xbd94ea4e	-0.072712526
251	0xbd6f5958	-0.058434814
252	0xbd470394	-0.048587397
253	0xbd49992b	-0.049218338
254	0xbd688cfb	-0.056775074
255	0xbd828cd0	-0.06374514

fc1.bias f4 [256]
0	0x3d2f183e	0.04274773
1	0xbd117cfa	-0.035519578
2	0x3d16d6fe	0.036826126
3	0x3c77ad0c	0.015116941
4	0xbda9886c	-0.082779735
5	0xbc6fa1d4	-0.014625985
6	0x3dddbc83	0.108269714
7	0xbcddcd34	-0.027075388
8	0xbd198698	-0.037481874
9	0xbde7746f	-0.11301505
10	0xbbaa01ca	-0.0051882016
11	0x3e7709d3	0.24124841
12	0xbd0d00d8	-0.034424633
13	0xbbcc95cf	-0.0062434445
14	0x3db50784	0.08839324
15	0x3c39ed48	0.011348076
16	0x3cfe3cbc	0.03103482
17	0x3d7124b0	0.05887288
18	0xbdc878ab	-0.097886406
19	0x3ce565ce	0.028002646
20	0x3e577917	0.21042286
21	0x3d91986b	0.071091495
22	0xbccab4f2	-0.024744485
23	0xbdf4cfdf	-0.11953711
24	0xbc26674d	-0.010156465
25	0x3d546878	0.05185744
26	0xbdf30bd2	-0.11867489
27	0x3dbf0ec8	0.09328991
28	0x3e074e2b	0.13213412
29	0xbd64f686	-0.055899166
30	0x3e2ebf4c	0.17065161
31	0xbdd7ec64	-0.10543135
32	0xbdf9c656	-0.12196033
33	0x3da063ae	0.078315124
34	0x3e7339ab	0.23752467
35	0x3e436e60	0.19085073
36	0x3ddba668	0.10725099
37	0xbd855460	-0.06510234
38	0xbcc58d8c	-0.024115346
39	0xbdb17f22	-0.08666827
40	0xbdae8aa6	-0.08522539
41	0x3c463846	0.012098378
42	0x3e0a5df3	0.13512401
43	0xbd9eaa30	-0.077473044
44	0x3d6ca7b6	0.05777713
45	0xbdd5e928	-0.10444862
46	0xbc28e03a	-0.010307366
47	0xbc8766bb	-0.016528478
48	0x3d5d9209	0.054094348
49	0xbd890e7c	-0.06692216
50	0xbd8669ea	-0.0656317
51	0xbd75bfbd	-0.05999731
52	0x3e27fa5d	0.164041
53	0xbdaad744	-0.0834184
54	0x3c7bf903	0.015379193
55	0xbb2a61a4	-0.002599814
56	0xbdbe5858	-0.09294194
57	0xbdd99770	-0.106245875
58	0x3cc20568	0.023684219
59	0x3ea0cb79	0.31405237
60	0xbb4675d0	-0.0030282624
61	0xbd1ec820	-0.038765073
62	0x3e9a2b3a	0.30111104
63	0xbb2fb6b6	-0.0026811785
64	0x3e70fa13	0.23532896
65	0x3df1ca4b	0.118061624
66	0xbe1e6235	-0.1546715
67	0xbe11d7bb	-0.14242451
68	0xbb6c71a0	-0.0036078468
69	0x3dd6dbb0	0.10491121
70	0x3d22d1a6	0.039750718
71	0x3d923f9c	0.07141039
72	0x3e3224d3	0.1739686
73	0xbd7f6fb8	-0.062362403
74	0xbd9c07bb	-0.07618662
75	0x3cbb9051	0.022895964
76	0xbe0660fe	-0.13122937
77	0xbd653a06	-0.05596354
78	0xbc4e7eb7	-0.012603453
79	0x3e081c3a	0.13292018
80	0x3e6c77c1	0.23092557
81	0xbbca697f	-0.006177127
82	0x3de70317	0.11279886
83	0xbc2ae324	-0.010430131
84	0xbca5756e	-0.020197596
85	0x3cde3b37	0.027127845
86	0xbaaa13e0	-0.0012975894
87	0x3df2e7d0	0.11860621
88	0xbd8b49f7	-0.06801217
89	0x3e1f6e31	0.15569378
90	0xbc87ceed	-0.016578162
91	0xbde32e22	-0.110927835
92	0x3e0d1651	0.13778044
93	0x3da69c3d	0.08135269
94	0xbd17c0a0	-0.037048936
95	0xbc204dfe	-0.00978422
96	0xbd4984bc	-0.04919885
97	0x3b9697cc	0.0045957323
98	0xbd68a442	-0.056797273
99	0x3dd571ba	0.10422082
100	0xbdb9fd70	-0.090815425
101	0xbcb62e3b	-0.022238841
102	0x3e801a0c	0.25019872
103	0xbe01d9d5	-0.12680753
104	0xbd8ee279	-0.0697679
105	0x3c30b273	0.010784733
106	0xbdae3b50	-0.08507407
107	0xbc82c9a5	-0.015965292
108	0xbd215c33	-0.03939457
109	0x3e4c8b35	0.19974978
110	0x3e7821f2	0.24231699
111	0xbdb3f9c8	-0.08787876
112	0x3e48a5e2	0.1959453
113	0x3e600f42	0.2188082
114	0xbb881d1e	-0.0041538617
115	0xbd960e6a	-0.07326968
116	0x3daac731	0.08338774
117	0x3d2942ec	0.041323587
118	0xbd58bc10	-0.052913725
119	0x3e147b3a	0.14500132
120	0xbd1c0d27	-0.03809848
121	0x3e1beddc	0.15227455
122	0x3d604012	0.054748602
123	0x3d8e5366	0.06949501
124	0xbd9614d9	-0.07328195
125	0x3e0cc48e	0.13746855
126	0xbda43139	-0.08017201
127	0xbda36fee	-0.07980333
128	0xbd2d0ea9	-0.04225031
129	0xbdac4f15	-0.08413521
130	0x3cbc40fe	0.02298021
131	0xbd23e372	-0.04001183
132	0x3dd8a1ab	0.10577711
133	0xbda10e2a	-0.0786403
134	0xbcbf42aa	-0.023347218
135	0x3e31e8d7	0.17373978
136	0xbc3d1ab3	-0.01154201
137	0x3b3ebf14	0.002910559
138	0x3e6c9dcb	0.23107068
139	0xbe03c0d1	-0.12866522
140	0x3d3c9822	0.046043523
141	0xbc1900ee	-0.009338601
142	0x3e2341dd	0.15943094
143	0xbd814388	-0.06311709
144	0xbc91b28a	-0.01778533
145	0x3e66146b	0.22468726
146	0xbcb6f7da	-0.022334982
147	0xbdd99fba	-0.106261685
148	0xbdd6e3ee	-0.10492693
149	0x3d93af10	0.07211125
150	0xbddc6c4c	-0.107628435
151	0xbbbf5be8	-0.0058398135
152	0x3e8a973c	0.27068508
153	0x3dc44c44	0.09584859
154	0xbd85ac08	-0.06526953
155	0xbcab6946	-0.020924222
156	0x3d73a75d	0.059485782
157	0xbdf3bfd8	-0.11901826
158	0x3e36afee	0.1784055
159	0x3c1f5b14	0.009726305
160	0xbccd6d44	-0.025076516
161	0x3d82cbe9	0.06386549
162	0x3d8197e3	0.06327798
163	0x3d429524	0.047505513
164	0x3e83b1ab	0.25721487
165	0x3d07f9f5	0.033197362
166	0xbc17a36e	-0.009255273
167	0xbd3b2ace	-0.04569512
168	0xbe086c29	-0.1332251
169	0x3d0ed258	0.03486857
170	0x3c161dae	0.00916235
171	0x3e582b83	0.21110348
172	0xbb85c4b8	-0.0040822886
173	0xbdb5b7c2	-0.0887294
174	0xbc16a22e	-0.00919394
175	0xbd3d4c70	-0.046215475
176	0x3e5635af	0.20918916
177	0xbd295ffa	-0.041351296
178	0xbd21374e	-0.039359383
179	0x3e15c195	0.14624627
180	0x3e4e277e	0.20132253
181	0x3dabd6aa	0.08390553
182	0xbda0bb49	-0.07848222
183	0x3de63acc	0.11241683
184	0x3e1c587c	0.15268129
185	0x3dd8c00b	0.10583504
186	0x3bd4254e	0.0064741736
187	0xbcd1798c	-0.025570653
188	0xbc5064e1	-0.012719364
189	0xbdb877ad	-0.09007201
190	0x3d284ec5	0.041090745
191	0x3df557cd	0.11979637
192	0xbc5eb494	-0.013592858
193	0xbd638f6e	-0.055556707
194	0xbd9aab91	-0.07552255
195	0xbdc3e811	-0.095657475
196	0xbaf9d07c	-0.0019059326
197	0x3cf4e53b	0.029894462
198	0x3b987da8	0.0046536513
199	0x3d1d9506	0.038472198
200	0xbdde8956	-0.108660385
201	0x3dd40527	0.10352545
202	0xbde9f3c0	-0.11423445
203	0xbdbcd63a	-0.09220548
204	0x3debb8ba	0.11509843
205	0x3dfc5052	0.123200074
206	0xbd25b5f4	-0.040456727
207	0xbcd763ee	-0.026292767
208	0xbcaf52c4	-0.02140177
209	0x3d5756e8	0.052573115
210	0xbd1fd3b8	-0.03902027
211	0x3ca6542b	0.020303806
212	0x3e34ada9	0.17644371
213	0xbd7570d0	-0.05992204
214	0xbe032e18	-0.12810552
215	0x3e0a34cc	0.13496703
216	0xbd57ca82	-0.05268336
217	0x3e0c1872	0.136812
218	0xbd3baeea	-0.045821108
219	0x3e2a1b21	0.16611911
220	0x3c705e23	0.014670881
221	0x3c544480	0.012955785
222	0xbbaa608f	-0.005199499
223	0x3d0a9212	0.03383071
224	0xbdac830e	-0.08423434
225	0x3dfe8bdb	0.12429019
226	0x3d42d801	0.04756928
227	0x3e781216	0.24225649
228	0xbd88aa86	-0.0667315
229	0x3c365067	0.011127568
230	0x3e479350	0.19489789
231	0xbc378483	-0.011201027
232	0xbd95874e	-0.07301198
233	0x3e0e023d	0.13868041
234	0x3dc0d9e1	0.09416557
235	0xbadf64b0	-0.0017043557
236	0x3dc72a65	0.09724883
237	0x3e59a905	0.21255882
238	0xbd9b8e2f	-0.07595479
239	0x3ea31d0e	0.31858104
240	0x3c87b3da	0.016565252
241	0xbdbf881d	-0.093521334
242	0x3d457092	0.04820306
243	0x3e7e0c5e	0.24809405
244	0xbde2b69a	-0.11069985
245	0x3cb93e32	0.022612665
246	0x3e4c473d	0.1994905
247	0x3e9619fa	0.29316694
248	0xbd58dde0	-0.05294597
249	0xb98147c4	-0.00024658267
250	0x3cf517a4	0.0299185
251	0xbbbcb1e8	-0.0057585128
252	0xbd1b42f2	-0.03790564
253	0x3e676650	0.22597623
254	0xbc4e5fc2	-0.012596073
255	0x3db610cc	0.088899225

fc2.weight f4 [14, 256]
0	0xbdb622a9	-0.0889333
1	0xbcfdcc32	-0.030981157
2	0xbd4246e6	-0.047430895
3	0xbcb55fe0	-0.022140443
4	0xbcbe975f	-0.023265539
5	0xbdb4aa6f	-0.0882157
6	0xbda4b8f5	-0.0804309
7	0xbd0bbab6	-0.03411361
8	0xbbf8a464	-0.0075879563
9	0x3c48a2c6	0.012245839
10	0xbc32b2f5	-0.0109069245
11	0xbcf6f3f4	-0.030145623
12	0x3dab7170	0.08371246
13	0x3ce36fb8	0.027763233
14	0xbd11f3a6	-0.035632752
15	0xbe440626	-0.1914297
16	0xbcc303ac	-0.023805462
17	0xb8d69a00	-0.00010233
18	0xbd21108f	-0.039322432
19	0xbe041364	-0.12898022
20	0x3d0ac1ee	0.033876352
21	0xbd092771	-0.03348488
22	0xbc8be7be	-0.017078277
23	0xbd6e9599	-0.058248136
24	0xbdb6a92c	-0.08918986
25	0xbda41039	-0.08010907
26	0xbcaddc7a	-0.021223295
27	0xbdb2fcaf	-0.08739602
28	0xbb6da98c	-0.0036264388
29	0xbdccfdf2	-0.10009374
30	0x3df8b459	0.121437736
31	0xbd7d29e3	-0.061807524
32	0x3c910c98	0.0177062
33	0x3d35d012	0.044387884
34	0x3d67c68e	0.05658584
35	0xbdb43016	-0.08798234
36	0x3d03d939	0.03218958
37	0x3de611c0	0.11233854
38	0xbdb68a08	-0.08913046
39	0xbdfee376	-0.124457285
40	0x3d44ae21	0.048017625
41	0xbd21586e	-0.039390974
42	0x3d6c3045	0.05766322
43	0xbd4bfaee	-0.049799852
44	0xbdc782fc	-0.0974178
45	0x3cecf52f	0.028925506
46	0xbe35ecbe	-0.17766091
47	0x3ce660f9	0.028122412
48	0xbde1b628	-0.11021072
49	0x3df07e45	0.11742834
50	0xbe0620ad	-0.13098402
51	0xbd464dea	-0.04841415
52	0x3d354f57	0.044265117
53	0xbdf0925b	-0.11746665
54	0xbcb224a6	-0.021745991
55	0x3d521e1a	0.05129824
56	0xbd41f326	-0.047351025
57	0x3d71a2be	0.058993094
58	0xbddb6bf2	-0.10713948
59	0x3d013013	0.031539988
60	0x3c16e470	0.009209737
61	0x3e1aac48	0.15104783
62	0x3b201648	0.0024427343
63	0xbca95e0a	-0.020674724
64	0x3e2c0990	0.16800523
65	0xbac264a2	-0.0014831016
66	0x3bfe9484	0.0077691693
67	0x3cdc254c	0.026873253
68	0x3d73ac3e	0.059490435
69	0xbdaaa45a	-0.08332129
70	0xbd55b01b	-0.0521699
71	0x3de39326	0.11112051
72	0xbcfd3540	-0.03090918
73	0x3dc12266	0.09430389
74	0xbc879f86	-0.016555559
75	0xbe38f4aa	-0.18062082
76	0x3c10263a	0.008798176
77	0xbda64057	-0.081177406
78	0xbd9d9433	-0.076942824
79	0xbc991099	-0.018684672
80	0x3e12d4a4	0.14338928
81	0x3d9ab526	0.075540826
82	0x3d854931	0.06508101
83	0x3db7659b	0.089549266
84	0x3cdf8292	0.02728394
85	0xbd9a45d9	-0.07532854
86	0xbd6e46c0	-0.05817294
87	0x3acef320	0.001578901
88	0xbd679408	-0.056537658
89	0xbd492581	-0.049108032
90	0x3e15e901	0.14639665
91	0x3cc2c419	0.023775147
92	0x3da8a14f	0.08233892
93	0xbdb12648	-0.0864988
94	0x3d3a7ab5	0.04552718
95	0xbe0abd7d	-0.13548847
96	0xbd7d0702	-0.06177426
97	0x3ab2fe70	0.001365615
98	0xbe0ff7f8	-0.14059436
99	0x3d553647	0.052053716
100	0x3d8be2d5	0.06830374
101	0xbdf32f72	-0.11874284
102	0x3e0ca65a	0.13735333
103	0x3d838fd6	0.06423919
104	0xbe1dfdeb	-0.15428893
105	0xbe0ad79a	-0.13558808
106	0xbc26172c	-0.010137361
107	0x3d81aa34	0.06331292
108	0xbd92d4f1	-0.071695216
109	0x3df8cfed	0.12149034
110	0xbd158064	-0.036499396
111	0x3c885838	0.016643628
112	0xbd706c3e	-0.058696978
113	0x3e0d6679	0.13808621
114	0xbbb9b156	-0.005666892
115	0x3df61ace	0.12016831
116	0xbd8a9cf2	-0.06768216
117	0xbe064d0f	-0.13115333
118	0xbe0a3b0d	-0.13499089
119	0x3e16f6be	0.14742562
120	0xbd918e4c	-0.07107219
121	0xbdb41b97	-0.08794325
122	0xbde95006	-0.113922164
123	0xbdc9f6e3	-0.09861543
124	0xbd5076a6	-0.050894402
125	0x3daf5a03	0.0856209
126	0xbb97f61c	-0.004637493
127	0xbe234e0b	-0.1594774
128	0x3df3653e	0.11884545
129	0xbd3efd54	-0.04662831
130	0xbd78147a	-0.060566403
131	0xbc78d336	-0.015187075
132	0xbd6c7244	-0.05772616
133	0x3d2a575c	0.04158722
134	0x39f59a40	0.00046844967
135	0x3dfc475c	0.12318298
136	0x3c0a270a	0.008432159
137	0xbd887e6b	-0.06664737
138	0x3d331997	0.043725576
139	0xbd4c1d14	-0.04983242
140	0xbe015410	-0.12629724
141	0xbc460b62	-0.012087675
142	0xbd96dd6d	-0.07366452
143	0xbd8197b7	-0.063277654
144	0xbccf7b7a	-0.025327433
145	0x3da280b2	0.07934703
146	0x3be660e0	0.0070305914
147	0xbe0cfd99	-0.13768615
148	0x3c1aabde	0.00944039
149	0x3cc1f9ff	0.023678778
150	0x3d0f7a04	0.035028473
151	0x3e05ae93	0.13054876
152	0x3e3e6861	0.18594505
153	0x3d1ab72a	0.037772335
154	0x3e054eb4	0.13018304
155	0x3dffbde4	0.12487391
156	0x3b970720	0.0046090037
157	0x3c0c51d4	0.008564431
158	0x3d9776a1	0.073956735
159	0xbca9a8e4	-0.020710416
160	0xbd7f8150	-0.06237918
161	0xbd3bbbca	-0.045833386
162	0xb98ec380	-0.0002723001
163	0xbdbc5196	-0.09195249
164	0x3e1a0353	0.1504033
165	0xbb59bf96	-0.0033225766
166	0xbda42e08	-0.08016592
167	0x3e0e3e7a	0.1389102
168	0x3cf260b7	0.029587133
169	0xbdcbae6f	-0.0994538
170	0xbe30867a	-0.17238799
171	0x3e19f338	0.15034187
172	0xbd8ebaa8	-0.069691956
173	0xbd640de4	-0.05567731
174	0x3ca65396	0.020303529
175	0x3d018e4c	0.031629845
176	0x3ccd0bb4	0.025029995
177	0x3d218615	0.03943451
178	0xbdf23136	-0.118257925
179	0x3dc992b0	0.098424315
180	0x3b3bb8e0	0.002864413
181	0x3ceda723	0.029010361
182	0x3b503df0	0.00317752
183	0x3d83aa31	0.06428946
184	0xbddb3fa7	-0.107055
185	0xbc152a46	-0.009104317
186	0xbdb5f4b0	-0.08884561
187	0xbdd4d5cb	-0.1039234
188	0xbd8491ea	-0.064731434
189	0xbd5deb52	-0.054179497
190	0xbdd5495f	-0.10414385
191	0xbd4ec132	-0.050477214
192	0x3ca4fbbc	0.020139568
193	0xbd877581	-0.06614209
194	0xbd93a950	-0.07210028
195	0xbd21546a	-0.039387144
196	0xbde766d8	-0.11298913
197	0x3deb2fea	0.11483748
198	0xbdd97564	-0.106180936
199	0xbd835483	-0.06412604
200	0xbd86e4ae	-0.06586586
201	0x3d93cdd3	0.07216992
202	0x3c9686c2	0.018374804
203	0x3d534a98	0.05158481
204	0x3dae9dd4	0.08526197
205	0x3da95fb8	0.0827021
206	0x3e0a0b2a	0.13480821
207	0xbe03a16a	-0.12854543
208	0xbe182b70	-0.1486032
209	0x3c6f6a24	0.014612708
210	0x3e0a69ca	0.13516918
211	0xbd4e820e	-0.050417
212	0xbcffc400	-0.03122139
213	0xbd427e8a	-0.04748396
214	0xbe235c94	-0.15953285
215	0x3d848f40	0.06472635
216	0x3e1220be	0.14270303
217	0x3d350fd8	0.044204563
218	0xbdb91531	-0.09037245
219	0x3c899a60	0.016797245
220	0xbca9d554	-0.020731606
221	0xbd0e53e9	-0.03474799
222	0xbd0bfb9c	-0.0341755
223	0xbd08e782	-0.033423908
224	0x3c79d5ef	0.01524876
225	0xbd845e99	-0.064633556
226	0xbd0c130b	-0.03419785
227	0x3e2809a0	0.16409922
228	0xbe01b16a	-0.12665334
229	0xbe091a36	-0.13388905
230	0x3d3112a6	0.043230675
231	0xbd592545	-0.05301406
232	0xbd89671f	-0.06709122
233	0xbd4f8f24	-0.05067362
234	0x3d449d98	0.048001856
235	0x3c1e0114	0.009643812
236	0xbc9ca2ae	-0.01912054
237	0xbcf62389	-0.030046241
238	0xbd7b32c7	-0.061327722
239	0x3d54f08e	0.051987223
240	0xbd555a0c	-0.05208783
241	0xbdf4e661	-0.11958004
242	0xbdb4fe08	-0.08837515
243	0x3c195a54	0.009359915
244	0x3c019896	0.0079099145
245	0xbdd5f49a	-0.10447045
246	0x3e1c9bdf	0.15293835
247	0x3cda7879	0.026668774
248	0xbdc2523d	-0.09488342
249	0x3b247f0a	0.0025100135
250	0xbcdbaac4	-0.026814826
251	0x3d7ddaba	0.061976172
252	0xbdcb3455	-0.09922091
253	0x3e2c99d8	0.16855562
254	0xbdc46cd9	-0.095910735
255	0xbcad01ea	-0.021119077

fc2.bias f4 [14]
0	0x3f6749d7	0.90347046
1	0x3e60883d	0.21926971
2	0x3e8230ba	0.254278
3	0x3e26623e	0.16248414
4	0x3db23eca	0.08703382
5	0x3dc5811a	0.09643765
6	0x3f029f2a	0.51024115
7	0x3e796a1a	0.24356881
8	0x3e612052	0.21984985
9	0x3b12be9e	0.0022391449
10	0x3acbddba	0.001555375
11	0x3d689e43	0.056791555
12	0x3d783200	0.06059456
13	0x3dc5ca22	0.096576944
