Response14/state_dicts/model_state_dict_10001e.pth (torch, 513135 bytes, 8 tensors)

conv1.weight f4 [32, 512, 3]
-0.6180501 -0.7922505 -0.85431933 0.95814586 0.8329569 0.6778327 0.5829775 0.11692911
-0.3895707 0.006799523 0.01958073 0.04425774 0.9200701 0.94953585 0.81357086 0.77420926
0.49314833 0.13656166 -0.6732802 -0.7104968 -0.817333 -1.9172904 -1.7376399 -1.427141
0.7659811 0.72771025 0.75413126 -0.12441395 -0.029456632 -0.012202966 0.18152149 -0.47306654
-0.95491064 -0.040102825 0.28866535 0.502472 -0.97319186 -0.7950519 -0.4800018 -0.64673036
-0.67402077 -0.689262 -0.1046874 0.084604174 0.20178293 0.35148168 0.48716235 0.5364838
-0.38160294 0.2486001 1.0244913 1.3626406 0.9538431 0.6910051 -0.70083165 -0.040231716
0.5427578 -0.55092734 -0.7134265 -0.7488408 0.5608426 0.34395635 0.31275472 -0.49491984
-0.17034684 -0.07022878 0.8297013 0.599927 0.47045854 0.058141302 -0.1798654 -0.26473522
-0.4507393 -0.736972 -0.8367248 0.33574525 0.58842903 0.5838453 0.07789828 -0.2272065
-0.5266734 -2.4708178 -2.1188939 -1.3255098 -1.1308509 -0.96544635 -0.68072325 -1.6503026
-1.163907 -0.66803867 -0.27344275 -0.36831263 -0.5650334 0.6602939 0.95022863 1.1284523
0.056793187 0.19825877 0.38962018 1.1654664 0.5011733 0.04096869 -0.30228257 -0.1845443
-0.15859304 -0.45982322 -0.09679055 0.05401454 -0.21343179 -0.46874276 -0.7950228 1.5442443
1.7777874 1.7784276 0.12971663 -0.12536584 -0.3823475 -0.48588827 -0.64977044 -0.97203195
0.55628645 0.42582682 0.3393929 -0.32767472 -0.23596196 -0.212301 -0.019512072 -0.18919216
-0.43078873 0.05685031 0.1768266 0.3773423 0.49249807 0.054889623 -0.43978298 0.480265
0.62916064 0.5923876 -0.2563857 -0.3133138 -0.2314232 -0.06938153 -0.45472372 -0.8349173
-0.54401475 -0.3478414 -0.42135555 -1.4081188 -2.131748 -2.6044614 -0.7174141 -0.50093555
-0.19315529 -0.35141933 0.31332305 1.1305156 -0.5803278 -0.37641236 0.032982595 0.90283793
-0.04977711 -0.83147186 0.54740566 0.4861458 0.299784 0.3501635 0.23505823 0.23772547
0.81203926 1.6564442 2.4487004 -1.4404846 -1.6683648 -1.8464419 -0.02360357 0.087501466
0.26856822 0.6146351 0.51384306 0.45806396 0.36006054 0.7023985 0.8464459 -1.1781951
-1.1531553 -1.2427481 0.102554984 0.44680774 0.64632624 0.458967 -0.14311351 -0.5142372
-0.88757706 -1.3009884 -1.5110667 -0.5358063 -0.772558 -0.7660551 -0.16572946 -0.37634537
-0.43832594 0.8900003 1.1149552 1.3793668 -1.103378 -0.9330864 -0.9011389 -0.18583012
-0.19892618 -0.036890738 -0.07702514 -0.33376554 -0.4141173 0.34632498 0.27276444 0.17895192
0.2249601 0.263916 0.15087165 0.29151636 0.6155282 1.0099728 0.95879304 1.5941654
2.0305123 1.623481 2.494031 2.898981 0.030529309 0.3531175 0.48170742 0.012245584
-0.3050017 -0.49981046 -0.52941734 -0.3913976 -0.34185842 0.20775233 0.18099412 0.17126006
-2.3488865 -1.4208446 -0.42028928 -0.33541736 -0.13499916 0.058606774 0.09246157 0.3877507
0.54559517 0.26718876 0.17691946 0.09726949 0.6513534 0.44734046 0.080011874 -1.6314105
00000000: 8838 1ebf eed0 4abf acb4 5abf 0c49 753f
00000010: aa3c 553f 7286 2d3f 033e 153f 8778 ef3d
00000020: d075 c7be 88ce de3b c467 a03c 9b47 353d
00000030: b789 6b3f c814 733f 2e46 503f 9432 463f
00000040: f07d fc3e d2d6 0b3e 175c 2cbf 1ee3 35bf
00000050: bc3c 51bf c669 f5bf fc6a debf 8eac b6bf
00000060: 5617 443f 384b 3a3f bf0e 413f becc febd
00000070: 094f f1bc f3ee 47bc c5e0 393e c735 f2be
00000080: 0675 74bf dc42 24bd f2cb 933e 01a2 003f
00000090: 1a23 79bf 8588 4bbf ccc2 f5be 1f90 25bf
000000a0: a08c 2cbf 7973 30bf 5966 d6bd f444 ad3d
000000b0: 2fa0 4e3e 68f5 b33e 586d f93e 0157 093f
000000c0: 7661 c3be 0691 7e3e 8822 833f 026b ae3f
000000d0: 102f 743f b6e5 303f b469 33bf 03ca 24bd
000000e0: 2df2 0a3f 9309 0dbf 1ea3 36bf 08b4 3fbf
000000f0: 6193 0f3f 0c1b b03e 6321 a03e 2266 fdbe
00000100: 676f 2ebe 1bd4 8fbd 4e67 543f d194 193f
00000110: f1df f03e 9325 6e3d a32e 38be 608b 87be
00000120: 4dc7 e6be 32aa 3cbf 9933 56bf cde6 ab3e
00000130: 49a3 163f e376 153f 2289 9f3d d2a8 68be
00000140: 11d4 06bf e121 1ec0 f59b 07c0 4eaa a9bf
00000150: b9bf 90bf 7e27 77bf e143 2ebf 1e3d d3bf
00000160: e8fa 94bf 9504 2bbf b000 8cbe 7993 bcbe
00000170: 07a6 10bf 0509 293f 2f42 733f 2071 903f
00000180: f99f 683d 5904 4b3e 4c7c c73e 012e 953f
00000190: e54c 003f c9ce 273d c8c4 9abe 2ef9 3cbe
000001a0: 3766 22be f36d ebbe 203a c6bd 5a3e 5d3d
000001b0: dd8d 5abe 0dff efbe 9d86 4bbf cca9 c53f
000001c0: 8a8e e33f 84a3 e33f 70d4 043e e75f 00be
000001d0: 0dc3 c3be 59c6 f8be 5b57 26bf 16d7 78bf
000001e0: ca68 0e3f f905 da3e e8c4 ad3e fbc4 a7be
000001f0: 03a0 71be 6f65 59be c8d7 9fbc 97bb 41be
00000200: 5790 dcbe dfdb 683d 0812 353e 0333 c13e
00000210: b528 fc3e f1d3 603d 3c2b e1be 4be5 f53e
00000220: ac10 213f b7a6 173f fd44 83be ab6a a0be
00000230: 34fa 6cbe e717 8ebd 8cd1 e8be 24bd 55bf
00000240: 8d44 0bbf 4518 b2be eabb d7be 3d3d b4bf
00000250: 8f6e 08c0 7faf 26c0 73a8 37bf 503d 00bf
00000260: 80ca 45be 3ced b3be e16b a03e bcb4 903f
00000270: 5d90 14bf 1fb9 c0be c218 073d 6320 673f
00000280: 15e3 4bbd 57db 54bf c722 0c3f 1ae8 f83e
00000290: 4a7d 993e a148 b33e 1bb3 703e 4e6e 733e
000002a0: cee1 4f3f 5d06 d43f 82b7 1c40 cd61 b8bf
000002b0: fa8c d5bf 3558 ecbf 465c c1bc f833 b33d
000002c0: c681 893e ba58 1d3f 388b 033f 5c87 ea3e
000002d0: db59 b83e 63d0 333f aeb0 583f 19cf 96bf
000002e0: 989a 93bf 5f12 9fbf 5908 d23d fcc3 e43e
000002f0: a375 253f b9fd ea3e 598c 12be 0da5 03bf
00000300: 4038 63bf ca86 a6bf a26a c1bf 9a2a 09bf
00000310: 5cc6 45bf 301c 44bf fcb4 29be 57b0 c0be
00000320: 426c e0be 0fd7 633f dab6 8e3f 178f b03f
00000330: 7e3b 8dbf c0de 6ebf 0ab1 66bf 404a 3ebe
00000340: 4eb3 4bbe be1a 17bd 5bbf 9dbd 51e3 aabe
00000350: 2f07 d4be 8251 b13e c8a7 8b3e 2c3f 373e
00000360: f15b 663e ff1f 873e 197e 1a3e a241 953e
00000370: 4293 1d3f ca46 813f 7673 753f 9d0d cc3f
00000380: eaf3 0140 3ace cf3f 349e 1f40 e888 3940
00000390: 9a18 fa3c d1cb b43e 5ba2 f63e b4a1 483c
000003a0: 2f29 9cbe 28e7 ffbe e587 07bf 4465 c8be
000003b0: 1108 afbe 07bd 543e 8656 393e cc5e 2f3e
000003c0: 2854 16c0 3cde b5bf 2830 d7be d3bb abbe
000003d0: 383d 0abe a80d 703d 7e5c bd3d 4287 c63e
000003e0: 20ac 0b3f f7cc 883e 602a 353e 3a35 c73d
000003f0: 19bf 263f cf09 e53e 44dd a33d 0fd2 d0bf

conv1.bias f4 [32]
-2.6429524 -1.853619 -4.6952453 -2.0240927 -2.9050055 -4.787282 -3.548467 -5.7682815
-0.7686134 -5.0560927 0.6912393 -3.2236674 -3.8091345 0.6933393 -0.8781458 -5.9070077
-4.7300606 -6.425993 -5.4876356 -4.108262 -0.121221915 -2.6678524 -3.3513157 -3.2874165
-6.198137 -6.130193 -0.7238716 -4.007766 -4.429934 0.088762775 -2.5523238 -5.0684643
00000000: 2226 29c0 6343 edbf 733f 96c0 bc8a 01c0
00000010: 9ceb 39c0 6a31 99c0 151a 63c0 c395 b8c0
00000020: d9c3 44bf 83cb a1c0 0ff5 303f 9150 4ec0
00000030: dcc8 73c0 af7e 313f 2ace 60bf 3506 bdc0
00000040: a85c 97c0 bca1 cdc0 b69a afc0 e276 83c0
00000050: 3243 f8bd 18be 2ac0 f57b 56c0 0865 52c0
00000060: 2357 c6c0 8b2a c4c0 a64f 39bf 9e3f 80c0
00000070: 05c2 8dc0 42c9 b53d 4659 23c0 dc30 a2c0

conv2.weight f4 [512, 32, 3]
-0.58418125 -0.31738877 -0.30574286 -0.13608517 -0.0566271 0.018551793 -0.39813966 -0.48485345
-0.55821747 -0.0050564734 -0.080040954 -0.10736927 -0.14518762 -0.46346325 -0.460163 -0.36451945
-0.19608442 -0.22451451 -0.26071998 -0.20726232 -0.23233752 -0.14862458 -0.3422795 -0.29363438
-0.091466986 -0.26332474 -0.21827903 0.178424 -0.18521763 0.008890991 -0.005493529 0.097004235
-0.17212686 -0.26063952 -0.14862329 0.023031974 -0.30555475 -0.46129942 -0.4418357 -0.45685062
-0.27095968 -0.13259359 -0.3198292 -0.63963693 -0.7068128 -0.5628099 -0.48622257 -0.65595675
-0.48414725 -0.35795543 -0.29581633 -0.037562113 -0.037510797 -0.22130829 -0.36124718 -0.37797347
-0.113942675 -0.21414587 -0.0068668476 -0.113133624 -0.3205286 -0.30446908 -0.35559496 -0.40885934
-0.47036445 -0.3525642 -0.06906097 0.07762516 -0.0855601 -0.61267537 -0.37314358 -0.19471502
-0.4303917 -0.41839015 -0.24995828 -0.3334283 -0.19164094 -0.03954253 -0.45251906 -0.40501288
-0.34795544 -0.46206582 -0.45682976 -0.39180326 -0.6109443 -0.63394403 -0.60450333 -0.2047144
-0.16606401 -0.25566685 -0.44513562 -0.23100862 -0.25951576 0.010814513 -0.086912155 -0.10309176
-0.31765804 -0.31765807 -0.317658 -0.31763947 -0.31764853 -0.31764743 -0.31777376 -0.31765828
-0.31765792 -0.31765962 -0.31765753 -0.31765625 -7.848529e-12 -1.7303351e-09 -3.9385558e-08 -1.605632e-39
-1.78886e-39 -1.665155e-39 -0.00049035414 -0.00060716947 -0.31330228 -1.1839777e-06 -1.4570381e-07 -5.160923e-09
-1.7733483e-12 -3.707634e-10 -1.3659664e-08 -0.31765804 -0.31765798 -0.31765786 -0.31765783 -0.31765774
-0.31765777 -8.904732e-06 -1.1314415e-06 -3.0805545e-08 -0.31757236 -0.31760353 -0.31761706 -1.4635726e-10
-0.31759816 -0.31758144 -0.31765798 -0.3176578 -0.31765774 -1.8791945e-07 -2.7015528e-07 -2.2877975e-07
-8.942397e-15 -7.5547684e-12 -7.695914e-10 -0.3176345 -0.31757882 -0.31738824 -0.31832603 -0.31762722
-0.31763408 -0.3177106 -0.3176493 -0.31764758 -1.942544e-39 -1.968285e-39 -1.943036e-39 -1.905717e-39
-1.04489713e-22 -1.7147193e-16 -0.00013009625 -0.00021624005 -0.00014144366 -4.329364e-16 -9.994366e-20 -9.514146e-26
-0.31769174 -0.3179225 -0.31726936 -0.3176433 -0.3176575 -0.31765807 -2.3841144e-06 -1.7188702e-06
-2.4268036e-06 -4.1766017e-21 -1.0704342e-17 -4.7310703e-15 -5.145542e-30 -1.613311e-39 -1.55104e-39 -5.086425e-05
-0.00013917098 -0.00020118727 -0.31765756 -0.3176576 -0.31765762 -2.4711353e-11 -1.9380938e-08 -2.1448714e-07
-0.3975923 0.4533479 1.0687929 0.18744951 0.12349504 0.4490439 -0.29802135 0.104830645
0.20303908 0.50132865 -0.09629595 -0.5416353 0.12302689 0.08689888 0.30832148 -0.85819453
0.11505318 1.3462625 -0.39477903 0.22088555 0.7453768 -0.7671655 0.12226018 1.2242646
-0.4267649 0.4935971 1.6222264 0.49903986 0.45580807 0.7460684 0.8117108 0.54500085
0.78062314 -0.32114905 -0.335477 -0.031524114 1.5157081 1.0827813 0.5719426 0.07940675
-0.24375053 -0.31926808 0.9871689 0.14443 -0.18646896 1.2677724 0.7268073 0.11382883
0.20212895 -0.24813446 -0.091759 0.28089967 0.4020733 0.21590844 -0.030961838 0.23306708
0.7128188 0.33562264 1.0085806 1.7795 0.038774125 0.8918062 1.3007591 0.76638377
00000000: e78c 15bf c880 a2be 548a 9cbe e959 0bbe
00000010: d1f1 67bd eef9 973c f6d8 cbbe b63e f8be
00000020: 57e7 0ebf c6b0 a5bb 83ec a3bd 6be4 dbbd
00000030: 10ac 14be 0e4b edbe 7c9a ebbe 4ba2 babe
00000040: 5bca 48be 22e7 65be 177d 85be 933c 54be
00000050: e3e9 6dbe 0b31 18be 423f afbe 3f57 96be
00000060: 0b53 bbbd 80d2 86be 8a84 5fbe c8b4 363e
00000070: b1a9 3dbe 85ab 113c 1003 b4bb 28aa c63d
00000080: 0642 30be 8b72 85be b430 18be 8dad bc3c
00000090: ac71 9cbe 702f ecbe 4a38 e2be 53e8 e9be
000000a0: 3abb 8abe 9dc6 07be a7c0 a3be 3fbf 23bf
000000b0: aff1 34bf 4f14 10bf 2af2 f8be c8ec 27bf
000000c0: 26e2 f7be ef45 b7be 3d75 97be bbda 19bd
000000d0: eca4 19bd a49e 62be 64f5 b8be bd85 c1be
000000e0: c75a e9bd 0e49 5bbe 4b03 e1bb 9ab2 e7bd
000000f0: 531c a4be 5fe3 9bbe 8b10 b6be 0356 d1be
00000100: 9cd3 f0be 4b83 b4be d66f 8dbd f1f9 9e3d
00000110: 223a afbd 4bd8 1cbf ad0c bfbe 6063 47be
00000120: 4d5c dcbe 3c37 d6be 10f5 7fbe 1db7 aabe
00000130: 863d 44be 59f7 21bd 94b0 e7be d95d cfbe
00000140: 3727 b2be e493 ecbe 97e5 e9be 709a c8be
00000150: d866 1cbf 284a 22bf bbc0 1abf a7a0 51be
00000160: af0c 2abe c4e6 82be d1e8 e3be 868d 6cbe
00000170: 40df 84be 5b2f 313c 00ff b1bd c621 d3bd
00000180: 13a4 a2be 14a4 a2be 12a4 a2be a4a1 a2be
00000190: d4a2 a2be afa2 a2be 3eb3 a2be 1ba4 a2be
000001a0: 0fa4 a2be 48a4 a2be 02a4 a2be d7a3 a2be
000001b0: a212 0aad c1d0 edb0 e128 29b3 d97b 1180
000001c0: 9d7a 1380 c621 1280 1c8b 00ba 742a 1fba
000001d0: 2869 a0be 2ae9 9eb5 c272 1cb4 f553 b1b1
000001e0: 9b93 f9ab 4fd4 cbaf d6ab 6ab2 13a4 a2be
000001f0: 11a4 a2be 0da4 a2be 0ca4 a2be 09a4 a2be
00000200: 0aa4 a2be 8865 15b7 09dc 97b5 0e4f 04b3
00000210: d898 a2be ee9c a2be b49e a2be e8eb 20af
00000220: 3a9c a2be 099a a2be 11a4 a2be 0ba4 a2be
00000230: 09a4 a2be e8c6 49b4 dc09 91b4 80a6 75b4
00000240: 8717 21a8 a7e7 04ad 2e8b 53b0 fda0 a2be
00000250: b199 a2be b680 a2be a1fb a2be 09a0 a2be
00000260: efa0 a2be f7aa a2be eea2 a2be b4a2 a2be
00000270: 0627 1580 c76e 1580 6528 1580 5dc0 1480
00000280: 00a4 fc9a 95b1 45a5 726a 08b9 7fbe 62b9
00000290: 7e50 14b9 2392 f9a5 3cfc eb9f 108f eb95
000002a0: 7ea8 a2be bdc6 a2be 2171 a2be 25a2 a2be
000002b0: 01a4 a2be 14a4 a2be c6fe 1fb6 eeb3 e6b5
000002c0: 2bdc 22b6 9dc9 9d9d d375 45a3 6c74 aaa7
000002d0: 5dba d08e 4191 1180 abe3 1080 1357 55b8
000002e0: 6dee 11b9 ccf5 52b9 03a4 a2be 04a4 a2be
000002f0: 05a4 a2be 055d d9ad 227b a6b2 c74d 66b4
00000300: 3891 cbbe 371d e83e 35ce 883f c4f2 3f3e
00000310: f8ea fc3d 15e9 e53e 4196 98be 73b1 d63d
00000320: 7ae9 4f3e 1357 003f d036 c5bd 9ca8 0abf
00000330: 86f5 fb3d 0af8 b13d 50dc 9d3e a3b2 5bbf
00000340: 00a1 eb3d 5452 ac3f 7a20 cabe d22f 623e
00000350: 04d1 3e3f f564 44bf 8c63 fa3d b4b4 9c3f
00000360: ee80 dabe c2b8 fc3e 1da5 cf3f 2782 ff3e
00000370: ad5f e93e 57fe 3e3f 47cc 4f3f 2d85 0b3f
00000380: ebd6 473f a66d a4be a4c3 abbe 6e1f 01bd
00000390: b902 c23f 9498 8a3f d56a 123f 02a0 a23d
000003a0: bd99 79be 1b77 a3be 1ab7 7c3f 75e5 133e
000003b0: b8f1 3ebe 5e46 a23f 0b10 3a3f 171f e93d
000003c0: e4fa 4e3e f616 7ebe 25ec bbbd 15d2 8f3e
000003d0: 8ddc cd3e 1a17 5d3e aea3 fdbc 23a9 6e3e
000003e0: 4b7b 363f bbd6 ab3e 2b19 813f a8c6 e33f
000003f0: 9ed1 1e3d 694d 643f 467f a63f ba31 443f

conv2.bias f4 [512]
-0.5232402 -0.31673107 2.5352473 -1.1377426 -0.011445867 1.8486797 1.9099542 -0.3349589
-0.086661726 -0.05793856 -0.14519201 -0.72144276 -0.018771898 0.16339603 -0.0479509 -0.084825605
2.2358563 -0.039668515 2.0312285 -0.038333803 -0.16127555 -0.08691496 -0.974253 -0.07259888
-0.80487657 -0.10357727 -0.025601089 2.3296087 -0.0808414 -1.2779416 -0.047694832 -0.013766502
-0.021477908 -0.0010477849 2.503772 -1.536507e-17 -0.18036288 0.48701268 -0.17193606 -0.044180345
-0.9159563 0.20467001 -0.008894583 -0.098129794 1.5702801 3.0536122 -0.2949997 -0.1639224
-0.18782555 -0.35934564 -0.10526686 2.123258 0.42077628 -0.05558734 -0.016818231 -0.025388487
2.035501 -0.573287 -0.0677124 -0.1854642 -0.46649662 -0.001573654 -0.08567455 -0.013711856
1.8571872 -0.0024530615 -0.64625704 -0.55697584 0.47969338 -0.09282151 -0.009281384 0.19654289
-0.1943436 2.104022 2.0394359 2.1836824 -0.24241132 -0.34729242 -0.0069697723 -0.16326489
1.5106769 -0.07009791 -0.9191692 -0.0134436 -0.5252242 1.7043464 -0.16614793 1.7387153
-0.022757616 -0.29903266 -0.0935768 2.2729025 -0.34518784 -0.16575296 2.1616714 -1.3227177
-0.18952201 -0.17334677 -0.2723481 0.42401257 -0.5524965 -0.31451452 -0.1097472 -0.009596356
-0.54499185 -0.9402445 -0.37949464 -0.15649657 -0.038668424 2.1786947 0.11407781 -0.06575734
-0.02546115 -0.0567866 1.9294907 -0.5010133 -0.16209458 -0.14083461 -0.09507535 -0.06787254
-0.07311554 1.8104479 -0.004974297 -0.6277456 -0.20888707 -0.13723625 -0.41163936 -0.6323232
-1.29014 2.0994942 2.1172497 2.6702588 -0.21527232 -0.2726815 1.2574127 -0.9881463
-0.0608415 -7.938342e-18 0.43843555 -0.12865853 -1.3824755 -0.45190275 -0.4491532 -0.27318853
-0.10536962 2.069957 2.2151725 2.1238208 -0.13561197 -0.4916139 -0.070703864 -0.058073413
-0.2104273 -0.47037938 -0.4824856 -0.0045991526 2.0482779 1.8250117 0.32852128 0.33447558
-0.019149425 2.6566548 -0.011457453 2.035994 -0.11515835 2.533333 -0.0056889993 -1.185862
2.6854343 -0.27604347 -0.11371424 2.5335317 2.0431674 1.8821725 -0.02185553 -0.17811415
-0.020471813 0.033843517 -0.12231753 -0.03457283 -0.047927924 1.6299362 -0.83039725 -0.0020169683
-0.053073015 -0.29949057 -0.72566235 -0.29086372 -0.075232096 -0.1752194 -0.14235017 -0.172182
0.14798649 -0.024703741 1.7752587 -0.016551858 -0.25203145 2.084741 -0.14771898 -0.42738336
-0.13136885 -0.20817195 2.3934727 -0.2933868 -0.24932821 -0.29121837 1.561566 -0.019345162
-0.060601797 -0.9372071 2.3707998 -0.91295284 -0.14454861 2.4819672 -0.15115798 -0.058298133
-1.3156648 -0.20341963 -0.003513718 -0.9292708 -0.11641826 -0.46384656 -0.40336227 0.30083537
-0.7272686 -0.47620898 2.2179213 2.5808377 -0.03935791 -0.83541495 2.7240345 -0.0055394857
2.3088942 -1.282949 0.0117330905 1.8700417 -0.083237045 -1.2261987 -0.11179044 1.9863831
-0.41011548 -0.11167293 -0.21705739 -3.2009683e-07 -0.16242826 1.4501141 -0.11080162 2.5096612
2.25367 -0.20045294 2.2229893 -0.06890514 -0.8104174 -0.6912301 -0.7299073 1.0478666
00000000: 12f3 05bf 932a a2be 7e41 2240 8da1 91bf
00000010: 7287 3bbc 89a1 ec3f 6179 f43f bc7f abbe
00000020: b47b b1bd fc50 6dbd 37ad 14be 79b0 38bf
00000030: 86c7 99bc 4a51 273e 2a68 44bd 0cb9 adbd
00000040: 4518 0f40 747b 22bd a6ff 0140 e803 1dbd
00000050: 6b25 25be 7800 b2bd a568 79bf b9ae 94bd
00000060: 640c 4ebf 5220 d4bd 60b9 d1bc 4f18 1540
00000070: 2d90 a5bd 9793 a3bf a85b 43bd e58c 61bc
00000080: 70f2 afbc d455 89ba cd3d 2040 bfb7 8da3
00000090: 0cb1 38be ba59 f93e 0210 30be 73f6 34bd
000000a0: 1d7c 6abf 0495 513e 96ba 11bc 46f8 c8bd
000000b0: f0fe c83f 626e 4340 330a 97be 46db 27be
000000c0: 5755 40be 27fc b7be 2796 d7bd 76e3 0740
000000d0: fd6f d73e 8daf 63bd 63c6 89bc 84fb cfbc
000000e0: a645 0240 f0c2 12bf ccac 8abd 54ea 3dbe
000000f0: a5d8 eebe 1143 ceba 2376 afbd b1a7 60bc
00000100: 4fb8 ed3f 8bc3 20bb 1a71 25bf f895 0ebf
00000110: 5f9a f53e 3419 bebd f210 18bc 8a42 493e
00000120: 0202 47be 4ca8 0640 1e86 0240 74c1 0b40
00000130: ac3a 78be 50d0 b1be b062 e4bb e92e 27be
00000140: dc5d c13f 7e8f 8fbd ac4e 6bbf 8c42 5cbc
00000150: 1875 06bf 0628 da3f af22 2abe 398e de3f
00000160: 2e6e babc cf1a 99be 31a5 bfbd 3c77 1140
00000170: 76bc b0be 25bb 29be d358 0a40 d04e a9bf
00000180: 0f12 42be d181 31be 3671 8bbe 2d18 d93e
00000190: 6970 0dbf 0c08 a1be 24c3 e0bd 093a 1dbc
000001a0: 9684 0bbf ddb3 70bf 1f4d c2be a340 20be
000001b0: c862 1ebd bc6f 0b40 a0a1 e93d c9ab 86bd
000001c0: e793 d0bc 1199 68bd 8df9 f63f 6842 00bf
000001d0: 1ffc 25be f336 10be ddb6 c2bd c200 8bbd
000001e0: 9abd 95bd c2bc e73f 6dff a2bb f0b3 20bf
000001f0: 7ee6 55be a987 0cbe 65c2 d2be efdf 21bf
00000200: 4f23 a5bf 1d5e 0640 0581 0740 85e5 2a40
00000210: 5970 5cbe e99c 8bbe e6f2 a03f 28f7 7cbf
00000220: f034 79bd c36f 12a3 a07a e03e 10bf 03be
00000230: f5f4 b0bf cc5f e7be 69f7 e5be 5edf 8bbe
00000240: 07cc d7bd 2d7a 0440 63c5 0d40 aeec 0740
00000250: dddd 0abe d1b4 fbbe 30cd 90bd 63de 6dbd
00000260: 417a 57be 91d5 f0be 5a08 f7be 7db4 96bb
00000270: fc16 0340 fc99 e93f f133 a83e 6240 ab3e
00000280: 41df 9cbc a206 2a40 0ab8 3bbc ba4d 0240
00000290: 24d8 ebbd 2122 2240 c96a babb 53ca 97bf
000002a0: 28de 2b40 9255 8dbe 03e3 e8bd 6225 2240
000002b0: 41c3 0240 07eb f03f 5e0a b3bc 8e63 36be
000002c0: 81b4 a7bc 809f 0a3d 9d81 fabd 3d9c 0dbd
000002d0: 1250 44bd c0a1 d03f ea94 54bf 1d2f 04bb
000002e0: 1763 59bd d456 99be 02c5 39bf 17ec 94be
000002f0: 4913 9abd b76c 33be 3ec4 11be 7a50 30be
00000300: c589 173e 805f cabc ad3b e33f c397 87bc
00000310: 440a 81be 666c 0540 a543 17be fed1 dabe
00000320: 8e85 06be 072b 55be a82e 1940 cb36 96be
00000330: e54f 7fbe 931a 95be 65e1 c73f bf79 9ebc
00000340: 9739 78bd ceec 6fbf 2fbb 1740 47b7 69bf
00000350: 8d04 14be 8dd8 1e40 28c9 1abe 06ca 6ebd
00000360: b467 a8bf 3c4d 50be 6846 66bb b1e4 6dbf
00000370: b26c eebd 4c7d edbe 8085 cebe 1807 9a3e
00000380: 462e 3abf aad1 f3be 6cf2 0d40 722c 2540
00000390: c335 21bd c1dd 55bf 9556 2e40 9384 b5bb
000003a0: ecc4 1340 ac37 a4bf 263c 403c 875d ef3f
000003b0: 2f78 aabd 14f4 9cbf 63f2 e4bd cd41 fe3f
000003c0: a8fa d1be c7b4 e4bd 4b44 5ebe c6d9 abb4
000003d0: 9853 26be 579d b93f f6eb e2bd 4a9e 2040
000003e0: 213c 1040 8943 4dbe 7545 0e40 231e 8dbd
000003f0: 8477 4fbf 75f4 30bf 34db 3abf 7e20 863f

fc1.weight f4 [256, 97]
-0.4671931 -0.47233832 -0.47566062 -0.025286227 -0.0880495 -0.7711935 -0.10254161 0.76759005
0.61435366 0.75705504 0.053312596 0.021069473 -0.9239887 -0.09364736 -0.13948631 -0.14338022
-0.7050717 -0.5420047 0.40213108 0.15296766 -0.19153903 -0.37711406 -0.5289962 -0.617501
0.011719341 0.4785692 0.22361633 -0.12508744 0.18505916 -0.07728801 -0.5489893 -0.4103952
-0.31481346 -0.54390454 -0.400292 -0.29422715 -0.29705012 -0.4409688 -0.505072 -0.42411786
-0.11232573 0.15135767 -0.09045733 0.73095465 0.26154432 -0.5264754 -0.46215478 -0.64485323
-0.2883538 -0.54971886 -0.49924293 0.1816161 0.12735534 -0.121006474 -0.5109664 -0.4776766
-0.25786114 -0.6503513 0.025253937 0.34367153 -0.28671044 -0.38535932 -0.5213212 -0.21950912
0.3529194 -0.15060413 -0.5138374 -0.1593801 -0.4678485 -0.42856598 0.010077181 0.080821045
0.044013098 0.05858719 -0.23981403 -0.2434787 -0.1294978 -0.31806418 -0.38161835 -0.21659617
-0.13815935 -0.2797492 0.11025921 0.3518115 0.19340268 0.21898067 -0.24976172 -0.74206936
-0.24547152 0.42873365 -0.4782075 -0.22955336 -0.45133787 -0.4316611 -0.6742083 0.0016599157
-0.06338434 0.13381225 -0.7146873 -0.5788026 -0.3449527 -0.9489824 0.18703349 -0.481478
-0.40295833 -0.82752776 -0.6772222 -0.60330725 -0.71493167 -0.8399201 -0.2284394 -0.4426579
-0.05553443 0.3485725 0.3060539 -0.6765775 -0.6743631 0.058213707 -0.44064623 -0.846635
-0.5354124 0.5338099 0.48870254 -1.0164229 -0.9944105 -0.22189113 0.039739043 -0.022980103
-1.0466166 -0.310641 -0.77590543 -0.2785327 -0.14998727 0.102536045 0.1037564 -0.3214836
-0.26089305 -0.12759124 -0.22386192 -0.25812063 -0.55988806 -0.8184969 -0.6076206 -0.3609237
0.26907378 0.49053094 0.05509565 -0.6495373 0.39866772 0.21041547 -0.28867066 -0.32471043
0.47375903 0.24711019 -0.3466439 -0.45231706 -0.42617014 -0.5915561 -0.6057381 -0.5318461
-0.06829474 -0.05996396 -0.23270337 -0.24324717 0.20577967 0.57217634 -0.30151063 -0.27342054
-0.27319425 0.24643603 0.16437955 -0.05259519 -0.51326513 -0.24410446 -0.31010714 -0.20380446
-0.05153311 -0.42349356 -0.20128286 -0.30040514 -0.17785193 -0.69359666 -0.15313679 0.41635612
0.683334 0.26395175 -0.69245875 -0.42710802 -0.10829291 -0.33281714 -1.0614945 -1.2121233
-0.750365 -0.742217 -0.6091511 -0.7335009 -0.7052063 0.35686243 -0.23370455 -0.15959649
0.36871386 -0.013059796 -0.26408765 -0.53610635 -0.10642699 -0.29557398 -0.27371702 -0.70521146
-1.0494077 -0.26149622 -0.3935282 -0.41070038 -0.21533227 -0.35377452 -0.22799213 -0.36107492
-0.43544483 -0.4074155 -0.3800045 -0.31717876 -0.53524446 -0.3825381 -0.22159505 -0.37617242
-0.38038465 -0.378227 -0.312879 -0.6765552 -0.263575 -0.6163511 -0.9400839 -0.8429984
-0.864441 -0.87103415 -0.479308 -0.61783785 -0.68894404 -0.6811132 -0.5717399 -0.745374
-0.43822578 -0.7362233 -0.5496397 -0.41577753 -0.48103386 -0.91612804 -0.91858566 -0.4190275
-0.6931036 -0.68797475 -0.5214705 -0.6027994 -0.29396302 -0.22391605 -0.45734906 -0.56868434
00000000: ef33 efbe 54d6 f1be ca89 f3be 1025 cfbc
00000010: 4c53 b4bd f06c 45bf 5601 d2bd c880 443f
00000020: 4846 1d3f 5cce 413f 4f5e 5a3d e399 ac3c
00000030: 868a 6cbf 30ca bfbd 80d5 0ebe 44d2 12be
00000040: 947f 34bf d2c0 0abf 20e4 cd3e 8ea3 1c3e
00000050: cf22 44be 1815 c1be 4c6c 07bf 8c14 1ebf
00000060: 7b02 403c 0607 f53e aefb 643e ec16 00be
00000070: 2680 3d3e 2d49 9ebd 908a 0cbf 521f d2be
00000080: 3b2f a1be 543d 0bbf 13f3 ccbe f1a4 96be
00000090: f416 98be aac6 e1be 664c 01bf fa25 d9be
000000a0: 080b e6bd 81fd 1a3e b141 b9bd d81f 3b3f
000000b0: 23e9 853e 18c7 06bf 8d9f ecbe 1a15 25bf
000000c0: 1ca3 93be 60ba 0cbf c59c ffbe 92f9 393e
000000d0: 7069 023e 3ed2 f7bd b2ce 02bf 0792 f4be
000000e0: 6006 84be 6c7d 26bf 58e1 ce3c b7f5 af3e
000000f0: b6cb 92be d14d c5be 4e75 05bf 00c7 60be
00000100: dab1 b43e f837 1abe d98a 03bf 8934 23be
00000110: d789 efbe 006d dbbe c31a 253c 8185 a53d
00000120: 1447 343d 1ff9 6f3d cf91 75be 7b52 79be
00000130: 129b 04be 4fd9 a2be 7b63 c3be 63cb 5dbe
00000140: a579 0dbe 4a3b 8fbe 95cf e13d a320 b43e
00000150: 5a0b 463e 783c 603e 89c1 7fbe 42f8 3dbf
00000160: e35c 7bbe fa82 db3e 9dd7 f4be 0910 6bbe
00000170: c215 e7be af02 ddbe ea98 2cbf 8791 d93a
00000180: a6cf 81bd 1406 093e bff5 36bf 682c 14bf
00000190: a49d b0be 83f0 72bf b585 3f3e 4984 f6be
000001a0: 8e50 cebe dcd8 53bf 6f5e 2dbf 5872 1abf
000001b0: c305 37bf 0105 57bf 05ec 69be 0ea4 e2be
000001c0: 1278 63bd 1878 b23e 19b3 9c3e 2f34 2dbf
000001d0: 0fa3 2cbf 7f71 6e3d 629c e1be 12bd 58bf
000001e0: c910 09bf c4a7 083f 3837 fa3e 251a 82bf
000001f0: b091 7ebf 6e37 63be 68c5 223d c540 bcbc
00000200: 88f7 85bf 560c 9fbe bda1 46bf d79b 8ebe
00000210: 4396 19be 6bfe d13d 3c7e d43d 8099 a4be
00000220: c693 85be 47a7 02be 0f3c 65be 6328 84be
00000230: d354 0fbf 0389 51bf 068d 1bbf feca b8be
00000240: 0ac4 893e df26 fb3e faab 613d 1448 26bf
00000250: 2d1e cc3e 2777 573e a4cc 93be 7240 a6be
00000260: 8b90 f23e 740a 7d3e 4f7b b1be 1a96 e7be
00000270: f932 dabe 3870 17bf a711 1bbf 1127 08bf
00000280: 1dde 8bbd c59c 75bd cb49 6ebe c915 79be
00000290: e8b7 523e 267a 123f 9a5f 9abe c7fd 8bbe
000002a0: 1ee0 8bbe ba59 7c3e 1d53 283e 0e6e 57bd
000002b0: 5865 03bf 85f6 79be 5dc6 9ebe 1eb2 50be
000002c0: 6214 53bd 26d4 d8be 181d 4ebe b4ce 99be
000002d0: d11e 36be 8d8f 31bf e4cf 1cbe a12c d53e
000002e0: faee 2e3f af24 873e fa44 31bf e7ad dabe
000002f0: acc8 ddbd 0267 aabe 0ddf 87bf db26 9bbf
00000300: ec17 40bf ef01 3ebf 54f1 1bbf b7c6 3bbf
00000310: 6688 34bf acb6 b63e 3f50 6fbe 436d 23be
00000320: 10c8 bc3e c1f8 55bc 7f36 87be 443e 09bf
00000330: 65f6 d9bd 7955 97be a324 8cbe bd88 34bf
00000340: fe52 86bf d5e2 85be 877c c9be 5247 d2be
00000350: 1080 5cbe ef21 b5be c576 69be d0de b8be
00000360: a0f2 debe c498 d0be f38f c2be 4165 a2be
00000370: c805 09bf 09dc c3be d0e9 62be ac99 c0be
00000380: c7c1 c2be f8a6 c1be ad31 a0be b932 2dbf
00000390: 4df3 86be 30c9 1dbf 57a9 70bf bece 57bf
000003a0: 014c 5dbf 18fc 5ebf dc67 f5be 9f2a 1ebf
000003b0: a35e 30bf 6f5d 2ebf 8c5d 12bf d5d0 3ebf
000003c0: 215f e0be 2179 3cbf 30b5 0cbf cbe0 d4be
000003d0: 124a f6be 5e87 6abf 6e28 6bbf c68a d6be
000003e0: 3d6f 31bf 1d1f 30bf 177f 05bf 1051 1abf
000003f0: 5282 96be 404a 65be a829 eabe 4c95 11bf

fc1.bias f4 [256]
6.870198 5.073482 3.4601564 8.257387 -0.22004507 2.569236 7.58953 3.2210443
3.901996 25.94904 6.9951305 2.6223176 3.277699 1.6665479 3.012475 3.2774458
6.558349 3.8499408 -0.069416344 8.504028 4.982934 -0.8563981 4.9897037 -0.3659355
6.0148478 7.947576 1.9910232 5.1685867 3.9360259 3.7017603 7.1334176 5.1343827
-0.29122388 4.6870317 2.6195598 7.015379 3.8927808 1.395019 3.6927087 2.0734692
5.5980477 5.231295 2.6632538 3.1702018 7.4986105 2.0908396 6.2450056 4.2524185
2.1380024 5.5052347 4.7737274 -0.12877107 6.6402307 4.119486 2.8506243 3.8792982
3.6323001 6.504093 4.040205 1.6472453 7.7325873 -0.19368815 9.305054 3.246952
8.129256 6.528424 3.551337 6.377068 -0.017641675 -0.7642225 2.778014 5.886219
-0.007853142 7.172202 -0.0004954682 6.7451115 9.967657 4.8629637 -0.82091296 3.3655386
6.0505996 4.9067235 1.2196075 4.363362 3.1945488 3.9695039 7.052533 3.9196138
1.9589518 1.4178946 5.5917144 7.133091 2.3372152 5.988079 5.6449323 28.202892
3.5677917 4.755668 2.235179 6.1909404 4.8719378 6.602015 2.8691232 2.0993776
4.2603154 -0.00080923137 5.1958404 3.783737 5.8251476 6.9610543 3.8456059 4.860186
3.5552177 4.5617485 2.7593927 4.762005 5.0501976 2.919085 7.277096 4.7506013
3.4014862 1.3679336 3.5475929 -0.09333215 7.374724 3.0494895 4.0604205 5.042305
4.402133 -0.18075095 4.9315095 9.162332 -0.30379206 6.774149 7.1538863 3.9123201
3.9219477 4.629163 8.109652 5.720078 5.1376143 7.599198 6.326986 4.5935845
7.514009 8.149892 6.476887 2.9003928 9.274315 6.795043 2.6134012 7.9176526
3.652019 8.364885 5.0324793 6.7948856 5.6304245 6.229406 3.551226 4.189126
3.9857273 7.3820486 5.6833844 2.5775461 26.70926 8.277109 5.218974 1.4014744
9.323436 5.2168326 3.7497063 7.4318953 3.1996665 4.6672277 5.8897967 6.4520774
-0.27157193 3.9525015 -0.0675261 3.3942156 -1.6505442 2.960307 5.435161 5.6851306
6.8924856 -8.007997e-05 3.780932 3.422621 28.07776 -2.8570008 3.2474415 5.029536
6.4172335 7.7338424 3.3411155 4.749736 5.4109693 6.4111686 3.2158194 3.7922366
-0.00026374398 5.718276 -0.06700105 4.4207606 3.4883418 6.210117 5.353261 7.4403996
6.810227 2.2282224 5.699091 9.088048 4.4989443 0.80732054 3.623846 -0.00052486267
3.6040084 4.127801 4.965151 2.9565086 -0.010889028 3.5379856 4.285641 -0.013366743
4.314657 4.247705 8.280276 3.7177248 7.435969 4.609527 3.3474176 -0.005373521
3.793907 3.670241 6.1230764 29.510555 -6.834094e-08 4.579196 -0.072083935 4.1849475
6.881567 3.7362623 3.4083836 8.325514 9.213313 1.0891528 6.509388 5.2523646
3.517141 3.776897 2.6495845 4.361557 -0.00046092796 4.0548263 3.4074821 5.3947268
00000000: a9d8 db40 f759 a240 3473 5d40 421e 0441
00000010: 7f53 61be 5d6e 2440 6edd f240 9725 4e40
00000020: 4dba 7940 a297 cf41 1cd8 df40 0dd4 2740
00000030: d2c5 5140 7151 d53f 64cc 4040 acc1 5140
00000040: ffdd d140 6e65 7640 282a 8ebd 8010 0841
00000050: 3274 9f40 e83c 5bbf a7ab 9f40 e65b bbbe
00000060: a279 c040 8b52 fe40 d9d9 fe3f 1065 a540
00000070: d9e7 7b40 a4e9 6c40 f544 e440 dd4c a440
00000080: 4c1b 95be 2afc 9540 dea6 2740 fc7d e040
00000090: 5223 7940 fc8f b23f 5755 6c40 b8b3 0440
000000a0: 3523 b340 c566 a740 c072 2a40 96e4 4a40
000000b0: 9ef4 ef40 51d0 0540 16d7 c740 d013 8840
000000c0: 08d5 0840 e22a b040 60c2 9840 90dc 03be
000000d0: c57c d440 d4d2 8340 a170 3640 6c46 7840
000000e0: 9b77 6840 8821 d040 5c49 8140 efd8 d23f
000000f0: 5b71 f740 3056 46be 80e1 1441 10ce 4f40
00000100: 6f11 0241 d9e8 d040 1b49 6340 f110 cc40
00000110: 4685 90bc 16a4 43bf fbca 3140 e85b bc40
00000120: 77aa 00bc ae82 e540 4fe2 01ba f4d7 d740
00000130: 867b 1f41 669d 9b40 5a27 52bf fc64 5740
00000140: 839e c140 e103 9d40 191c 9c3f a9a0 8b40
00000150: 7d73 4c40 5a0c 7e40 5aae e140 f4da 7a40
00000160: efbe fa3f 927d b53f 53ef b240 4842 e440
00000170: ef94 1540 589e bf40 49a3 b440 869f e141
00000180: b356 6440 6f2e 9840 2c0d 0f40 2f1c c640
00000190: eae6 9b40 b543 d340 b79f 3740 345c 0640
000001a0: 8154 8840 9922 54ba 5344 a640 bf28 7240
000001b0: 9c67 ba40 f5c0 de40 681e 7640 a586 9b40
000001c0: b088 6340 d8f9 9140 e499 3040 5862 9840
000001d0: 389b a140 4ad2 3a40 f8dd e840 ed04 9840
000001e0: f3b1 5940 7318 af3f c30b 6340 ed24 bfbd
000001f0: bdfd eb40 d62a 4340 f7ee 8140 905a a140
00000200: 46de 8c40 c716 39be edce 9d40 e998 1241
00000210: a28a 9bbe d4c5 d840 a3ec e440 7463 7a40
00000220: 3101 7b40 1a22 9440 22c1 0141 e10a b740
00000230: 5667 a440 a12c f340 ab76 ca40 a5fe 9240
00000240: c372 f040 f565 0241 a942 cf40 09a0 3940
00000250: 9863 1441 fe70 d940 f741 2740 695d fd40
00000260: aeba 6940 92d6 0541 120a a140 b46f d940
00000270: 702c b440 4b57 c740 4947 6340 520d 8640
00000280: 2816 7f40 be39 ec40 49de b540 84f6 2440
00000290: 91ac d541 0a6f 0441 d601 a740 8363 b33f
000002a0: cb2c 1541 4bf0 a640 30fb 6f40 16d2 ed40
000002b0: 56c7 4c40 ee59 9540 3779 bc40 6b77 ce40
000002c0: 7a0b 8bbe c9f5 7c40 204b 8abd d43a 5940
000002d0: 0845 d3bf ab75 3d40 d7ec ad40 97ec b540
000002e0: 3e8f dc40 9bf0 a7b8 cafa 7140 390c 5b40
000002f0: 419f e041 1ad9 36c0 15d6 4f40 f5f1 a040
00000300: fa59 cd40 a37b f740 d6d4 5540 d6fd 9740
00000310: a926 ad40 4b28 cd40 fccf 4d40 01b4 7240
00000320: 1e47 8ab9 1efc b640 d937 89bd df76 8d40
00000330: fe40 5f40 47b9 c640 ea4d ab40 c117 ee40
00000340: 61ed d940 329b 0e40 f45e b640 a568 1141
00000350: 5af7 8f40 8fac 4e3f 18ed 6740 f096 09ba
00000360: 13a8 6640 f216 8440 84e2 9e40 7037 3d40
00000370: e567 32bc 5b6e 6240 f923 8940 2f00 5bbc
00000380: ac11 8a40 33ed 8740 037c 0441 34ef 6d40
00000390: 75f3 ed40 3f81 9340 173c 5640 5c14 b0bb
000003a0: 5fcf 7240 3be5 6a40 3ef0 c340 9e15 ec41
000003b0: d4c2 92b3 c688 9240 bea0 93bd 17eb 8540
000003c0: cc35 dc40 ec1e 6f40 f522 5a40 4e35 0541
000003d0: bb69 1341 5c69 8b3f e84c d040 5f13 a840
000003e0: d718 6140 aeb8 7140 cb92 2940 e091 8b40
000003f0: b4a8 f1b9 23c1 8140 3014 5a40 9aa1 ac40

fc2.weight f4 [14, 256]
-8.478831e-05 -0.00018765099 -0.0015014595 0.000935786 0.33418998 -9.535032e-05 0.0012205925 -0.0026652303
-0.0017580596 -0.0003707182 0.00019397003 -0.0027786265 -0.0018004851 0.0019992308 0.0024140766 0.0042426
-0.00011441708 -0.0012547477 0.00038878122 0.00018558686 0.0041426257 -0.05172408 -0.0016215586 0.12782086
0.0007687474 -0.00057353347 -0.00079521193 7.3128824e-05 -0.0005347875 -0.00041114652 0.00015690134 7.23813e-05
-0.17793275 -0.0017677413 0.002006307 0.0008257248 0.00025458098 0.005580929 -0.0010894232 -0.0019731491
-0.0003000352 -0.00077558594 0.0014894056 -0.0030959968 -0.0006409343 -0.0009383304 0.0012001977 0.002098876
0.0033702266 -0.000568425 0.0004706071 0.23959802 0.0012279695 0.0007503146 0.0023195478 0.0026148201
0.0018057906 0.00031784555 -0.0011957905 -0.00020453942 -0.0011882951 -0.0749245 0.0005336282 0.0031653966
0.00010583818 -0.0009161062 0.0017245779 -0.00010859719 -0.084613696 0.103621356 -0.0008741203 -0.00043138379
0.00019567837 -0.0012741606 -0.046156332 -0.00088100403 -1.4457844e-05 -0.0009405922 0.015437058 0.0019628527
0.002696984 -0.0008491497 0.005599386 0.0031449012 -0.0010048822 -0.0016721825 -0.00031715908 0.00022375764
-0.0005269021 0.0030888733 -0.0009249666 -0.0011591745 -0.0035740512 -0.0015677538 0.00039051182 0.00047210685
0.0010958153 0.00061132375 0.0022210474 -0.0017963878 0.001445494 0.00030725243 -0.0011433514 0.0010342698
-0.001397779 -0.025030306 -0.0012393725 1.0097479e-05 -0.0012812045 0.0006690752 0.0015566054 -0.00049391465
0.0010814182 -0.0014045626 -0.0010293507 0.0004570962 -0.00014977074 0.0016066108 0.00021959863 -0.00029144617
0.0013301384 -0.010378682 -0.0006939641 -0.09581064 -0.0010489483 0.002486198 -0.00039053377 0.0010289182
0.0001387429 -0.1895195 -0.00094654603 0.00032355927 0.019169427 0.00030028023 -0.00031373164 2.8524511e-05
-0.000976832 -0.0016492802 0.0012456577 0.0011383619 -0.0009850013 0.0006124762 -0.0017111079 0.0025594118
-7.076998e-05 -0.0008002395 -0.00015741563 0.0019193974 -0.0010540785 -0.0013801886 -0.0019494586 -6.0792794e-05
-0.00045873906 -0.0010040049 0.0006215078 0.00033327786 -0.0018625451 -6.614991e-05 0.0005657331 0.0008712345
0.0016989445 -0.00076715037 0.0019234638 -0.0020588597 -0.00011142051 -0.0011894164 0.001442125 0.00065539655
-0.0007613822 -0.0009086891 -0.00039731766 0.0012434883 0.0008735918 -0.002768291 -0.00058808544 0.00018511635
-6.7758485e-08 0.00067922485 -0.13405398 -0.0043157386 0.17187867 0.0008794087 -0.0007125526 -0.00046480968
-0.0002641837 0.0967392 0.0022918296 4.0439016e-05 -0.00082162337 0.009262162 0.0030289688 -0.00038235146
-0.0006532028 -0.000576471 -0.0001522586 -0.00013970071 -0.00017030662 0.0007163841 0.00019639333 -0.0026033039
-0.02087763 -7.2921175e-05 0.25202462 -9.117581e-05 0.0008566019 -0.00078505604 2.5722344e-05 -0.00020605393
0.0008726881 -0.0020297016 -0.0010922786 0.0011670515 -8.5245396e-05 0.004113574 0.0023243097 -0.058537453
-0.0035378851 -0.00033427903 -0.0027581223 -0.000992963 -0.075593345 -0.003353279 0.00018109492 0.00018988445
-0.0008851057 0.0004164876 0.000242006 0.002274347 -0.00069184415 0.0020115958 0.0036002977 -0.032411184
0.00035531493 0.0017407237 -0.000597369 0.00017240687 -0.019179495 0.0002274545 -0.15615734 -5.14579e-05
8.550211e-06 -0.0011880941 0.0016883161 0.0003994162 6.361871e-05 -0.005499018 -2.0833373e-05 -0.0007709499
-0.0015290983 -0.00020099002 -0.00037028335 0.00023753877 -0.022411697 0.00088913896 -0.0013148665 -0.002102353
00000000: 61d0 b1b8 2ec4 44b9 9fcc c4ba 894f 753a
00000010: f31a ab3e d0f6 c7b8 4afc 9f3a 25ab 2ebb
00000020: b16e e6ba f45c c2b9 6f64 4b39 9e19 36bb
00000030: 41fe ebba 8705 033b 7c35 1e3b 8205 8b3b
00000040: 34f3 efb8 5976 a4ba 55d5 cb39 189a 4239
00000050: ddbe 873b a1dc 53bd 7a8a d4ba 79e3 023e
00000060: c485 493a 2e59 16ba c575 50ba bd5c 9938
00000070: fb30 0cba 278f d7b9 e285 2439 6acb 9738
00000080: 0134 36be 8eb3 e7ba 3f7c 033b 7475 583a
00000090: 4879 8539 3ae0 b63b faca 8eba f34f 01bb
000000a0: 0b4e 9db9 b150 4bba 2938 c33a 35e6 4abb
000000b0: 5f04 28ba 4afa 75ba f44f 9d3a 4c8d 093b
000000c0: 05df 5c3b 5b02 15ba d1bb f639 2f59 753e
000000d0: d2f3 a03a c3b0 443a 8e03 183b 675d 2b3b
000000e0: 47b0 ec3a 82a4 a639 12bc 9cba a279 56b9
000000f0: 91c0 9bba 0472 99bd 2fe3 0b3a 8b72 4f3b
00000100: 71f5 dd38 d926 70ba 3b0b e23a acbe e3b8
00000110: f249 adbd 6f37 d43d 3825 65ba 5a2b e2b9
00000120: 032f 4d39 bc01 a7ba 6c0e 3dbd 2ef3 66ba
00000130: f88f 72b7 1392 76ba b7eb 7c3c 34a3 003b
00000140: e2bf 303b 7999 5eba 0e7b b73b b01a 4e3b
00000150: 40b6 83ba 222d dbba 5f48 a6b9 7ca0 6a39
00000160: cd1f 0aba b26e 4a3b 7579 72ba 71ef 97ba
00000170: a13a 6abb 177d cdba 9cbd cc39 1c85 f739
00000180: 76a1 8f3a 3e41 203a fe8e 113b c674 ebba
00000190: bb76 bd3a b916 a139 82dc 95ba 5690 873a
000001a0: ae35 b7ba 5b0c cdbc 7172 a2ba 5868 2937
000001b0: 17ee a7ba e064 2f3a 0307 cc3a 0d7a 01ba
000001c0: 60be 8d3a 4d19 b8ba 47eb 86ba 6aa6 ef39
000001d0: c70b 1db9 ea94 d23a 0f44 6639 3ecd 98b9
000001e0: 0a58 ae3a 590b 2abc 24eb 35ba 5e38 c4bd
000001f0: dd7c 89ba 7bef 223b 8ec0 ccb9 c4dc 863a
00000200: 837b 1139 6611 42be a121 78ba 64a3 a939
00000210: 3409 9d3c ee6e 9d39 597c a4b9 ec47 ef37
00000220: 0b09 80ba a92c d8ba 5645 a33a 1635 953a
00000230: 291b 81ba 958e 203a 4147 e0ba cebb 273b
00000240: 586a 94b8 2ac7 51ba f00f 25b9 4a94 fb3a
00000250: 0129 8aba 72e7 b4ba fa84 ffba c4fb 7eb8
00000260: ea82 f0b9 d098 83ba afec 223a ccbb ae39
00000270: a520 f4ba f6b9 8ab8 b54d 143a 8f63 643a
00000280: 1eaf de3a 971a 49ba bc1c fc3a efed 06bb
00000290: 6eaa e9b8 31e6 9bba af05 bd3a ebce 2b3a
000002a0: 7f97 47ba 1835 6eba 134f d0b9 8bfc a23a
000002b0: c101 653a 376c 35bb bf29 1aba cb1b 4239
000002c0: 9f82 91b3 020e 323a 7245 09be 0a6b 8dbb
000002d0: f600 303e 1e88 663a 98ca 3aba b3b1 f3b9
000002e0: 2382 8ab9 341f c63d 8532 163b 109d 2938
000002f0: 3662 57ba 53c0 173c aa81 463b 5876 c8b9
00000300: b33b 2bba 501e 17ba 9ba7 1fb9 a07c 12b9
00000310: 5694 32b9 b9cb 3b3a efee 4d39 319c 2abb
00000320: 9007 abbc 42ed 98b8 5f09 813e a435 bfb8
00000330: 958d 603a 38cc 4dba 50c6 d737 2e10 58b9
00000340: 1bc5 643a be04 05bb ca2a 8fba c0f7 983a
00000350: c6c5 b2b8 29cb 863b 7253 183b f8c4 6fbd
00000360: dddb 67bb 2c42 afb9 9dc1 34bb 4f26 82ba
00000370: afd0 9abd b0c2 5bbb 4ce4 3d39 b81b 4739
00000380: 7006 68ba 055c da39 fec2 7d39 360d 153b
00000390: e05c 35ba fad4 033b f9f2 6b3b 97c1 04bd
000003a0: 9049 ba39 ff28 e43a c198 1cba 1ec8 3439
000003b0: 511e 9dbc da80 6e39 b6e7 1fbe 80d4 57b8
000003c0: e072 0f37 d3b9 9bba 7d4a dd3a bc68 d139
000003d0: 096b 8538 1b31 b4bb 54c3 aeb7 9219 4aba
000003e0: 066c c8ba d9c0 52b9 9722 c2b9 d413 7939
000003f0: bc98 b7bc 1b15 693a 9957 acba a1c7 09bb

fc2.bias f4 [14]
1.4576559 43.977753 9.814336 8.7392025 14.002025 4.4907966 1.4966544 3.436077
1.3430688 54.53972 79.871254 1.6730542 3.7659583 1.5480508
00000000: 7894 ba3f 38e9 2f42 8507 1d41 c6d3 0b41
00000010: 4b08 6041 9bb4 8f40 5f92 bf3f b0e8 5b40
00000020: aee9 ab3f ac28 5a42 15be 9f42 a426 d63f
00000030: 7605 7140 8726 c63f
