Response14/state_dicts/model_state_dict_100e.pth (torch, 895023 bytes, 10 tensors)

conv1.weight f4 [32, 1024, 3]
0	0x3d237a3d	0.039911497
1	0x3d035bec	0.032070085
2	0x3d01967a	0.031637646
3	0x3d2f4823	0.042793404
4	0x3d32660b	0.043554347
5	0x3d0cb3fa	0.034351327
6	0x3d47dea0	0.048796296
7	0x3d658376	0.056033574
8	0x3d5ec84e	0.054390244
9	0x3d489c69	0.04897729
10	0x3d099508	0.033589393
11	0x3ced99ac	0.02900394
12	0x3cecf5e5	0.028925845
13	0x3d3ccc12	0.046093054
14	0x3d39beea	0.045348085
15	0x3c60b3d1	0.013714747
16	0x3ccfc620	0.025363028
17	0x3d2d1c51	0.042263333
18	0x3cbf7160	0.023369491
19	0x3d02e62f	0.0319578
20	0x3ced165d	0.028941328
21	0x3caddedb	0.02122443
22	0x3d0722b1	0.03299207
23	0x3cf32e9b	0.02968531
24	0x3d2d7c26	0.042354725
25	0x3d510439	0.051029418
26	0x3d23ddc5	0.040006418
27	0x3d348f7e	0.044082157
28	0x3d066a67	0.032816317
29	0x3d37d035	0.044876296
30	0x3c889068	0.01667042
31	0x3ca1a505	0.019732008
32	0x3d16de5b	0.03683315
33	0x3cfd068f	0.030886916
34	0x3d475f94	0.048675135
35	0x3d45ae19	0.048261736
36	0x3c9e9eeb	0.019362887
37	0x3c9c1a21	0.019055428
38	0x3caf988a	0.021435041
39	0x3cd02f4d	0.02541318
40	0x3cfc6452	0.030809555
41	0x3d32d974	0.04366441
42	0x3d264fb1	0.040603343
43	0x3d07df1c	0.033171758
44	0x3d44430e	0.04791551
45	0x3d3d08cf	0.04615098
46	0x3d240d4e	0.04005175
47	0x3d51a5d8	0.05118355
48	0x3cdbfaec	0.026853047
49	0x3d63b742	0.05559469
50	0x3d47df4a	0.04879693
51	0x3d581dfe	0.052762978
52	0x3ce60c7d	0.028082127
53	0x3cc8a291	0.02449158
54	0x3ce19dac	0.027541004
55	0x3d39ac03	0.04533006
56	0x3cf61766	0.030040454
57	0x3d23834e	0.039920144
58	0x3d5a5159	0.053300235
59	0x3cd6db43	0.026227599
60	0x3d2546bc	0.04035066
61	0x3cb9ac24	0.02266509
62	0x3cee33f9	0.029077517
63	0x3ce9dcde	0.0285477
64	0x3cb547f3	0.022129035
65	0x3ca101b3	0.01965413
66	0x3d10033e	0.035159342
67	0x3d119a18	0.035547346
68	0x3d3a4e22	0.04548467
69	0x3ca49abe	0.020093318
70	0x3d4ac076	0.04949995
71	0x3cf3e778	0.029773459
72	0x3d3fcce0	0.046826243
73	0x3d6528e0	0.055947185
74	0x3d431926	0.047631405
75	0x3d651e2e	0.055936985
76	0x3d4bdce4	0.049771205
77	0x3d257743	0.04039694
78	0x3d37c875	0.044868905
79	0x3cd8245e	0.026384529
80	0x3d581d8f	0.052762564
81	0x3d3a3bc4	0.045467153
82	0x3d6314c8	0.05543974
83	0x3d698d0e	0.057019286
84	0x3cc9c1bc	0.024628513
85	0x3d2f0721	0.042731408
86	0x3cedaa12	0.02901176
87	0x3d1d77c2	0.038444288
88	0x3cde6565	0.027147958
89	0x3d4a0215	0.04931839
90	0x3cf0741e	0.029352244
91	0x3c7aaf7d	0.015300629
92	0x3ca9d3d8	0.020730898
93	0x3d25e8fa	0.040505387
94	0x3cf63912	0.03005651
95	0x3d143680	0.036184788
96	0x3c8145ec	0.015780412
97	0x3d0bfc9e	0.03417646
98	0x3d1c750d	0.038197566
99	0x3cee5118	0.029091403
100	0x3cb002f3	0.021485781
101	0x3ca318b9	0.01990925
102	0x3d4a77ba	0.049430586
103	0x3d12ae4c	0.035810754
104	0x3d3cfb19	0.046137903
105	0x3d08370b	0.033255618
106	0x3cd6664d	0.026171828
107	0x3cae9b37	0.021314247
108	0x3cd2cf75	0.025733689
109	0x3d1625b2	0.036657043
110	0x3cf6c6c6	0.03012408
111	0x3d1f3394	0.038867548
112	0x3c9c8e8c	0.01911094
113	0x3c8fb076	0.017540198
114	0x3cf811dd	0.030281955
115	0x3cfc2fc6	0.030784499
116	0x3cac6b9c	0.021047406
117	0x3d264972	0.040597387
118	0x3d299780	0.041404247
119	0x3d239df0	0.039945543
120	0x3d4290a4	0.04750122
121	0x3ce8475a	0.028354336
122	0x3d2c3b45	0.04204871
123	0x3d161f28	0.036650807
124	0x3cb20d3c	0.021734826
125	0x3d034c40	0.03205514
126	0x3d565ef6	0.052336656
127	0x3cb06e39	0.021536933
128	0x3ce5165c	0.027964763
129	0x3d473d27	0.048642304
130	0x3cf68173	0.030091023
131	0x3d533c53	0.0515712
132	0x3d5eb9ad	0.054376293
133	0x3d5e5e0f	0.05428892
134	0x3cf4028e	0.029786374
135	0x3d409810	0.047020018
136	0x3ccb63a9	0.024827795
137	0x3d29d918	0.041466802
138	0x3d22a285	0.039705772
139	0x3cd9bd1f	0.026579438
140	0x3d2eefa7	0.04270902
141	0x3d53e8c7	0.051735666
142	0x3d4771db	0.048692565
143	0x3cdb2ce1	0.026754798
144	0x3cecbd07	0.028898729
145	0x3cca2554	0.024676003
146	0x3d12573c	0.035727724
147	0x3cc56649	0.024096625
148	0x3d473f4a	0.04864434
149	0x3d1d967f	0.038473602
150	0x3cc3fdd3	0.023924744
151	0x3cd985c7	0.026553048
152	0x3d19b29c	0.03752385
153	0x3c92af6e	0.017905917
154	0x3d0bb7b8	0.034110755
155	0x3c9cfa87	0.01916243
156	0x3cb16541	0.021654727
157	0x3cc25060	0.023719966
158	0x3d0bcf3c	0.03413318
159	0x3d48d38e	0.04902988
160	0x3d273d05	0.040829677
161	0x3cdc2a58	0.02687566
162	0x3d1ff81d	0.03905498
163	0x3d15b90e	0.036553435
164	0x3d071130	0.032975376
165	0x3d3c4580	0.045964718
166	0x3d481594	0.048848704
167	0x3d461eb6	0.048369132
168	0x3d47a22a	0.048738636
169	0x3cd2fe8c	0.025756143
170	0x3cdcfaa1	0.026974978
171	0x3cd384d9	0.025820183
172	0x3d1f2f6b	0.03886358
173	0x3c9854eb	0.01859518
174	0x3cc9ad6c	0.024618827
175	0x3ce5c775	0.02804921
176	0x3d21e9b4	0.039529517
177	0x3d492d42	0.049115427
178	0x3d2eaffa	0.042648293
179	0x3d359275	0.044329125
180	0x3ca81158	0.020516083
181	0x3ce33a0a	0.027737636
182	0x3d135ac0	0.035975218
183	0x3d281be2	0.041042216
184	0x3cf764a9	0.030199366
185	0x3cb196ee	0.021678414
186	0x3cc06592	0.023485932
187	0x3cf3af16	0.029746573
188	0x3d15fe5f	0.03661954
189	0x3d14a5b5	0.036290843
190	0x3d0b3b9d	0.0339924
191	0x3d41e2a4	0.047335282
192	0x3ccb39be	0.024807807
193	0x3cee0132	0.029053304
194	0x3d20d77b	0.039268
195	0x3d13f7a2	0.036124833
196	0x3caaa57b	0.02083086
197	0x3d072009	0.032989535
198	0x3caa98df	0.020824848
199	0x3d51135f	0.051043864
200	0x3cac38fb	0.021023264
201	0x3d225628	0.039632946
202	0x3d4045b8	0.04694149
203	0x3ce21de5	0.027602145
204	0x3d306549	0.043065343
205	0x3c992d81	0.018698456
206	0x3d50e65b	0.051000934
207	0x3cc92cfb	0.024557581
208	0x3d277b1b	0.040888887
209	0x3cbfd607	0.023417486
210	0x3d3ea438	0.04654333
211	0x3d20ae4e	0.03922873
212	0x3d1818c9	0.037133012
213	0x3d3ca086	0.046051525
214	0x3d08dbb2	0.033412643
215	0x3cea5000	0.0286026
216	0x3cbcce57	0.02304761
217	0x3d0ea6e7	0.03482714
218	0x3cfc1347	0.03077091
219	0x3d3f23f1	0.046665136
220	0x3ca9b764	0.02071733
221	0x3c83444e	0.016023781
222	0x3cd66a18	0.026173636
223	0x3c6ca4cc	0.0144435875
224	0x3cb8ec45	0.0225736
225	0x3d041543	0.03224684
226	0x3ce210b6	0.027595859
227	0x3d003793	0.031303
228	0x3cb8191e	0.022472914
229	0x3d0174a3	0.031605374
230	0x3d2db2f3	0.042406987
231	0x3d028c9a	0.03187237
232	0x3cffc044	0.03121961
233	0x3d57849d	0.052616704
234	0x3d068981	0.032845978
235	0x3d5aae30	0.053388774
236	0x3ce8277a	0.028339136
237	0x3cf5ee9b	0.030021003
238	0x3d52f41e	0.05150234
239	0x3d376635	0.044775207
240	0x3d58e29d	0.05295049
241	0x3d304827	0.04303756
242	0x3ceab473	0.028650498
243	0x3d06bc0b	0.032894175
244	0x3d336f25	0.043807168
245	0x3d3cb0ab	0.04606692
246	0x3d4d6332	0.05014343
247	0x3d2c849a	0.042118646
248	0x3ca6c15c	0.020355873
249	0x3cf28996	0.029606622
250	0x3cddc524	0.027071543
251	0x3cbb22f6	0.02284382
252	0x3d2f7f4e	0.042846017
253	0x3d0e66fb	0.03476618
254	0x3cb1f523	0.021723336
255	0x3d6d3563	0.05791224

conv1.bias f4 [32]
0	0x3d40ed1f	0.047101136
1	0x3caf38d6	0.021389406
2	0x3ce7e299	0.028306292
3	0x3d54dec4	0.05197026
4	0x3cdfaca6	0.027304005
5	0x3cf7a5ee	0.030230489
6	0x3d072e58	0.03300318
7	0x3c7dd253	0.01549204
8	0x3c6e32b1	0.014538453
9	0x3ce4b759	0.027919458
10	0x3d39fc20	0.04540646
11	0x3d2681ea	0.04065124
12	0x3ca5017b	0.020142308
13	0x3cecdfd7	0.028915329
14	0x3cc8206e	0.024429526
15	0x3d07b07f	0.033127304
16	0x3c8ccc24	0.017187186
17	0x3d0c7e37	0.034300055
18	0x3d51b792	0.051200457
19	0x3d2bc1ac	0.041932747
20	0x3c80a2d4	0.015702643
21	0x3d3da44c	0.046299264
22	0x3cc453af	0.023965685
23	0x3d0fa155	0.035065968
24	0x3ca65189	0.02030255
25	0x3d01813f	0.0316174
26	0x3d194168	0.037415892
27	0x3cd2dff1	0.02574155
28	0x3c886d95	0.016653815
29	0x3d211c13	0.039333414
30	0x3c93a8a0	0.018024743
31	0x3d4437ff	0.047904965

conv2.weight f4 [1024, 32, 3]
0	0x3d6a7216	0.057237707
1	0xbd08c174	-0.033387616
2	0xbd00211e	-0.031281583
3	0xbdc0784a	-0.09397943
4	0x3ddaf1ee	0.10690676
5	0x3d900e3f	0.07033967
6	0xbda4e9b0	-0.08052385
7	0x3c1a6433	0.009423303
8	0xbda5afa6	-0.08090143
9	0xbcbf63bb	-0.023362985
10	0xbdb42b03	-0.08797266
11	0x3d4dedb9	0.050275538
12	0x3d003e9e	0.031309716
13	0xbd241f07	-0.040068652
14	0xbd8eb48a	-0.06968029
15	0x3bdf7dc4	0.0068204124
16	0x3dc9b07d	0.098481156
17	0xbd4f1f4b	-0.050566953
18	0xbdac0777	-0.08399861
19	0x3dcca3d6	0.09992187
20	0x3cc75b55	0.024335543
21	0xbd2f3880	-0.042778492
22	0x3cac51dd	0.02103513
23	0x3d935e4d	0.07195721
24	0xbd2fd171	-0.04292435
25	0xbd30bc9e	-0.04314863
26	0xbd41bbb1	-0.047298137
27	0x3c5493eb	0.0129747195
28	0xbccdcd0c	-0.025122188
29	0xbdaf4fb5	-0.08560125
30	0xbdb2fbc2	-0.08739425
31	0x3d82f003	0.06393435
32	0x3c6f19d2	0.014593558
33	0xbd055340	-0.032550097
34	0xbd3159d6	-0.043298565
35	0xbd2e3e1e	-0.04253971
36	0x3da194cb	0.07889708
37	0xbdc3215c	-0.09527847
38	0x3d826a8f	0.06367981
39	0xbc770677	-0.015077225
40	0x3d262e1d	0.04057132
41	0x3d999fad	0.07501159
42	0xbbef47a0	-0.0073022395
43	0x3d90cc28	0.0707019
44	0xbd931dd5	-0.071834244
45	0xbd75de96	-0.060026728
46	0x3cb441b9	0.022003995
47	0xbda65597	-0.08121794
48	0x3dca24a4	0.0987027
49	0xbda6e464	-0.08149031
50	0xbc019ce1	-0.007910938
51	0xbd2755f3	-0.040853452
52	0x3bfdad29	0.0077415896
53	0xbdb491e7	-0.08816891
54	0xbd2aa470	-0.041660726
55	0xbd27640f	-0.040866908
56	0xbdb68cf6	-0.08913605
57	0x3d693ace	0.056940846
58	0x3dd03202	0.10165788
59	0x3d5f5cf9	0.054532025
60	0xbc8f9816	-0.017528575
61	0xbdbb7285	-0.09152702
62	0xbd83806b	-0.06420978
63	0xbd55643f	-0.052097555
64	0xbda3de78	-0.08001417
65	0xbd0c83fb	-0.034305554
66	0xbca15f17	-0.019698663
67	0x3d98b1a1	0.07455755
68	0x3db4a111	0.088197835
69	0x3d3be0f6	0.045868836
70	0xbdbf8658	-0.09351796
71	0x3d999298	0.07498664
72	0xbd7adfa1	-0.061248425
73	0xbda2f22c	-0.07956347
74	0x3ce62ac5	0.028096566
75	0xbd0e25a8	-0.03470388
76	0x3d4021d2	0.046907254
77	0x3ab73c7f	0.0013979821
78	0xbcb0b93e	-0.021572705
79	0xbcd6e2d5	-0.026231209
80	0x3bac22fd	0.0052531944
81	0xbdb0d59d	-0.086344935
82	0xbdb69ac8	-0.08916241
83	0x3dc2d45b	0.0951316
84	0xbd133e30	-0.03594798
85	0xbd81a8b7	-0.06331008
86	0xbdaedca4	-0.085381776
87	0x3d72fc6d	0.059322763
88	0x3ddf8f94	0.10916057
89	0xbcc6ef01	-0.024283888
90	0xbc536d33	-0.012904453
91	0xbd615ce4	-0.055020228
92	0xbd4a214f	-0.04934817
93	0xbd37f325	-0.044909615
94	0xbdbe6ebe	-0.09298466
95	0xbdb0985e	-0.08622812
96	0x3b95deff	0.0045737023
97	0x3d1cb801	0.038261417
98	0xbd737cc1	-0.059445146
99	0x3decc466	0.115608975
100	0x3db6a206	0.08917622
101	0xbcfb1047	-0.03064741
102	0xbd917d73	-0.07104006
103	0x3dc837aa	0.09776242
104	0x3d0f9467	0.035053637
105	0x3d31d71b	0.04341803
106	0x3db3fbd6	0.08788268
107	0xbc0127c2	-0.007883014
108	0x3ccf2c4a	0.025289673
109	0x3c58f919	0.013242983
110	0x3da4c8f9	0.08046145
111	0xbdb365d9	-0.0875966
112	0x3da1de98	0.079037845
113	0xbd02ef69	-0.0319666
114	0xbc56a92f	-0.01310186
115	0xbdae7d08	-0.085199416
116	0x3d4bd9fc	0.049768433
117	0x3ca7dbf2	0.02049062
118	0xbc248840	-0.01004225
119	0xbc097384	-0.0083893575
120	0x3de06d02	0.109582916
121	0xbd92ea78	-0.071736276
122	0x3d91a308	0.07111174
123	0x3d3cc41d	0.046085466
124	0x3d98440e	0.074348554
125	0x3bef599a	0.0073043825
126	0x3dba32ab	0.090916954
127	0xbc8c2c25	-0.017110894
128	0x3dcfd2ce	0.1014763
129	0xbdb39f81	-0.08770657
130	0xbd582285	-0.052767295
131	0x3d87fabe	0.06639622
132	0xbda97367	-0.082739644
133	0x3d7a74c0	0.061146498
134	0xbcac4311	-0.021028074
135	0x3d94a735	0.07258455
136	0xbcb646f6	-0.022250634
137	0xbc38f926	-0.01128987
138	0xbdad67c0	-0.08467054
139	0x3da73efc	0.0816631
140	0xbdaf0771	-0.08546341
141	0x3d860e77	0.06545728
142	0xbcf9e63a	-0.030505288
143	0xbd290d92	-0.041272707
144	0xbd6272e3	-0.055285346
145	0xbc91f507	-0.017817033
146	0xbc3e62eb	-0.011620264
147	0xbd48065b	-0.048834186
148	0xbd8ea3d0	-0.069648385
149	0x3d20d89c	0.039269075
150	0x3dc06506	0.09394269
151	0x3bdc075a	0.0067147436
152	0x3d4eca24	0.050485745
153	0xbce4c949	-0.027928011
154	0x3d4249f0	0.047433794
155	0x3dbb8361	0.09155918
156	0xbdbe9454	-0.09305635
157	0xbc90f20a	-0.017693538
158	0x3d4294df	0.047505256
159	0x3d83f1fa	0.06442638
160	0xbd0418f6	-0.032250367
161	0x3dbaf22b	0.09128221
162	0xbd93486a	-0.07191546
163	0xbc699580	-0.014256835
164	0xbd16fb34	-0.03686066
165	0x3dbda372	0.0925969
166	0xbd3d8538	-0.046269625
167	0xbd171276	-0.03688284
168	0x3d49ba2e	0.04924982
169	0x3d262995	0.040567
170	0x3d612a88	0.0549722
171	0x3d65c861	0.0560993
172	0x3db49b0e	0.08818637
173	0x3df14a53	0.11781754
174	0xbd9edcf9	-0.07756991
175	0xbd9f4e13	-0.07778563
176	0x3d2ef1bc	0.042711005
177	0x3d67643e	0.056492083
178	0xbd8827c1	-0.066482075
179	0xbd2f9def	-0.042875227
180	0xbda0917d	-0.0784025
181	0xbd875529	-0.0660804
182	0x3d9fcca9	0.07802708
183	0xbd80dae2	-0.062917486
184	0x3ad83ab4	0.0016496987
185	0x3ddb59df	0.10710501
186	0xbd4dc95c	-0.05024086
187	0x3da6a00c	0.08135995
188	0x3d7303fd	0.059329975
189	0x3d93e9e7	0.07222348
190	0x3d9e733d	0.07736824
191	0x3cb5ac56	0.022176903
192	0xbc42b64c	-0.011884283
193	0x3c679e1d	0.014136818
194	0x3d4edb2b	0.050501984
195	0x3c837b93	0.016050136
196	0x3d85cef0	0.06533611
197	0x3d42c9fa	0.0475559
198	0x3d981ee8	0.0742777
199	0x3dd6dd7a	0.10491462
200	0x3e08b55f	0.13350438
201	0x3d860070	0.06543052
202	0xbba0e393	-0.0049099415
203	0xbd80761d	-0.06272528
204	0x3c09ecbc	0.008418258
205	0xbd877836	-0.06614725
206	0xbd77b328	-0.06047359
207	0x3d4394dc	0.047749385
208	0x3dc3ac32	0.09554328
209	0xbd4355d6	-0.04768928
210	0xbd32834b	-0.043582242
211	0x3d2a7a9b	0.041620832
212	0x3d90c78d	0.07069311
213	0x3dc2499c	0.09486696
214	0xbcde23e2	-0.02711672
215	0x3dd94153	0.10608163
216	0x3dcbdee8	0.09954625
217	0xbd75029c	-0.05981694
218	0x3d36605e	0.044525497
219	0xbd0ba0b8	-0.03408882
220	0x3dfc1327	0.123083405
221	0x3ca55254	0.020180859
222	0x3d9ceb60	0.07662082
223	0x3d7793ef	0.060443815
224	0xbd88066a	-0.066418484
225	0x3c477fe4	0.012176488
226	0x3dd43825	0.10362271
227	0xbb8fdf51	-0.004390635
228	0x3c3b59b9	0.011434966
229	0xbd005ffc	-0.031341538
230	0x3d2247c7	0.039619233
231	0xbd446a36	-0.047952853
232	0x3dad3b1a	0.08458538
233	0x3c9eb4e1	0.01937336
234	0x3c1ba788	0.009500392
235	0xbd10f911	-0.03539378
236	0x3c459dd9	0.01206156
237	0xbd94cab0	-0.07265222
238	0xbd5a9c53	-0.05337174
239	0xbc3ca87f	-0.011514782
240	0xbd70dcec	-0.058804438
241	0x3da2e324	0.0795348
242	0x3ceb8b0a	0.028752822
243	0x3bb70d79	0.005586323
244	0x3d87e6d2	0.06635822
245	0xbd21829c	-0.0394312
246	0x3ddde326	0.10834341
247	0xbb7a8f5c	-0.0038232422
248	0x3de70c1c	0.112816066
249	0x3de7a76c	0.1131123
250	0xbbb471bb	-0.005506722
251	0x3da7c380	0.081915855
252	0xbd4f0849	-0.05054501
253	0x3de87db1	0.11352099
254	0xbc9fc69d	-0.019503886
255	0x3ddecfc0	0.10879469

conv2.bias f4 [1024]
0	0x3d99890f	0.07496845
1	0xbd21fb3f	-0.039546248
2	0x3dc2fabb	0.09520479
3	0x3dde9de1	0.10869957
4	0x3d2d5428	0.042316586
5	0x3d6a57a5	0.05721249
6	0xbd3c4e78	-0.04597327
7	0x3d09b930	0.033623874
8	0x3d3335f8	0.04375264
9	0x3d955e54	0.07293382
10	0x3d6807c3	0.056648027
11	0x3dc0aee0	0.09408355
12	0xbd109db7	-0.03530666
13	0xbc874939	-0.016514407
14	0xbba7ce21	-0.005121008
15	0xbc296629	-0.010339298
16	0x3cbc7439	0.023004638
17	0x3d99658c	0.07490072
18	0x3dd2be49	0.102902
19	0x3de848be	0.113419995
20	0xbd96bf76	-0.07360737
21	0x3c1deb86	0.009638673
22	0xbd8a7584	-0.067606956
23	0xbd628997	-0.055306997
24	0xbda558b1	-0.08073557
25	0xbc693e0f	-0.014235987
26	0x3c60cea9	0.013721147
27	0xbd49150d	-0.04909234
28	0x3db5c1c6	0.0887485
29	0x3de07168	0.109591305
30	0x3d057df5	0.032590825
31	0xbd605056	-0.054764114
32	0x3de8257a	0.11335273
33	0x3d14ed2d	0.036359
34	0x3e003114	0.12518722
35	0xbcbff7e3	-0.023433631
36	0x3da4d391	0.080481656
37	0x3d889bab	0.06670316
38	0x3d9da453	0.07697358
39	0x3cc2d7fa	0.023784626
40	0x3ccf8f0c	0.025336765
41	0x3d3235f1	0.043508474
42	0x3d5db4db	0.054127555
43	0x3ddb30fd	0.10702703
44	0xbd7ffe73	-0.06249852
45	0x3e077ea8	0.1323191
46	0x3ad20dd1	0.0016025846
47	0xbc48e0ed	-0.012260658
48	0x3cc53d3c	0.02407705
49	0x3cb13f94	0.021636762
50	0x3daed177	0.08536046
51	0x3dd3883d	0.1032872
52	0x3d92e6c4	0.07172921
53	0x3d80ec8e	0.06295119
54	0x3d5ca765	0.053870577
55	0xbc3205c0	-0.010865629
56	0x3e00c959	0.12576808
57	0x3dd3810f	0.1032735
58	0x3db150cd	0.0865799
59	0xbd88d90d	-0.06682024
60	0x3d886506	0.06659894
61	0x3d620185	0.05517723
62	0xbd92bcbd	-0.07164905
63	0xbc89b65c	-0.016810589
64	0xbd7d5f83	-0.061858665
65	0x3d95a8e7	0.07307606
66	0xbcac19a8	-0.021008328
67	0x3dc1a25c	0.09454796
68	0x3c099d4f	0.008399322
69	0xbd050cf5	-0.03248306
70	0x3d0a79b1	0.03380746
71	0xbcb020d3	-0.021500027
72	0xbccca486	-0.024980795
73	0x3dc90903	0.09816172
74	0x3d7b5616	0.061361395
75	0x3d1ad730	0.037802875
76	0x3d448546	0.047978662
77	0x3df126c8	0.11774975
78	0xbcc812a2	-0.024422947
79	0xbcc13a6d	-0.02358743
80	0xbd4b1cbd	-0.049587954
81	0x3c7662e5	0.015038227
82	0x3c849cb1	0.016187998
83	0x3d692090	0.05691582
84	0xbd84e5c3	-0.06489136
85	0x3dda6e2a	0.106655434
86	0x3dbac1fd	0.091190316
87	0xbab22845	-0.0013592324
88	0xbd057e05	-0.032590885
89	0x3dc51c3e	0.096245274
90	0x3cc015f2	0.023447964
91	0x3da8a854	0.08235231
92	0xbabc8ca4	-0.0014385176
93	0xbd84a380	-0.06476498
94	0xba3facac	-0.0007311802
95	0xbd627346	-0.055285715
96	0x3e076e6f	0.13225721
97	0x3defccca	0.11708982
98	0x3de16d6e	0.110072
99	0x3d39ff9a	0.045409776
100	0x3d77eb40	0.060527086
101	0xbd48badc	-0.049006328
102	0x3d4ca951	0.04996616
103	0xbd009147	-0.031388547
104	0xbd896933	-0.06709518
105	0x3d8b3c45	0.06798605
106	0x3c468c6c	0.01211844
107	0x3d141d3d	0.036160696
108	0xbd86e103	-0.06585886
109	0x3dcae359	0.099066444
110	0xbd1fd880	-0.03902483
111	0xbd94305b	-0.072357856
112	0x3dfaee63	0.122525
113	0xbd0468cb	-0.0323265
114	0x3d1aaecd	0.03776436
115	0xbd065767	-0.032798197
116	0x3de64ab0	0.11244714
117	0x3cd741b0	0.02627644
118	0x3dd9335a	0.10605498
119	0x3ce7e4ed	0.028307403
120	0x3d9e6bcc	0.07735404
121	0x3cc1fd0c	0.023680232
122	0x3d78b60c	0.06072049
123	0x3d6f2ae0	0.0583905
124	0x3dd09bb5	0.10185949
125	0x3d8721ac	0.06598219
126	0xbd6d4186	-0.057923816
127	0x3de18a13	0.11012664
128	0x3d8d75bc	0.06907222
129	0xbb52b1ac	-0.0032149358
130	0x3c8e5105	0.017372617
131	0x3b24ab8b	0.0025126662
132	0x3c6e70db	0.014553274
133	0x3dc06662	0.09394528
134	0xbda92644	-0.08259252
135	0x3d8a21fd	0.06744764
136	0xbcad7f28	-0.021178797
137	0x3d9ed463	0.07755353
138	0xbd5bf0da	-0.05369649
139	0xbda613be	-0.08109234
140	0x3dc55b19	0.09636516
141	0x3e0cf761	0.13766243
142	0xbd9e8437	-0.07740062
143	0xbd7f820e	-0.06237989
144	0x3d875da5	0.06609658
145	0xbd34e52b	-0.044163864
146	0x3d83e620	0.06440377
147	0x3b03b7df	0.002009861
148	0x3dabf62b	0.08396562
149	0x3d834c49	0.064110346
150	0x3d15dd94	0.036588266
151	0x3c2d845a	0.010590637
152	0x3dab199b	0.08354493
153	0xbcaf7213	-0.0214167
154	0xbd1f8e28	-0.03895393
155	0x3d15c8aa	0.03656832
156	0xbc0231e3	-0.007946464
157	0xbd3f16a4	-0.04665245
158	0xbd66edb6	-0.056379043
159	0xbc637d49	-0.013884851
160	0x3d6e8d8b	0.058240455
161	0x3d2a500b	0.04158024
162	0x3de7527d	0.1129503
163	0xbd663382	-0.056201465
164	0x3d9d668e	0.076855764
165	0xbd34ba18	-0.044122785
166	0xbcc4da49	-0.024029868
167	0xbbd8a9c8	-0.0066120364
168	0x3d11fed4	0.035643414
169	0x3db8715b	0.09005996
170	0x3d1a3654	0.037649468
171	0xbc99cbcc	-0.018773936
172	0xbc78474d	-0.015153718
173	0xbcd36069	-0.025802808
174	0xbd78339b	-0.06059609
175	0xbd262f9d	-0.04057275
176	0xbd0bc6ad	-0.03412502
177	0x3d4b9ddb	0.04971109
178	0x3df8f51f	0.12156128
179	0xbd45fc3a	-0.048336245
180	0x3ca19078	0.019722208
181	0x3d3bebb2	0.045879073
182	0xbb9469a8	-0.004529197
183	0xbc33eef1	-0.010982261
184	0xbd63ebe5	-0.05564489
185	0x3cb25db1	0.021773191
186	0x3d00db2e	0.031459026
187	0x3d1c5054	0.038162544
188	0xbce78496	-0.028261464
189	0xbca54a19	-0.020176934
190	0xbce2c93b	-0.027683845
191	0x3c239bcd	0.009985876
192	0x3dd5840c	0.104255766
193	0x3c99c87b	0.018772354
194	0x3da4a361	0.080389746
195	0xbd869c23	-0.065727495
196	0x3b9f5c9f	0.004863336
197	0x3a4c548f	0.00077945826
198	0xbd2f90fb	-0.042862874
199	0xbd20625b	-0.0391563
200	0x3dbf1bbd	0.093314625
201	0x3dbcc503	0.092172645
202	0xbd5babe0	-0.05363071
203	0x3c9b2d52	0.018942509
204	0x3db27679	0.08714003
205	0x3d3642ec	0.044497415
206	0x3b624785	0.0034527492
207	0xbd6a5a76	-0.057215177
208	0xbd4601b1	-0.048341457
209	0x3cbb3304	0.022851475
210	0x3b720378	0.0036928337
211	0xbd464f6d	-0.04841559
212	0xbd06341f	-0.03276455
213	0x3d2a831b	0.04162894
214	0x3ddee6eb	0.10883888
215	0x3d924038	0.07141155
216	0xbcd26ef7	-0.025687678
217	0xbd9a4d39	-0.0753426
218	0xbd01a055	-0.031647045
219	0x3d2c2697	0.04202899
220	0xbd947b4d	-0.0725008
221	0x3df5221a	0.11969395
222	0xbd6fd73b	-0.05855487
223	0xbd5ca185	-0.053864975
224	0x3d914bc6	0.07094531
225	0x3de9c9db	0.11415454
226	0xbd3cca5a	-0.046091415
227	0x3de2170e	0.110395536
228	0x3ad8bd2d	0.0016535871
229	0xbce302f5	-0.027711371
230	0x3d962775	0.073317446
231	0x3dd156e5	0.10221652
232	0x3d82d6f9	0.06388659
233	0xbd6496f5	-0.055808026
234	0x3dd913eb	0.10599502
235	0x3de2b2d2	0.110692635
236	0x3dc768f4	0.09736815
237	0x3c185ba7	0.009299195
238	0xbda602c6	-0.08105998
239	0xb8306bc6	-4.206204e-05
240	0xbd6fd7ab	-0.058555286
241	0x3d0df613	0.034658503
242	0x3c2f2dfb	0.010692115
243	0x3dd58add	0.10426877
244	0x3b407541	0.0029366764
245	0x3d2fdc53	0.042934727
246	0xbc492105	-0.012275939
247	0xbc64edbb	-0.013972695
248	0xbd7d9bed	-0.06191628
249	0x3d2875d3	0.04112799
250	0x3dc8cbf3	0.09804525
251	0xbd7f3e69	-0.06231538
252	0x3c399171	0.01132618
253	0xbc58ccc6	-0.013232416
254	0xbcc2830a	-0.023744125
255	0xbd4479bf	-0.04796767

fc1.weight f4 [128, 53]
0	0x3e0c4fea	0.1370236
1	0x3d55b532	0.052174754
2	0xbd1b9125	-0.037980217
3	0x3d464f75	0.04841562
4	0x3d930368	0.07178384
5	0xbe07a138	-0.13245094
6	0x3e038839	0.12844934
7	0x39ed62be	0.0004527773
8	0x3c957d79	0.018248307
9	0xbe3d6fdc	-0.18499702
10	0x3d42f92c	0.04760091
11	0xbdb690d2	-0.08914341
12	0xbe0cd717	-0.13753925
13	0x3d7f0423	0.062259804
14	0xbcdeade8	-0.027182534
15	0x3d8d16bd	0.068891026
16	0x3db3eb35	0.087850966
17	0x3d66bf1e	0.056334607
18	0xbd6bf2ad	-0.05760448
19	0xbe246bd1	-0.16056754
20	0x3c0ecc5c	0.008715715
21	0xbe260376	-0.16212258
22	0x3cbe9071	0.023262234
23	0x3c9d27f2	0.019184086
24	0x3cd920b4	0.026504852
25	0xbe029dbb	-0.12755482
26	0xbda415c2	-0.080119625
27	0xbd0fa20d	-0.035066653
28	0x3d80fa04	0.06297687
29	0xbe113f49	-0.14184298
30	0xbbe6a326	-0.007038492
31	0x3e16c747	0.14724456
32	0x3d0a4091	0.03375298
33	0xbe221982	-0.15830043
34	0xbdf160c1	-0.117860325
35	0xbe080d44	-0.1328631
36	0xbdde6d08	-0.1086064
37	0xbdb93470	-0.09043205
38	0x3c99c07e	0.018768545
39	0xbdf11139	-0.11770863
40	0xbe128e55	-0.14312108
41	0xbe4be023	-0.1990972
42	0x3de6250c	0.11237535
43	0x3e048f4c	0.12945288
44	0x3da8be18	0.082393825
45	0x3de42ddd	0.1114156
46	0xbe3f8a01	-0.18704988
47	0x3d8c5c5b	0.06853553
48	0x3db5f0c4	0.08883813
49	0xbe14ce9b	-0.14531939
50	0xbe4b47f3	-0.19851665
51	0x3d8aee89	0.06783778
52	0x3c4ed381	0.012623669
53	0xbcd18ccb	-0.02557983
54	0x3d96c8cb	0.07362517
55	0xbc6fa252	-0.0146261025
56	0x3d1aecbe	0.03782343
57	0x3d04fde0	0.032468677
58	0x3e146a33	0.14493637
59	0xbc5b2f05	-0.01337791
60	0xbcb6d073	-0.022316193
61	0xbd8b5f7d	-0.06805322
62	0x3c54b326	0.012982165
63	0x3d55c828	0.052192837
64	0x3dbac28d	0.09119139
65	0x3e3810fd	0.1797523
66	0xbe196728	-0.14980757
67	0xbd2fcc1a	-0.042919256
68	0xbcf05e54	-0.029341854
69	0x3e0bac10	0.13639855
70	0x3e1ffdc7	0.15624152
71	0xbd05fdc9	-0.03271273
72	0xbcea596a	-0.02860709
73	0xbc756009	-0.01497651
74	0x3e12049f	0.14259575
75	0xbd224d86	-0.039624713
76	0xbdab3567	-0.08359795
77	0x3b6cf2ca	0.0036155456
78	0x3cb17c13	0.021665609
79	0x3e52b353	0.2057622
80	0x3e54604d	0.20739861
81	0x3e0e552f	0.13899682
82	0x3e2564c8	0.16151726
83	0xbe0f205e	-0.13977191
84	0xbd0d07fc	-0.034431443
85	0x3dad5389	0.08463199
86	0x3dabc647	0.08387428
87	0x3e4a4b60	0.19755316
88	0xbde2eabb	-0.110799275
89	0xbde092e7	-0.109655194
90	0x3d02f677	0.03197333
91	0xbdfa3680	-0.12217426
92	0xbe099c1b	-0.13438456
93	0xbd2ffe35	-0.04296704
94	0x3ccd384d	0.02505126
95	0xbd58e74d	-0.05295496
96	0xbdb6a814	-0.08918777
97	0x3db5da75	0.08879558
98	0x3e1ac988	0.1511594
99	0x3e2c1baf	0.16807435
100	0x3ddb4ed0	0.10708392
101	0xbe1cf80b	-0.15328996
102	0xbe015643	-0.12630562
103	0x3dae6530	0.08515394
104	0x3d7b7dd6	0.061399303
105	0x3de90606	0.11378102
106	0xbdc35f59	-0.095396705
107	0xbe2e6897	-0.17032085
108	0xbd7f2205	-0.062288303
109	0x3e0c934c	0.13728064
110	0x3e2a828b	0.1665136
111	0xbd841440	-0.06449175
112	0x3d423258	0.047411293
113	0xbdf9ee4b	-0.12203654
114	0x3dc5fd77	0.09667485
115	0xbd05c975	-0.032662828
116	0xbd9387e8	-0.072036564
117	0xbe243273	-0.1603487
118	0x3cf59e9f	0.029982863
119	0x3d0e1a16	0.034692846
120	0xbda79b79	-0.08183951
121	0x3ca6a74f	0.02034345
122	0x3e003984	0.1252194
123	0x3de414cb	0.111367784
124	0x3de4f93d	0.11180351
125	0x3d5bf805	0.053703327
126	0xbe3074e1	-0.17232086
127	0xbe00a22e	-0.12561867
128	0xbdc14382	-0.09436704
129	0xbbde40ea	-0.0067826407
130	0xbdfbf300	-0.12302208
131	0xbd43972a	-0.047751583
132	0x3e28111f	0.16412781
133	0x3d2e40b5	0.04254218
134	0x3d707084	0.058701053
135	0x3deb94df	0.11503004
136	0x3d936b24	0.0719817
137	0x3dd7ef78	0.10543722
138	0xbdfbbb6f	-0.122916095
139	0xbe0f2913	-0.13980512
140	0x3c719291	0.014744417
141	0x3da143e5	0.07874278
142	0xbe20d6da	-0.1570696
143	0xbd3d89e2	-0.046274073
144	0xbe14199c	-0.14462894
145	0xbd0bb3b2	-0.034106918
146	0xbe097f9b	-0.13427584
147	0x3cb0b462	0.021570388
148	0xbd81b30d	-0.06332979
149	0xbd277bb3	-0.040889453
150	0xbddf4ed2	-0.10903706
151	0x3e158f17	0.14605366
152	0x3e2dfaf8	0.16990268
153	0xbe0d60cf	-0.13806461
154	0xbdef3c5c	-0.116814345
155	0xbdc04396	-0.09387891
156	0x3df014bb	0.11722704
157	0xbe3b0667	-0.18264161
158	0x3e13c673	0.14431171
159	0x3cbe9c85	0.023267994
160	0x3e1f5573	0.1555994
161	0x3dc1bbec	0.094596714
162	0x3d0b4240	0.033998728
163	0xbd349fb2	-0.04409761
164	0xbd63c213	-0.055605005
165	0xbe176789	-0.1478559
166	0x3dd6ede2	0.10494591
167	0x3e4338e0	0.19064665
168	0x3db8b102	0.090181366
169	0x3d9504b7	0.0727629
170	0x3e379daf	0.17931245
171	0x3e25bca6	0.16185245
172	0x3bf12f8e	0.0073604053
173	0x3e0a9fe1	0.13537551
174	0xbb8826b7	-0.004155006
175	0xbc954eba	-0.018226016
176	0x3e2079e0	0.15671492
177	0xbd837493	-0.06418719
178	0x3e177c1d	0.14793439
179	0x3d804000	0.06262207
180	0x3e3c05fb	0.18361656
181	0x3df06b30	0.117391944
182	0xbe2b4f32	-0.1672943
183	0xbe271840	-0.16317844
184	0x3e126557	0.1429647
185	0xbdae0d96	-0.08498685
186	0xbdc77fb6	-0.09741156
187	0x3e41e2e5	0.1893421
188	0xbc9a8d1f	-0.01886612
189	0xbddf880d	-0.109146215
190	0x3d39b54f	0.045338925
191	0xbce15345	-0.027505526
192	0xbd142140	-0.036164522
193	0xbdfaf525	-0.12253789
194	0x3e406ff4	0.18792707
195	0x3d3a82cb	0.04553489
196	0x3e2af009	0.16693129
197	0x3d9d9f81	0.076964386
198	0xbd80ed5c	-0.06295273
199	0x3d953f17	0.07287424
200	0xbcb04427	-0.021516873
201	0x3e1ddb8d	0.15415783
202	0x3e3499f0	0.17636847
203	0x3a834dcc	0.0010017692
204	0x3d8977a8	0.06712276
205	0x3ce3d298	0.02781038
206	0xbe050da7	-0.12993489
207	0xbdba1b94	-0.09087291
208	0x3d101645	0.035177488
209	0xbd8fbce1	-0.07018448
210	0xbe015571	-0.1263025
211	0xbd50d4a2	-0.050984032
212	0x3da7c631	0.08192099
213	0x3df8062c	0.12110552
214	0x3e015fd3	0.1263421
215	0x3e13ff44	0.14452845
216	0xbe10d3d0	-0.141433
217	0xbbfefca2	-0.007781581
218	0x3cd82961	0.026386919
219	0xbdfa7378	-0.12229055
220	0xbdfae65f	-0.12250971
221	0x3df274ce	0.11838685
222	0xbe04c9f9	-0.12967671
223	0xbcdd7f71	-0.027038308
224	0x3be17296	0.006880115
225	0xbd3ee4ae	-0.046604805
226	0xbdc03ae0	-0.093862295
227	0xbd3171cd	-0.04332142
228	0xbe17fee0	-0.14843321
229	0x3d10ed8e	0.0353828
230	0xbd3a97df	-0.04555499
231	0xbe148083	-0.14502148
232	0xbda8ef4b	-0.082487665
233	0x3e4c2d90	0.19939256
234	0x3da767d1	0.08174098
235	0x3e48f43d	0.1962442
236	0xbdfb896c	-0.122820705
237	0x3e465901	0.1936989
238	0x3e3346d2	0.17507485
239	0xbe0068b7	-0.12539946
240	0x3db42538	0.087961614
241	0x3c3e0b4f	0.011599376
242	0xbdec989b	-0.11552545
243	0x3d9062cb	0.07050093
244	0x3de6dbc5	0.112723865
245	0xbd4d0f5a	-0.05006347
246	0x3e4f53c0	0.20246792
247	0x3e03f57a	0.1288661
248	0x3d63e4e9	0.055638228
249	0x3d9ad3de	0.07559942
250	0xbd884cb4	-0.06655255
251	0x3dda3fea	0.10656722
252	0x3dbb0bb1	0.09133089
253	0x3df5f310	0.12009251
254	0x3db2eea3	0.087369226
255	0xbe03148a	-0.12800804

fc1.bias f4 [128]
0	0xbd02fcca	-0.03197936
1	0x3e58b665	0.21163328
2	0xbc00f206	-0.007870203
3	0x3e588361	0.21143867
4	0x3e6b4e87	0.22979175
5	0x3e5c2f56	0.21502432
6	0x3e9cc053	0.30615482
7	0x3e56420c	0.20923632
8	0x3ecc29c9	0.3987563
9	0x3e5f60ca	0.21814266
10	0x3e83dece	0.25755924
11	0x3e7cedcf	0.24700092
12	0x3e684fd2	0.22686699
13	0x3e71cdd5	0.23613675
14	0xbca39a1e	-0.01997095
15	0x3e7de5b7	0.2479466
16	0x3e991e83	0.2990609
17	0x3e5589eb	0.20853393
18	0x3e4e8b42	0.2017031
19	0x3eda6f50	0.4266305
20	0x3e4a56b7	0.19759642
21	0x3e7e1173	0.24811344
22	0x3e847da6	0.25877112
23	0x3e51e943	0.20499139
24	0x3ea5e37c	0.3240012
25	0x3e62b11a	0.22137871
26	0x3e64e809	0.2235414
27	0x3e9a5a01	0.30146793
28	0x3e51baec	0.20481461
29	0x3e800abd	0.25008193
30	0x3eb5bea4	0.3549701
31	0x3e5af07d	0.21380801
32	0xbc24adad	-0.010051173
33	0xbc83b498	-0.016077325
34	0x3e5f1e94	0.21789008
35	0x3ed13f25	0.40868488
36	0x3e7fcf6f	0.24981473
37	0xbca49cda	-0.020094324
38	0x3e514518	0.20436513
39	0xbcdec70a	-0.027194519
40	0x3eed003e	0.46289247
41	0x3e4f6a89	0.20255484
42	0x3e59d87e	0.21273991
43	0x3e826e6a	0.25474864
44	0x3e7e6b7a	0.24845687
45	0x3e6761f8	0.22595966
46	0x3e97ae77	0.29625294
47	0x3ecd1214	0.40052855
48	0x3e992768	0.29912877
49	0x3eb7e1ed	0.35914555
50	0x3e5546f0	0.20827842
51	0x3e6605fd	0.22463222
52	0x3ebf09f3	0.37312278
53	0x3ed9b394	0.4251982
54	0x3e5ff82b	0.21872012
55	0x3e838f61	0.25695327
56	0xbcbcb607	-0.023036016
57	0x3e798947	0.24368773
58	0xbcc77af6	-0.024350625
59	0x3e7fed2c	0.24992818
60	0x3e598221	0.21241046
61	0x3e37e605	0.17958839
62	0x3ecec691	0.4038587
63	0x3e8b6cce	0.2723145
64	0x3e8674da	0.26261026
65	0x3e83f5a9	0.2577336
66	0x3e50a6f2	0.20376185
67	0x3e4cd515	0.2000316
68	0x3e94ab7f	0.2903709
69	0xbb9d0aab	-0.0047925315
70	0x3ea7862f	0.3271956
71	0x3e5cfce2	0.21580842
72	0xbc32a1dc	-0.010902848
73	0x3e2d2c89	0.1691152
74	0x3eadfb68	0.3398087
75	0xbc3839cb	-0.011244248
76	0x3e61e523	0.22060065
77	0x3e6a5644	0.2288447
78	0x3e385047	0.17999373
79	0x3e529fa0	0.20568705
80	0x3e4ca05a	0.19983044
81	0x3e601523	0.21883063
82	0x3eba38fc	0.363716
83	0x3e82d7fc	0.25555408
84	0x3e8d3180	0.27576828
85	0x3e55f0db	0.2089266
86	0x3e54083c	0.20706266
87	0xbc8deecd	-0.017325783
88	0x3e73a47f	0.23793219
89	0x3e617ead	0.22020979
90	0x3e59ec0e	0.21281454
91	0x3e7c4c5b	0.24638502
92	0x3e583683	0.21114545
93	0x3e55991f	0.20859192
94	0x3ecc6d14	0.3992697
95	0x3ed7da19	0.42158583
96	0x3e5f39a7	0.21799336
97	0x3e53ded8	0.20690477
98	0x3e506086	0.20349321
99	0x3eabbb83	0.33541498
100	0x3e97ee71	0.29674104
101	0x3e6196fa	0.22030249
102	0x3e8fa9a4	0.28059113
103	0x3e627254	0.22113925
104	0x3e628f07	0.22124873
105	0xbcb5f634	-0.022212125
106	0x3e7f6ad7	0.249431
107	0x3e8fac4e	0.28061146
108	0x3e570580	0.20998192
109	0x3e47bc11	0.19505335
110	0x3ed91654	0.42399848
111	0x3e8bbb84	0.272915
112	0x3e547480	0.20747566
113	0xbcfa2366	-0.030534457
114	0xbc5c4922	-0.013445171
115	0x3ee96fe4	0.45593178
116	0x3e7351e8	0.23761714
117	0x3e48b2f2	0.19599512
118	0x3e58323e	0.21112916
119	0x3e91bb74	0.28463328
120	0x3e5831d0	0.21112752
121	0x3e6a0188	0.22852147
122	0xbc955fc0	-0.018234134
123	0x3e5e24bf	0.21693705
124	0x3e4fe180	0.20300865
125	0x3e84eecf	0.25963446
126	0x3eb2682b	0.348451
127	0x3e60ed0e	0.21965429

fc2.weight f4 [128, 128]
0	0x3dc1537b	0.09439751
1	0xbd804e65	-0.062649526
2	0xbcd31e00	-0.025771141
3	0xbdbc6b4c	-0.09200153
4	0x3c3c307d	0.01148617
5	0xbda21480	-0.07914066
6	0x3daf9d02	0.08574869
7	0xbd4c0627	-0.049810555
8	0x3da295b8	0.07938713
9	0xbd96b602	-0.07358934
10	0xbc35a9c2	-0.011087837
11	0xbab7a24d	-0.0014010161
12	0x3d10b486	0.03532841
13	0xbd946db2	-0.07247485
14	0xbd9f7a41	-0.0778699
15	0xbda85257	-0.0821883
16	0xbde78879	-0.11305327
17	0x3d3a0450	0.04541427
18	0x3d3a3df2	0.045469232
19	0x3cf5f698	0.030024812
20	0x3d400d21	0.04688752
21	0xbd9a316d	-0.075289585
22	0xbd44720d	-0.04796033
23	0xbddcb3c5	-0.10776476
24	0xbdb7cf05	-0.08975033
25	0xbe0aba70	-0.13547683
26	0x3d498c70	0.049206197
27	0x3e250912	0.16116741
28	0xbd997da0	-0.07494664
29	0xbd6bff9a	-0.057616808
30	0x3dc74c1a	0.09731312
31	0xbd13e2f6	-0.03610512
32	0xbc601465	-0.013676737
33	0xbcb6cb86	-0.022313844
34	0x3de7e12f	0.11322247
35	0x3cb9d54d	0.022684718
36	0x3da641e6	0.08118038
37	0xbde24d96	-0.110499546
38	0x3d0b3377	0.033984628
39	0xbd8b94b7	-0.068154745
40	0x3e922ac2	0.28548247
41	0x3e0d65fc	0.13808435
42	0x3dcdbffd	0.100463845
43	0xbddbed9c	-0.1073868
44	0xbbe8f868	-0.0071096905
45	0xbd56b25d	-0.052416194
46	0xbd85b63f	-0.06528901
47	0x3c4b0079	0.012390249
48	0x3d241ca8	0.04006639
49	0x3de5ff01	0.11230279
50	0xbde89686	-0.11356835
51	0x3ccaea88	0.024770036
52	0x3e0d9033	0.13824539
53	0x3d478f76	0.0487208
54	0xbdf7d510	-0.12101185
55	0x3d17445a	0.03693042
56	0xbd7d0aad	-0.06177776
57	0xbd6153a8	-0.05501142
58	0xbceeab3b	-0.029134383
59	0x3e0a119a	0.13483277
60	0xbd05741a	-0.032581426
61	0xbe0c84fe	-0.13722607
62	0x3e0e8b2d	0.13920279
63	0xbd78ad0f	-0.060711917
64	0x3cf19394	0.029489316
65	0x3db5725a	0.088597015
66	0x3d5c57a7	0.05379453
67	0xbe0c052b	-0.13673846
68	0xbd0df59f	-0.03465807
69	0x3d28af6e	0.041182928
70	0x3e2dc563	0.16969828
71	0x3c7ac8f7	0.015306703
72	0x3e1724e6	0.1476017
73	0xbcbd7734	-0.02312813
74	0xbda23b98	-0.07921523
75	0x3dadbed6	0.08483665
76	0x3caf865a	0.021426369
77	0xbdb32eaf	-0.087491386
78	0xbd9ece95	-0.07754246
79	0xbb88e536	-0.0041777147
80	0x3df6130f	0.12015354
81	0x3df375d8	0.11887711
82	0x3e1097c6	0.14120397
83	0x3ded9de7	0.11602383
84	0x3de5474d	0.1119524
85	0x3c0560b1	0.008140729
86	0x3d336ff2	0.04380793
87	0xbd6108ea	-0.05494014
88	0x3d038c40	0.032116175
89	0x3dde619b	0.108584605
90	0xbcc30886	-0.023807775
91	0xbdb1e566	-0.086863324
92	0x3d2d5838	0.04232046
93	0x3dde8341	0.108648784
94	0xbcfaf216	-0.030633014
95	0xbd15e186	-0.03659203
96	0x3e03d035	0.12872393
97	0xbdef9b0e	-0.11699496
98	0x3e0cf1ac	0.13764066
99	0xbd442d8a	-0.047894992
100	0xbdf09428	-0.117470086
101	0x3cec5d8c	0.0288532
102	0x3da6fa2b	0.081531845
103	0x3dec490b	0.11537369
104	0xbcdd485c	-0.027012043
105	0x3d8d91f1	0.06912602
106	0xbda4792a	-0.08030923
107	0x3d071386	0.032977603
108	0x3d852cfa	0.06502719
109	0x3dccf1c1	0.100070484
110	0x3e3e8413	0.1860507
111	0x3e01e567	0.12685166
112	0x3dc64c2a	0.09682496
113	0xbd96a611	-0.073558934
114	0xbd1c2e35	-0.038130004
115	0x3e68d2d3	0.22736673
116	0x3dcaeaf9	0.09908099
117	0x3d187af0	0.037226617
118	0xbd88b8d3	-0.066758774
119	0xbcce26a0	-0.025164902
120	0x3b6dc197	0.0036278719
121	0x3daac19e	0.08337711
122	0x3e1d71a5	0.15375383
123	0x3d3d21c9	0.0461748
124	0xbc9ba798	-0.019000813
125	0xbcec3a7a	-0.028836478
126	0x3dfc0d6a	0.12307246
127	0x3df9044a	0.12159021
128	0x3ce5f0a2	0.028068844
129	0x3e23d8c1	0.16000654
130	0x3e0e6ba0	0.13908243
131	0xbd5e4db1	-0.05427331
132	0x3dfd498b	0.12367543
133	0xbd5d8c72	-0.054089017
134	0x3e1aa618	0.15102422
135	0x3cccfde0	0.0250234
136	0xbcd8e23c	-0.026475064
137	0xbd19d2b1	-0.037554447
138	0x3da7daeb	0.08196052
139	0x3d7b9e40	0.061430216
140	0x3e1c1a11	0.15244319
141	0x3df11d5d	0.11773179
142	0xbdf0b8c2	-0.1175399
143	0x3e1f6275	0.15564902
144	0x3e14a813	0.1451724
145	0xbdc910b9	-0.09817643
146	0x3e101831	0.14071728
147	0xbb9fc0bc	-0.0048752706
148	0x3ddee30e	0.10883151
149	0x3dc6bdf5	0.097042
150	0x3cf41a5d	0.029797727
151	0x3de79fdd	0.113097884
152	0x3d45c2a0	0.048281312
153	0x3d91db0e	0.071218595
154	0x3d7f405b	0.062317234
155	0x3df1fe11	0.118160374
156	0x3d125d0e	0.035733275
157	0x3de74c0b	0.11293801
158	0x3d7571d4	0.059923008
159	0x3d243a72	0.0400948
160	0x3d68b73e	0.05681538
161	0x3ca4fa41	0.020138862
162	0xbda0403e	-0.07824753
163	0xbcbf0036	-0.02331553
164	0x3c55fcca	0.013060758
165	0x3d016f6c	0.0316004
166	0x3c45e677	0.012078873
167	0x3c1c4862	0.009538742
168	0x3e12d770	0.14339995
169	0xbd5dafe6	-0.054122828
170	0x3d5c5278	0.053789586
171	0xbc08d3f7	-0.008351318
172	0xbcc9d6b3	-0.02463851
173	0x3e1711bd	0.1475286
174	0xbc628521	-0.013825686
175	0x3dc9b4c9	0.09848935
176	0x3d9a5e09	0.07537467
177	0xbd2fd3a4	-0.042926446
178	0xbdec906b	-0.11550983
179	0x3de94e23	0.113918565
180	0x3e3cd867	0.18441926
181	0x3e1e7384	0.15473753
182	0xbd6f7cc1	-0.058468584
183	0x3db62890	0.088944554
184	0x3dbf05fe	0.09327315
185	0x3d68b95e	0.056817405
186	0xbdb4e1a3	-0.08832099
187	0x3e3a5e71	0.18200089
188	0x3cf4cc21	0.029882492
189	0x3e05457e	0.1301479
190	0x3df0cdf4	0.117580324
191	0x3e33e0b2	0.17566183
192	0xbda0fe3a	-0.0786099
193	0x3e08fbab	0.13377254
194	0x3cbf9314	0.023385562
195	0x3e1cebe7	0.15324365
196	0x3d9fe7b3	0.07807865
197	0x3c501be0	0.012701958
198	0xbd0e8914	-0.034798697
199	0x3e07f0bd	0.13275428
200	0xbdd16b8c	-0.10225591
201	0xbdb2014b	-0.08691653
202	0x3e1218e5	0.14267309
203	0x3e201936	0.15634617
204	0xbdc117d7	-0.09428375
205	0x3ce5817b	0.028015843
206	0xbdb60708	-0.0888806
207	0xbdcea41c	-0.10089895
208	0xbd87b938	-0.066271245
209	0x3e135103	0.14386372
210	0x3e2417e3	0.16024737
211	0x3e1b00e6	0.15137061
212	0x3e281727	0.16415082
213	0x3e22dcca	0.15904537
214	0xbde7fab4	-0.11327115
215	0x3deaf645	0.114727534
216	0x3e153bc8	0.14573586
217	0x3dde6935	0.108599104
218	0x3c8955c5	0.01676453
219	0x3e212634	0.1573723
220	0x3e34f221	0.1767049
221	0xbd6adc01	-0.05733872
222	0x3e3ad6cd	0.18246002
223	0x3e4d0d40	0.20024586
224	0x3d95fbff	0.07323455
225	0x3d7bf993	0.06151731
226	0x3d4f181d	0.050560106
227	0x3decadc3	0.1155658
228	0x3e3b3d64	0.18285137
229	0x3e13e2fd	0.14442058
230	0x3c3994bc	0.011326965
231	0xbd9ce0e6	-0.076600835
232	0xbd417042	-0.047226198
233	0xbd274425	-0.040836472
234	0x3da21722	0.079145685
235	0x3dabe4c6	0.083932444
236	0xbcf86b74	-0.030324675
237	0x3c82cf33	0.01596794
238	0x3e680cd4	0.22661144
239	0x3e19bd46	0.15013608
240	0xbd899ee2	-0.067197576
241	0xbd163838	-0.036674708
242	0xbd3ac899	-0.04560146
243	0x3e54ff4c	0.20800513
244	0x3e2a6887	0.16641437
245	0xbd952ed6	-0.07284324
246	0x3d076f03	0.033064853
247	0x3e26d3fb	0.16291802
248	0x3e3112bb	0.17292301
249	0xbc98533e	-0.01859438
250	0xbd5bf628	-0.05370155
251	0xbbb9d7f2	-0.0056714946
252	0x3dd1b5a9	0.10239727
253	0xbd2f4c88	-0.042797595
254	0x3e53e8d6	0.20694289
255	0x3e183153	0.14862566

fc2.bias f4 [128]
0	0x3e44dd10	0.19224954
1	0x3e1b9fdc	0.151977
2	0x3e1ceff1	0.15325905
3	0x3e38af05	0.18035515
4	0xbc8a905f	-0.016914545
5	0x3e5f6dbc	0.21819204
6	0x3e262167	0.1622368
7	0x3e24742e	0.16059944
8	0x3e21b8a1	0.15793087
9	0x3e25e08a	0.16198936
10	0x3e22f079	0.15912046
11	0xbc868c91	-0.01642445
12	0x3e1965a3	0.14980178
13	0xbccdc134	-0.02511654
14	0x3e3bb25c	0.18329757
15	0x3e0a3d9e	0.13500068
16	0x3dd8ba38	0.105823934
17	0x3e2e2179	0.17004956
18	0xbc44f9a8	-0.012022413
19	0xbc8b938f	-0.017038135
20	0xbc9334e1	-0.01796955
21	0xbcf2ce0b	-0.029639265
22	0x3e0f5f41	0.1400118
23	0xbca22906	-0.019794952
24	0x3d9bddcc	0.07610664
25	0x3e33e258	0.17566812
26	0xbce07f26	-0.02740438
27	0xbc8f0c5e	-0.017461952
28	0xbcc133ae	-0.023584213
29	0x3e2be09f	0.16784905
30	0x3ee325ea	0.44364864
31	0x3e22fdac	0.1591708
32	0x3e35d1bf	0.17755793
33	0x3e206922	0.15665105
34	0x3aa2d5ae	0.0012423301
35	0x3e106bb1	0.14103581
36	0xbc7cc35f	-0.0154274395
37	0x3e4d5f0e	0.20055792
38	0xbcafdd0f	-0.021467714
39	0xbc9e8780	-0.01935172
40	0xbcdc608a	-0.026901502
41	0xbc5ff5ab	-0.013669412
42	0xbc528fc3	-0.012851658
43	0x3e37a82d	0.17935248
44	0x3e23682b	0.15957706
45	0xbcc3b015	-0.023887673
46	0x3e283cc0	0.16429424
47	0x3dd36501	0.10321999
48	0x3e1fe549	0.15614809
49	0xbc8b8eac	-0.017035805
50	0xbcc4b91f	-0.024014054
51	0xbcbe5d07	-0.023237718
52	0x3e02c11f	0.12768982
53	0x3df6c6f6	0.120496675
54	0xbc2d7639	-0.0105872685
55	0x3dea983f	0.1145482
56	0x3e472a01	0.19449617
57	0x3e47aa45	0.19498546
58	0x3e08dfbf	0.13366602
59	0xbc8fe8ee	-0.017567124
60	0xbc9d4ee4	-0.019202657
61	0xbc97203e	-0.018447991
62	0xbc6fa10c	-0.014625799
63	0xbc87592c	-0.016522013
64	0xbc947cc5	-0.018125901
65	0x3e4b6681	0.19863321
66	0xbc8cad80	-0.017172575
67	0x3e41645a	0.18885937
68	0x3e204e18	0.1565479
69	0xbd2c9963	-0.04213847
70	0xbc9eb43b	-0.01937305
71	0x3e2753e4	0.16340595
72	0xbca80813	-0.020511663
73	0xbc70a523	-0.014687809
74	0x3e0dc155	0.13843282
75	0xbcd75f88	-0.02629067
76	0xbc9275a1	-0.017878355
77	0xbcbf23e9	-0.023332553
78	0x3e25d234	0.16193467
79	0x3e24fde0	0.1611247
80	0x3e28f8a3	0.16501097
81	0xbcd4e965	-0.025990197
82	0x3df71288	0.120640814
83	0x3dac6112	0.08416952
84	0xbcd3bfca	-0.025848288
85	0x3e3bab4a	0.1832706
86	0x3e307337	0.17231451
87	0xbcb438ef	-0.021999804
88	0x3ba7f3e0	0.0051255077
89	0xbbfb9d27	-0.007678646
90	0xbde903cb	-0.113776766
91	0x3e1b5b1f	0.15171479
92	0x3e758e53	0.23980074
93	0x3e756c7a	0.23967162
94	0x3e06971b	0.1314358
95	0x3e31220b	0.17298143
96	0x3e2e3a9f	0.1701455
97	0x3e03e9f8	0.12882221
98	0x3e421545	0.18953426
99	0x3e012954	0.12613422
100	0x3e0f6ea2	0.14007047
101	0x3e1acd50	0.15117383
102	0x3e039d9d	0.12853093
103	0x3e25bd64	0.16185528
104	0x3e40d352	0.18830612
105	0x3e328b72	0.17436007
106	0xbc81b1f7	-0.01583193
107	0xbcba9439	-0.022775756
108	0x3e324e9d	0.17412801
109	0x3c43eb27	0.01195792
110	0xbca19968	-0.01972647
111	0x3e2a1f86	0.16613588
112	0x3e53d693	0.20687322
113	0xbc6fb60c	-0.014630806
114	0x3e269434	0.16267473
115	0xbc70e928	-0.014704026
116	0x3e21d2ab	0.1580302
117	0x3e57f221	0.21088459
118	0x3e21a39c	0.15785068
119	0x3e24c0d7	0.16089188
120	0x3e0cecc6	0.13762197
121	0x3e53ebd4	0.2069543
122	0xbc57f131	-0.013180063
123	0xbc5b67f7	-0.013391486
124	0x3e2ae0a1	0.16687252
125	0xbcbe8f27	-0.02326162
126	0x3e168791	0.14700152
127	0xbcc0730f	-0.023492364

fc3.weight f4 [14, 128]
0	0x3e010f2b	0.12603442
1	0x3d7b1eb6	0.061308585
2	0xbe4a892f	-0.19778894
3	0x3dba9a70	0.09111488
4	0x3e30c57d	0.17262836
5	0x3daf5c55	0.08562533
6	0xbdf27610	-0.11838925
7	0xbdbf6ba6	-0.09346704
8	0x3d320afe	0.043467514
9	0x3d6108c1	0.05493999
10	0xbe45e243	-0.19324593
11	0x3d045d22	0.03231538
12	0x3e18a9f9	0.1490859
13	0x3e0ac554	0.13551837
14	0x3e1e1746	0.15438566
15	0xbe357cff	-0.17723463
16	0xbe3da650	-0.18520474
17	0xbe5cdd56	-0.21568808
18	0x3cf0bf69	0.029388146
19	0xbe021891	-0.12704684
20	0x3e2f627e	0.17127416
21	0x3d204e66	0.039137267
22	0xbdd94237	-0.106083326
23	0x3da663c5	0.08124498
24	0xbd0aedbe	-0.033918135
25	0xbd388a82	-0.045053966
26	0xbe246394	-0.16053611
27	0x3c9cc7e9	0.019138293
28	0x3d687159	0.05674872
29	0xbe35944e	-0.17732355
30	0xbdeda7b3	-0.11604252
31	0x3db058f9	0.0861072
32	0x3e229fb0	0.15881228
33	0xbdb86461	-0.09003521
34	0x3daef0c5	0.08542017
35	0xbe386394	-0.18006736
36	0x3e38d76f	0.18050931
37	0x3e086dc3	0.13323121
38	0xbe2a9104	-0.16656882
39	0x3e099e64	0.13439327
40	0xbdda8dd8	-0.10671586
41	0x3e31e6fb	0.17373268
42	0xbe2b9726	-0.16756877
43	0xbe2f06f3	-0.17092495
44	0x3e046649	0.12929644
45	0xbb8082c5	-0.003921839
46	0xbe2acb2e	-0.1667907
47	0xbe0bb42f	-0.13642953
48	0xbe2f2bfc	-0.17106622
49	0x3e45a228	0.19300139
50	0xbd1db43b	-0.03850196
51	0x3db6751c	0.089090556
52	0x3ddb1315	0.10696999
53	0xbd86957c	-0.06571481
54	0xbde03beb	-0.109489284
55	0x3e1a2f89	0.15057196
56	0x3e305f45	0.17223842
57	0xbac6dfab	-0.001517286
58	0x3d4b8fb5	0.049697597
59	0xbe3103ec	-0.17286652
60	0xbc93d658	-0.018046543
61	0x3e28198e	0.16415998
62	0xbe34bc3a	-0.17649928
63	0xbd9a8e53	-0.075466774
64	0x3e0bac49	0.1363994
65	0xbe3e2917	-0.18570362
66	0xbd9c0683	-0.076184295
67	0xbd91daa9	-0.07121784
68	0x3d91e17f	0.07123088
69	0xbda7dfc7	-0.08196979
70	0x3e3891f9	0.18024434
71	0xbe35730e	-0.17719671
72	0x3e040a6f	0.12894605
73	0xbdd10653	-0.102062844
74	0xbda0ffd2	-0.07861294
75	0x3d98c4f5	0.074594416
76	0xbdc1f218	-0.09470004
77	0xbc1bf7e3	-0.00951955
78	0xbd70499b	-0.058663946
79	0x3aa106da	0.0012285367
80	0x3de3a013	0.11114516
81	0xbdcac74b	-0.09901293
82	0x3e41b8c1	0.18918134
83	0xbdbd7230	-0.09250295
84	0x3dc46e94	0.095914036
85	0x3d9845a6	0.074351594
86	0x3d81977f	0.06327724
87	0x3e56a7a8	0.20962393
88	0x3e212884	0.15738112
89	0x3e4574ba	0.19282809
90	0xbaab212d	-0.0013056152
91	0x3b8dbc05	0.004325392
92	0x3e4166af	0.18886827
93	0x3e019278	0.1265353
94	0xbd8c6c66	-0.06856613
95	0xbdf2bd18	-0.11852473
96	0xbd8d6c3b	-0.06905409
97	0xbcc60d9f	-0.024176417
98	0x3b09392a	0.0020938613
99	0xbcd275ef	-0.025691
100	0x3cb6d586	0.022318613
101	0x3dbffac9	0.09374005
102	0xbcdd2240	-0.02699387
103	0x3e019ad8	0.12656724
104	0x3e1aaf8e	0.15106031
105	0x3d9d2761	0.076735266
106	0xbdfe65aa	-0.12421735
107	0xbe3dfbfe	-0.18553159
108	0xbe1c33a1	-0.1525407
109	0xbdb91dc1	-0.09038878
110	0xbe25504f	-0.16143917
111	0x3de1c730	0.1102432
112	0xbd51ae58	-0.051191658
113	0x3da6c7e7	0.08143597
114	0x3cf62d35	0.030050853
115	0x3e3ea3d2	0.1861718
116	0x3d564b08	0.05231765
117	0xbd082db8	-0.033246726
118	0x3c6d9988	0.014501937
119	0xbe38226c	-0.17981881
120	0xbdd6c725	-0.104872026
121	0xbe0b1f08	-0.13586056
122	0x3dbc081f	0.091812365
123	0x3bb98f9a	0.0056628706
124	0xbd77b139	-0.060471747
125	0x3db2db95	0.08733288
126	0x3d98513f	0.074373715
127	0xbe454cf5	-0.19267638
128	0x3c9f1a85	0.019421825
129	0x3e2ff3fa	0.17182913
130	0xbdd0855b	-0.101816855
131	0x3c448608	0.011994846
132	0x3e1b7db5	0.15184672
133	0x3e306f90	0.17230058
134	0x3dc69519	0.09696407
135	0x3e17d143	0.14825921
136	0xbe23cd38	-0.15996253
137	0xbe02bc7d	-0.12767215
138	0x3e4548a9	0.19265999
139	0x3daa0bf6	0.083030626
140	0xbe297451	-0.16548277
141	0x3ce28615	0.027651826
142	0x3e476388	0.19471562
143	0xbdd1d182	-0.102450386
144	0xbe18d384	-0.14924437
145	0x3dc8bd59	0.0980174
146	0xbe1d9ca4	-0.15391785
147	0x3d60db3f	0.05489659
148	0x3da0f5b0	0.07859361
149	0x3e3b91dc	0.1831736
150	0xbe02660d	-0.12734242
151	0x3d0dfd8d	0.034665633
152	0xbe1392bd	-0.14411445
153	0x3d9d6670	0.07685554
154	0xbe25d3fa	-0.16194144
155	0x39e8d554	0.0004440943
156	0xbc1d24ef	-0.009591325
157	0x3e1fe73a	0.1561555
158	0x3c0bd74f	0.00853522
159	0xbd339748	-0.043845445
160	0x3e0b9de5	0.1363445
161	0x3e1d6173	0.15369205
162	0xbe2311be	-0.15924737
163	0xbd8a5513	-0.06754508
164	0xbd9bd1a2	-0.07608344
165	0x3b1296f7	0.0022367814
166	0x3c0dacbf	0.008647143
167	0xbccefda1	-0.025267424
168	0x3e0d0254	0.1377042
169	0xbce1c74b	-0.02756085
170	0xbdf0d65c	-0.11759636
171	0x3ccefa19	0.02526574
172	0xbdf39669	-0.11893923
173	0xbde31813	-0.11088576
174	0x3e1f3382	0.15546992
175	0xbd9bf9d9	-0.07616014
176	0x3de6664b	0.112499796
177	0xbd871abc	-0.06596896
178	0x3e0fb581	0.14034082
179	0xbe16adbb	-0.1471471
180	0x3b3b2ea2	0.002856173
181	0xbde5deb1	-0.11224116
182	0xbdb67460	-0.089089155
183	0xbe3187f8	-0.17337024
184	0x3d981186	0.07425217
185	0x3e68be6d	0.22728892
186	0xbe172915	-0.14761765
187	0x3daf4792	0.08558573
188	0xbd9b9178	-0.07596105
189	0x3de412b3	0.11136379
190	0x3c46f310	0.012142912
191	0x3d1c28fa	0.038125016
192	0x3e19d227	0.15021573
193	0x3d5dec1e	0.054180257
194	0xbdc65154	-0.09683481
195	0x3e315584	0.17317778
196	0x3d71c960	0.059029937
197	0xbe27729a	-0.16352311
198	0x3e287817	0.1645206
199	0x3d8068ff	0.062700264
200	0x3a29bd29	0.00064750254
201	0xbc8152b3	-0.015786504
202	0xbdeaf15d	-0.11471818
203	0x3d87a943	0.06624081
204	0x3d216c9f	0.03941023
205	0x3cced326	0.025247168
206	0xbe178204	-0.14795691
207	0x3e6426f5	0.22280486
208	0xbe0c1ece	-0.13683626
209	0xbe183340	-0.148633
210	0xbdf83b13	-0.121206425
211	0xbdd7de17	-0.10540407
212	0x3de44dba	0.11147638
213	0x3d2019d9	0.03908715
214	0x3e68a84c	0.2272045
215	0x3ccfbf4c	0.025359772
216	0xbe3c2b62	-0.18375924
217	0xbdfe520d	-0.12417994
218	0xbe2ef1bc	-0.17084402
219	0x3d936113	0.0719625
220	0x3e32183e	0.1739206
221	0x3e57b1f3	0.21063976
222	0xbe059b6d	-0.13047571
223	0x3e209faf	0.15685914
224	0xbe181b16	-0.14854082
225	0xbe00557f	-0.12532614
226	0xbe18984f	-0.14901851
227	0xbd16fb56	-0.036860786
228	0xbd3dd930	-0.046349704
229	0xbe19b1a9	-0.15009178
230	0xbd69e0aa	-0.057099022
231	0x3e490469	0.19630589
232	0x3e2eea4c	0.17081565
233	0x3e4d0f58	0.20025384
234	0x3e289d11	0.16466166
235	0xbe1cce4a	-0.15313068
236	0x3cce58d9	0.02518885
237	0x3d28cced	0.041211057
238	0x3db069ff	0.08613967
239	0x3db703e2	0.089362875
240	0x3e2061e0	0.15662336
241	0xbe05d464	-0.13069302
242	0xbdebf30b	-0.11520966
243	0x3e1b8291	0.15186526
244	0xbd9d3570	-0.07676208
245	0xbd63f416	-0.0556527
246	0xbdc60e0f	-0.0967065
247	0xbcf807e7	-0.030277206
248	0x3d857bb8	0.06517738
249	0x3d9045bd	0.070445515
250	0xbd8b87a9	-0.068129845
251	0xbdb36709	-0.08759887
252	0xbd437332	-0.04771728
253	0x3e60a373	0.21937351
254	0x3d2a5559	0.0415853
255	0x3e4bca9e	0.19901511

fc3.bias f4 [14]
0	0xbb812479	-0.0039411155
1	0x3e1dc32c	0.15406483
2	0x3c82acac	0.015951477
3	0x3c8c4147	0.01712097
4	0x3cbe0bfe	0.023199078
5	0xbbbbedb8	-0.0057351254
6	0xbc2008d7	-0.009767733
7	0x3cbe6eda	0.023246218
8	0xbcfd81cd	-0.030945683
9	0x3e32ae86	0.17449388
10	0x3e00c9a8	0.12576926
11	0xbc211e42	-0.009833874
12	0xbc4610ca	-0.012088964
13	0xbbda8234	-0.0066683535
