Response14/state_dicts/model_state_dict_10e.pth (torch, 775441 bytes, 8 tensors)

conv1.weight f4 [32, 64, 3]
0.01365928 -0.01209376 0.014304148 0.012226496 -0.0902673 -0.07685908 0.0068471115 0.013499087
-0.052598447 -0.03685855 0.0007860161 -0.0766964 -0.016383518 -0.03291591 -0.033384096 -0.09069885
-0.0052397475 0.024227144 -0.054693524 0.004017424 -0.061654296 -0.081804484 -0.06286119 -0.084176384
-0.084162936 -0.08965661 -0.00045171834 -0.1080776 -0.034355167 0.020793106 -0.02133811 -0.022445247
-0.014178352 0.030138005 -0.091324836 -0.10086888 -0.098652355 -0.0034179718 -0.02727073 -0.0969652
-0.09284355 0.010794362 -0.010903602 0.023190103 -0.11120769 -0.062204607 -0.0016780234 -0.015406031
0.025375804 -0.06987329 -0.023815619 -0.07498019 0.020279806 -0.08794017 -0.09912909 -0.04042057
-0.09271983 -0.05520472 -0.0030869087 -0.08274092 0.0028156978 -0.008496658 0.0022595678 -0.054149132
-0.100379676 -0.07820777 -0.034580074 -0.09488005 0.020153508 -0.020785294 -0.052815396 -0.064503565
-0.0029959837 0.020644607 0.0020819462 -0.034010846 -0.024883872 -0.07417629 -0.09279161 -0.0075688013
-0.037600767 -0.0018027066 -0.030296713 -0.044706102 -0.0007537785 0.0034202056 -0.03873007 -0.025036326
-0.095870994 0.014598605 -0.054336537 -0.071666375 -0.073239796 0.003839981 -0.02274341 -0.11011231
0.018691674 0.026922053 -0.07446135 -0.07051157 -0.07729279 -0.0030360231 -0.050730366 -0.04345239
-0.105805695 -0.010362474 -0.049813103 -0.11019568 -0.019653725 0.011217476 -0.091566764 -0.10334241
-0.013379165 -0.090601206 -0.061359424 0.025665404 -0.022282911 -0.107600786 -0.10118497 -0.033772934
-0.09636278 -0.10242888 -0.08089397 -0.00529763 0.01765293 -0.038109314 -0.028488489 0.003970993
-0.08011482 -0.005079826 0.033216618 0.023623269 -0.0379054 -0.066072 -0.08538263 -0.047845837
-0.07997823 -0.0848704 0.0147379795 -0.0012053181 -0.06483466 0.00199033 -0.07756498 -0.105134785
-0.10092937 0.0047207763 0.0016488779 -0.09918834 -0.002520136 -0.08159669 0.0041070012 -0.0023297034
-0.096018404 0.014817224 -0.11978913 -0.11759842 0.02573385 -0.040872585 0.002935705 -0.09183468
-0.066621244 -0.08564058 0.016215106 -0.07562876 -0.012529974 -0.026953444 -0.019751934 -0.013655194
-0.11871424 0.022753015 -0.036018293 -0.025387315 -0.035427675 -0.08154934 -0.005412151 -0.06431038
-0.10289226 -0.11158057 -0.09400142 -0.0060790484 -0.0037829552 0.020669863 -0.0976857 0.007822955
-0.097980835 0.027768442 -0.009598441 -0.069662005 -0.022442816 0.0009888164 -0.09177966 -0.10759461
0.0017509126 0.05464151 0.058750972 -0.015649254 -0.0011893809 0.019823113 0.08657321 0.013699273
0.0850923 0.06163745 0.083865345 -0.020822005 -0.03940483 0.09667329 0.07993728 0.0021024034
0.065008976 -0.01836645 -0.0032293187 0.025595339 0.0661104 -0.041540615 0.09589584 0.078015566
0.026196253 0.03528214 0.07430182 -0.039273057 0.08062868 -0.024478115 0.006688973 -0.008717214
0.10536559 -0.013457161 -0.030407315 0.07487834 0.019251121 0.001561225 -0.048169672 -0.037875406
0.035008647 0.04949324 0.07804228 -0.013101951 0.0907956 0.0732436 -0.037170354 0.072938435
-0.028386964 0.08759154 -0.005443725 0.044689514 -0.015395229 0.030546976 -0.02238396 -0.011241549
-0.03622354 0.06809461 -0.013084797 0.10202293 0.04651016 0.04640527 0.008561853 0.005739377
00000000: 2ccb 5f3c e824 46bc f25b 6a3c a451 483c
00000010: 10de b8bd 4b68 9dbd bc5d e03b 462b 5d3c
00000020: 7871 57bd fef8 16bd a60c 4e3a 0113 9dbd
00000030: ba36 86bc d5d2 06bd c3bd 08bd 52c0 b9bd
00000040: 30b2 abbb 0178 c63c 5106 60bd 98a4 833b
00000050: 3789 7cbd 1c89 a7bd 5ebd 80bd ab64 acbd
00000060: 9e5d acbd e29d b7bd 9cd4 ecb9 ca57 ddbd
00000070: 01b8 0cbd 4e56 aa3c 43cd aebc 18df b7bc
00000080: 524c 68bc fae3 f63c 8408 bbbd 5894 cebd
00000090: 3f0a cabd 0d00 60bb de66 dfbc b195 c6bd
000000a0: c224 bebd d6da 303c 05a5 32bc 2cf9 bd3c
000000b0: dbc0 e3bd 42ca 7ebd 1ff1 dbba 9469 7cbc
000000c0: ebe0 cf3c ba19 8fbd f918 c3bc 378f 99bd
000000d0: d621 a63c fa19 b4bd 3104 cbbd 0a90 25bd
000000e0: e5e3 bdbd 581e 62bd bc4d 4abb 1274 a9bd
000000f0: 9287 383b 9135 0bbc 4215 143b 7bcb 5dbd
00000100: dc93 cdbd 652b a0bd d6a3 0dbd 7950 c2bd
00000110: f818 a53c ec45 aabc f554 58bd 721a 84bd
00000120: 4458 44bb e11e a93c 4371 083b f54e 0bbd
00000130: 43d9 cbbc bde9 97bd 8709 bebd b503 f8bb
00000140: 4303 1abd cc48 ecba d030 f8bc bf1d 37bd
00000150: 3899 45ba 8725 603b 6ca3 1ebd fb18 cdbc
00000160: 0358 c4bd fd2e 6f3c fd8f 5ebd d2c5 92bd
00000170: bffe 95bd 31a8 7b3b 6350 babc 9082 e1bd
00000180: 481f 993c a38b dc3c 317f 98bd 5f68 90bd
00000190: af4b 9ebd 04f8 46bb a5ca 4fbd 22fb 31bd
000001a0: a8b0 d8bd 5ec7 29bc d308 4cbd 46ae e1bd
000001b0: d900 a1bc 81c9 373c 5b87 bbbd 2fa5 d3bd
000001c0: 4934 5bbc 208d b9bd 0554 7bbd 4140 d23c
000001d0: a78a b6bc cd5d dcbd 113a cfbd 7d55 0abd
000001e0: d959 c5bd 3cc6 d1bd bdab a5bd be97 adbb
000001f0: e19c 903c 8318 1cbd b160 e9bc 1b1f 823b
00000200: 3d13 a4bd ab74 a6bb 260e 083d 9685 c13c
00000210: b142 1bbd c250 87bd 17dd aebd fff9 43bd
00000220: a0cb a3bd 88d0 adbd 9177 713c c4fb 9dba
00000230: 09c8 84bd 3270 023b 63da 9ebd e850 d7bd
00000240: 0fb4 cebd beb0 9a3b 291f d83a 4223 cbbd
00000250: de28 25bb 2a1c a7bd 0694 863b f0ad 18bb
00000260: 4ca5 c4bd f1c3 723c 0154 f5bd 71d7 f0bd
00000270: cccf d23c 036a 27bd f564 403b d213 bcbd
00000280: b870 88bd 5464 afbd 8bd5 843c 40e3 9abd
00000290: 854a 4dbc 78cd dcbc cfce a1bc 09ba 5fbc
000002a0: 7420 f3bd 8864 ba3c eb87 13bd 0ff9 cfbc
000002b0: 9c1c 11bd 5703 a7bd 6a58 b1bb 29b5 83bd
000002c0: 2db9 d2bd 5b84 e4bd d183 c0bd c132 c7bb
000002d0: 75eb 77bb d853 a93c 710f c8bd da2b 003c
000002e0: 2daa c8bd a57a e33c c842 1dbc f4aa 8ebd
000002f0: ffd9 b7bc 2c9b 813a f9f6 bbbd 905a dcbd
00000300: e17e e53a c7cf 5f3d dca4 703d dd32 80bc
00000310: 00e5 9bba 1564 a23c 4c4d b13d ea72 603c
00000320: df44 ae3d 8d77 7c3d 98c1 ab3d e992 aabc
00000330: f666 21bd a5fc c53d 28b6 a33d 7ac8 093b
00000340: 6d23 853d 3d75 96bc faa2 53bb 51ad d13c
00000350: e464 873d 7e26 2abd 0a65 c43d a0c6 9f3d
00000360: 8699 d63c 0184 103d 8d2b 983d c9dc 20bd
00000370: a620 a53d 5486 c8bc 2c2f db3b a5d2 0ebc
00000380: eac9 d73d 6d7b 5cbc c318 f9bc d159 993d
00000390: 87b4 9d3c 05a2 cc3a 904d 45bd 3e23 1bbd
000003a0: 3a65 0f3d 6cb9 4a3d a2d4 9f3d 91a9 56bc
000003b0: 0bf3 b93d be00 963d f13f 18bd bf60 953d
000003c0: c78b e8bc 3163 b33d 4661 b2bb 5a0c 373d
000003d0: 453c 7cbc a73d fa3c 915e b7bc 792e 38bc
000003e0: 225f 14bd 3075 8b3d 9e61 56bc 66f1 d03d
000003f0: 7081 3e3d 7413 3e3d 0447 0c3c 6211 bc3b

conv1.bias f4 [32]
0.041504603 0.028720763 0.09197843 0.042305805 0.044014856 0.09443816 -0.030403044 0.019611983
-0.018762762 0.073432624 0.023591638 0.0029645236 -0.016081775 0.10459444 0.05070975 0.06877196
0.058946606 -0.010957977 0.002400781 0.04546454 0.0018589442 -0.025736153 0.0016177547 0.050401665
0.08893177 0.04982525 -0.033271167 0.09991949 0.044000257 0.0063883453 0.05774999 0.055710733
00000000: bb00 2a3d ce47 eb3c 305f bc3d da48 2d3d
00000010: ec48 343d cb68 c13d ce0f f9bc 4fa9 a03c
00000020: 5db4 99bc d863 963d 4043 c13c 7448 423b
00000030: edbd 83bc 9c35 d63d 07b5 4f3d 50d8 8c3d
00000040: ff71 713d 1689 33bc 6c56 1d3b 0739 3a3d
00000050: d1a7 f33a a0d4 d2bc d70a d43a fa71 4e3d
00000060: dc21 b63d 9015 4c3d 5947 08bd 97a2 cc3d
00000070: 9d39 343d 5355 d13b 418b 6c3d f030 643d

conv2.weight f4 [64, 32, 3]
-0.036565647 -0.031146739 -0.0749462 0.06763674 -0.047109645 -0.038413867 0.09577975 0.08085769
-0.056856144 0.10438263 -0.05175401 -0.03755677 0.1009143 0.020579286 -0.06135692 0.031944524
-0.043787755 0.116949886 0.06791466 -0.030294582 0.028816823 0.04775796 -0.036006104 0.037162624
0.10955253 0.10306799 -0.07517916 0.0078097866 0.031862993 0.11591244 -0.0011285833 0.07510235
0.067237474 0.12274311 0.06308981 -0.00046966222 -0.016273497 0.021527756 -0.006454176 0.089632764
0.079339385 0.04576259 0.014860963 -0.074724115 -0.028892653 0.014177503 -0.01048847 0.042205054
0.078095324 0.107077025 0.01894277 -0.059600517 0.057521153 0.10898919 0.10027106 -0.050115086
-0.053703193 -0.022376364 0.08495837 0.010289544 0.09548189 0.10878995 0.12196389 -0.016735084
-0.02253799 -0.06346949 0.0027714358 -0.03797268 0.006523797 0.09125886 -0.067031965 0.076141186
0.034886044 0.080137536 -0.067668945 -0.017350102 0.016604401 -0.032982517 -0.05370476 0.025117325
-0.07762115 -0.028378999 0.110778086 0.12848222 0.0055108913 -0.037800327 0.092359826 0.026401348
-0.0034655957 0.12478972 0.1110838 0.08400862 0.00717292 -0.042868298 -0.007629968 -0.06410265
0.037204422 0.082969256 0.08446378 -0.06613949 -0.013997818 0.022682687 -0.0173927 0.019780638
0.0933113 -0.023178397 0.045130882 0.07131077 0.09902951 0.054932848 0.03890064 -0.02562448
0.12232395 0.10942264 -0.04393746 -0.0031201232 0.095469825 0.10576361 -0.03677975 0.08086481
-0.011764413 0.06477102 0.018848015 0.12553875 0.06460474 0.018195612 -0.03829218 0.041543096
0.10726188 -0.039966058 -0.05015505 0.044007294 -0.020772792 0.042274006 0.0790978 0.004871338
-0.06720797 -0.07057917 0.01189802 -0.03775025 0.061676584 0.008435161 0.09090031 -0.051712032
0.04911775 0.09685321 0.028132595 0.006769835 0.049864348 0.016936753 0.11935794 -0.063609146
-0.009562434 0.10410147 0.09328078 -0.061382663 -0.0001759635 -0.015659763 0.08498349 0.038958184
-0.037591513 0.11044353 0.0076121776 0.109692566 0.11813972 0.12322182 -0.062436875 0.12043984
-0.042702835 -0.063965835 0.03803936 0.005703814 0.06427977 -0.008441902 0.11775608 -0.07678812
0.030791905 0.099324435 0.09044366 0.026467692 0.118632376 -0.03300536 -0.031224383 0.072772026
-0.06599153 -0.0036116976 0.113139026 0.051409505 0.122146085 -0.0028621207 0.057820957 -0.0017135439
0.10842161 -0.0559487 0.09901103 -0.06693375 -0.055230275 -0.0421738 -0.06352772 0.06994655
-0.07525164 -0.036159337 0.005635004 0.029082373 -0.026783172 0.024081478 0.10818739 0.09480786
0.07913226 -0.01359246 0.097719416 0.114301845 0.12237286 0.08318809 -0.020611955 -0.017616905
-0.031562597 0.0006597769 0.091988 -0.037092377 0.124929905 -0.041926604 0.024007432 -0.04420467
0.0035199486 -0.02775681 0.06282254 -0.07456644 0.039030895 -0.01217213 0.09648455 0.09443644
0.0045507033 0.080428034 -0.037934996 -0.025979364 -0.021787653 -0.019215968 -0.052359108 0.0029256751
0.10717116 0.07531988 -0.07109349 -0.059640612 0.098066404 -0.061667293 -0.040238075 0.114286765
-0.029971847 -0.055920776 0.05791927 0.061125185 0.057539064 0.06610163 0.076384276 -0.055280134
00000000: dcc5 15bd 7227 ffbc 657d 99bd 2285 8a3d
00000010: 0bf6 40bd dc57 1dbd 2c28 c43d b798 a53d
00000020: fde1 68bd 8fc6 d53d 03fc 53bd 21d5 19bd
00000030: 28ac ce3d e495 a83c 6551 7bbd 43d8 023d
00000040: ca5a 33bd 6c83 ef3d d716 8b3d 582c f8bc
00000050: 4211 ec3c da9d 433d 237b 13bd d637 183d
00000060: 145d e03d 4f15 d33d 88f7 99bd 3de9 ff3b
00000070: c582 023d 8063 ed3d f9ec 93ba 43cf 993d
00000080: cdb3 893d bd60 fb3d 3b35 813d ff3c f6b9
00000090: ff4f 85bc fa5a b03c 8d7d d3bb 6291 b73d
000000a0: b07c a23d 8e71 3b3d 667b 733c f508 99bd
000000b0: 49b0 ecbc c248 683c d5d7 2bbc 35df 2c3d
000000c0: 71f0 9f3d 334b db3d de2d 9b3c ac1f 74bd
000000d0: 4d9b 6b3d b935 df3d ea5a cd3d 7a45 4dbd
000000e0: e1f7 5bbd a34e b7bc a7fe ad3d 7a95 283c
000000f0: 028c c33d 44cd de3d 34c8 f93d 0418 89bc
00000100: 97a1 b8bc 4bfc 81bd faa0 353b 3e89 1bbd
00000110: 93c5 d53b ede5 ba3d 0e48 89bd e9ef 9b3d
00000120: abe4 0e3d 261f a43d 0496 8abd cd21 8ebc
00000130: f405 883c ad18 07bd 86f9 5bbd d9c2 cd3c
00000140: d6f7 9ebd 137b e8bc 9fdf e23d d890 033e
00000150: b594 b43b 84d4 1abd 2627 bd3d a447 d83c
00000160: 0c1f 63bb c191 ff3d e77f e33d b60c ac3d
00000170: d00a eb3b ab96 2fbd d004 fabb 4048 83bd
00000180: aa63 183d c9eb a93d 59fb ac3d 2474 87bd
00000190: 1b57 65bc 0bd1 b93c 237b 8ebc 010b a23c
000001a0: ff19 bf3d 9fe0 bdbc 29db 383d 620b 923d
000001b0: fccf ca3d 4401 613d 4756 1f3d 6eea d1bc
000001c0: fb84 fa3d fa18 e03d c4f7 33bd fb7a 4cbb
000001d0: af85 c33d 979a d83d 5da6 16bd 739c a53d
000001e0: 86bf 40bc aba6 843d 2767 9a3c 3b8d 003e
000001f0: 7d4f 843d f70e 953c 43d8 1cbd 1829 2a3d
00000200: 1eac db3d 73b3 23bd 626f 4dbd fe40 343d
00000210: b42b aabc 8227 2d3d 07fe a13d bf9f 9f3b
00000220: 55a4 89bd d08b 90bd eaef 423c 02a0 1abd
00000230: 96a0 7c3d a133 0a3c f129 ba3d ffcf 53bd
00000240: b22f 493d fa5a c63d 5476 e63c 7ed5 dd3b
00000250: 8f3e 4c3d f2be 8a3c f071 f43d 8345 82bd
00000260: c1ab 1cbc 2733 d53d fe09 bf3d 636c 7bbd
00000270: d882 38b9 e748 80bc d30b ae3d 9e92 1f3d
00000280: 8ff9 19bd 3830 e23d 936f f93b 7fa6 e03d
00000290: 3df3 f13d b95b fc3d cfbd 7fbd 2aa9 f63d
000002a0: 2be9 2ebd 8500 83bd 29cf 1b3d 0fe7 ba3b
000002b0: 1da5 833d e74f 0abc 1a2a f13d 1743 9dbd
000002c0: 4e3f fc3c 9c6a cb3d 873a b93d c6d2 d83c
000002d0: 88f5 f23d a130 07bd 47ca ffbc 8009 953d
000002e0: 9126 87bd 3bb2 6cbb 6fb5 e73d c692 523d
000002f0: ba27 fa3d 6b92 3bbb abd5 6c3d fe98 e0ba
00000300: 260c de3d 772a 65bd 4bc6 ca3d 9014 89bd
00000310: 2439 62bd 6fbe 2cbd d21a 82bd 2340 8f3d
00000320: 881d 9abd d01b 14bd d7a5 b83b 283e ee3c
00000330: 6268 dbbc 8546 c53c 5a91 dd3d a02a c23d
00000340: 1810 a23d e9b2 5ebc 1e21 c83d 1617 ea3d
00000350: 9f9e fa3d 845e aa3d 67da a8bc 5451 90bc
00000360: c847 01bd e1f4 2c3a 3464 bc3d 2dee 17bd
00000370: 40db ff3d 3bbb 2bbd 3cab c43c f50f 35bd
00000380: f0ae 663b 4062 e3bc 1ba9 803d 4ab6 98bd
00000390: dcde 1f3d 9d6d 47bc b199 c53d e467 c13d
000003a0: 111e 953b 74b7 a43d ba61 1bbd add2 d4bc
000003b0: 057c b2bc ce6a 9dbc 8176 56bd afbc 3f3b
000003c0: 8e7c db3d 4f41 9a3d 7799 91bd b749 74bd
000003d0: 0ad7 c83d d896 7cbd aed0 24bd 2e0f ea3d
000003e0: 8587 f5bc 2f0d 65bd c23c 6d3d 675e 7a3d
000003f0: 15ae 6b3d 4b60 873d 5c6f 9c3d 6c6d 62bd

conv2.bias f4 [64]
0.110621415 -0.034651887 0.082091905 0.06752593 0.047765788 0.05379196 -0.066721864 0.13201909
0.06747029 0.012178464 0.11750708 0.102591254 0.087696716 0.10371638 -0.014214609 0.0334123
-0.03857873 -0.03584402 -0.026821967 0.08636195 0.13446642 0.022668213 0.09779956 -0.047401104
0.12877534 0.0065797307 0.09112298 -0.0065819807 0.054137107 0.06252696 -0.009498679 0.03129055
0.023902465 0.11651226 -0.0033544975 0.104104474 -0.047118135 -0.004316002 0.028960206 0.060824532
0.10912317 0.023778439 0.009931762 -0.022799432 0.109960385 0.009646371 0.033650953 0.11763695
0.13246557 0.058840454 -0.0141123105 0.1149552 0.10453014 0.066721156 0.11904728 0.046735495
0.014810225 -0.06118146 -0.023933649 -0.021931993 -0.053711113 0.0047893985 0.086200334 0.034088857
00000000: 7b8d e23d 23ef 0dbd cd1f a83d 094b 8a3d
00000010: 0fa6 433d f554 5c3d 79a5 88bd 0330 073e
00000020: dd2d 8a3d 2e88 473c 8da7 f03d 5d1b d23d
00000030: 569a b33d 4169 d43d 64e4 68bc 56db 083d
00000040: bb04 1ebd 2ed1 12bd beb9 dbbc 89de b03d
00000050: 91b1 093e b0b2 b93c 234b c83d a927 42bd
00000060: afdd 033e c89a d73b af9e ba3d a8ad d7bb
00000070: dfbe 5d3d 230e 803d 59a0 1bbc 852a 003d
00000080: 1acf c33c fb9d ee3d 21d7 5bbb ba34 d53d
00000090: f2fe 40bd 406d 8dbb f43d ed3c 2523 793d
000000a0: f87b df3d 00cb c23c d4b8 223c e0c5 babc
000000b0: e932 e13d d00b 1e3c 95d5 093d a4eb f03d
000000c0: 0ea5 073e b002 713d 5237 67bc a26d eb3d
000000d0: e613 d63d 1aa5 883d 0fcf f33d b86d 3f3d
000000e0: 96a6 723c 6999 7abd 8010 c4bc b9aa b3bc
000000f0: 2f00 5cbd 63f0 9c3b cd89 b03d c2a0 0b3d

fc1.weight f4 [128, 1397]
-0.0244518 -0.0060773827 0.036647376 -0.0672368 -0.059359495 0.026234278 -0.0025948496 -0.033181667
-0.010679447 -0.051753633 -0.033623923 0.010212779 0.044407852 0.00983268 -0.063429445 0.022707393
-0.041107386 -0.041586235 -0.020660954 -0.0029259464 0.020147527 0.01222041 0.008123655 0.050321676
-0.04512348 -0.020312998 -0.044137057 0.026166301 0.037828494 -0.0316317 -0.040418424 -0.03194079
-0.040233303 -0.02286769 0.032948215 0.029372752 0.0156794 0.05379134 0.02110193 -0.009235139
0.024795286 0.03110584 -0.019018138 -0.04676457 -0.043344125 -0.022119576 -0.05251013 -0.03513035
0.049464766 -0.06594981 -0.0024418745 0.0077530285 -0.005411663 -0.053293295 0.048472777 0.0199229
0.04813435 -0.019298924 -0.059580244 0.0019116553 -0.047819577 -0.009234076 0.015454783 -0.020400243
-0.06758042 -0.03825409 0.04678349 -0.0125322575 -0.03983687 -0.04890783 -0.0041587357 0.023416713
0.009208091 0.049939834 -0.034304436 0.026865153 0.049094174 0.008902922 0.033732653 0.022117408
-0.02175873 0.026369449 -0.029551037 -0.0008882819 -0.005608086 0.007604559 -0.037050977 -0.024233174
-0.06722075 -0.0046467558 -0.053950004 0.046508066 -0.030606363 -0.0327631 0.024089744 -0.06280893
0.022690488 0.0013554174 -0.04658752 -0.046149004 -0.018234229 -0.02804378 0.04416534 -0.042647924
0.011198357 -0.035514288 -0.008504985 -0.00649796 0.009578763 0.04073393 -0.0031361803 -0.04295294
-0.03134252 -0.0066332603 0.052323245 -0.019329702 -0.0011103175 -0.06328802 -0.022410886 -0.065803826
-0.034571353 -0.04255527 -0.012474557 -0.06854588 -0.045391597 0.0035376968 -0.012322856 0.047180798
-0.045048453 0.040948413 -0.00035866222 -0.05216154 -0.011666069 -0.031925596 0.04606757 0.04579846
-0.06807147 -0.05008138 0.04051119 0.007613053 0.0008816709 -0.006796939 -0.06754585 0.006413803
-0.07022161 -0.0040513487 0.019992577 -0.056842703 0.04411027 -0.019091781 -0.013099248 0.032873243
-0.033505682 -0.021805441 0.019677114 -0.05522044 -0.02042874 -0.023436625 0.009184007 0.047016393
-0.034665443 -0.0037297194 -0.058558814 -0.016365586 0.013486212 0.051698714 0.022764748 -0.022602504
0.03132924 0.015510626 -0.01067381 -0.0027485036 0.043712 0.04675942 0.006445023 0.024453463
-0.009546345 0.019558499 -0.06074132 -0.04273972 0.013787648 -0.00032577998 -0.0090919975 -0.027079398
0.046022043 0.0022606219 -0.03849792 -0.009316835 -0.019354722 -0.018855225 -0.019948231 -0.039647367
0.039996002 0.021113386 0.05074768 0.047090564 0.032555778 0.01745048 0.02697734 -0.041694064
0.04909835 0.03690062 0.01292127 -0.0064723273 0.0093422895 -0.004284789 -0.018680809 0.04729731
-0.009408013 -0.0074206563 0.051628448 -0.01741227 -0.06303052 -0.009731925 -0.025247408 0.0403101
0.03618193 -0.012603343 0.048242692 -0.036773346 0.04465197 -0.038013272 0.012130955 0.027852785
0.021757225 0.017231308 -0.032719485 -0.008153317 0.05345967 0.0484779 -0.011051047 0.045227453
0.01862743 -0.0026381772 -0.040799323 -0.059261862 -0.06592658 -0.020733684 0.02281704 0.0028219197
-0.032089278 0.024150213 -0.025142383 0.0201706 0.017742846 -0.0010014932 0.016059836 0.051491193
-0.040030777 -0.03535059 -0.036220334 0.03455927 -0.008406544 -0.013170281 0.026466995 -0.0010089433
00000000: 244f c8bc c824 c7bb 8f1b 163d 73b3 89bd
00000010: f122 73bd 45e9 d63c 5a0e 2abb 80e9 07bd
00000020: d9f8 2ebc 9efb 53bd 3db9 09bd 8053 273c
00000030: 02e5 353d 4019 213c 4ce7 81bd db04 ba3c
00000040: 3860 28bd 5456 2abd 2941 a9bc 3cc1 3fbb
00000050: 6d0c a53c 1d38 483c 1419 053c 1a1e 4e3d
00000060: 66d3 38bd 7267 a6bc 0fc9 34bd b65a d63c
00000070: 0df2 1a3d 3e90 01bd ca8d 25bd 59d4 02bd
00000080: adcb 24bd 0655 bbbc b5f4 063d 209f f03c
00000090: 1672 803c 4f54 5c3d f4dd ac3c fb4e 17bc
000000a0: 7c1f cb3c add1 fe3c edcb 9bbc 358c 3fbd
000000b0: 9c89 31bd 1d34 b5bc dd14 57bd d8e4 0fbd
000000c0: 919b 4a3d b210 87bd db07 20bb 1e0d fe3b
000000d0: 5254 b1bb 124a 5abd 648b 463d 5935 a33c
000000e0: 8628 453d c718 9ebc 6a0a 74bd 8290 fa3a
000000f0: 76de 43bd 864a 17bc 0f36 7d3c 691e a7bc
00000100: 9a67 8abd 52b0 1cbd 0ba0 3f3d 1954 4dbc
00000110: fc2b 23bd 9453 48bd 0146 88bb 68d4 bf3c
00000120: 88dd 163c b68d 4c3d cf82 0cbd 4f14 dc3c
00000130: f916 493d 90dd 113c 402b 0a3d 912f b53c
00000140: 5d3f b2bc be04 d83c 0415 f2bc 97db 68ba
00000150: 09c4 b7bb aa2f f93b c4c2 17bd a684 c6bc
00000160: 08ab 89bd d043 98bb aefa 5cbd 3e7f 3e3d
00000170: 32ba fabc 9a32 06bd db57 c53c f8a1 80bd
00000180: 67e1 b93c 43a8 b13a 8ed2 3ebd bd06 3dbd
00000190: f35f 95bc 12bc e5bc b7e6 343d 97af 2ebd
000001a0: 5079 373c 6e77 11bd 7e58 0bbc d7ec d4bb
000001b0: 3ef0 1c3c 9fd8 263d 6088 4dbb 6cef 2fbd
000001c0: 0461 00bd d25b d9bb e650 563d 5359 9ebc
000001d0: 1388 91ba 269d 81bd 0997 b7bc 28c4 86bd
000001e0: b19a 0dbd 6f4e 2ebd 1662 4cbc c861 8cbd
000001f0: 8aec 39bd b4d8 673b cee5 49bc a740 413d
00000200: ba84 38bd 86b9 273d d40a bcb9 57a7 55bd
00000210: 0a23 3fbc 6ac4 02bd 59b1 3c3d 2a97 3b3d
00000220: 0e69 8bbd 2222 4dbd 10ef 253d eb76 f93b
00000230: ef1f 673a dbb8 debb 7b55 8abd e12a d23b
00000240: 59d0 8fbd 2dc1 84bb 79c7 a33c e5d3 68bd
00000250: f8ac 343d 5e66 9cbc 3a9e 56bc 18a6 063d
00000260: 413d 09bd 53a1 b2bc e631 a13c d42e 62bd
00000270: 2c5a a7bc 2afe bfbc 8478 163c 4394 403d
00000280: 5afd 0dbd 4f6e 74bb 5edb 6fbd 1f11 86bc
00000290: 46f5 5c3c 08c2 533d 237d ba3c e328 b9bc
000002a0: 1753 003d 4820 7e3c 34e1 2ebc 3d20 34bb
000002b0: 5b0b 333d ce86 3f3d c630 d33b a152 c83c
000002c0: 4668 1cbc 2539 a03c e4cb 78bd d80f 2fbd
000002d0: 96e5 613c 73cd aab9 9af6 14bc 9dd5 ddbc
000002e0: 9c81 3c3d f126 143b ffaf 1dbd a3a5 18bc
000002f0: cb8d 9ebc 4676 9abc 796a a3bc 4765 22bd
00000300: d9d2 233d fbf5 ac3c cddc 4f3d 09e2 403d
00000310: 3559 053d 4ff4 8e3c 95ff dc3c 65c7 2abd
00000320: 5a1b 493d 1b25 173d bcb3 533c d115 d4bb
00000330: 6710 193c 6a67 8cbb 7f08 99bc d3ba 413d
00000340: 1124 1abc fa28 f3bb 5a78 533d 2da4 8ebc
00000350: 2516 81bd a772 1fbc a7d3 cebc 341c 253d
00000360: 8133 143d 417e 4ebc 219a 453d a69f 16bd
00000370: fce4 363d ceb3 1bbd eac0 463c 862b e43c
00000380: 353c b23c ac28 8d3c de04 06bd 7d95 05bc
00000390: 87f8 5a3d c390 463d 730f 35bc 6c40 393d
000003a0: 8d98 983c 45e5 2cbb 311d 27bd 91bc 72bd
000003b0: 8404 87bd b0d9 a9bc cdea ba3c f5ef 383b
000003c0: 0c70 03bd abd6 c53c 66f7 cdbc d03c a53c
000003d0: 7259 913c 8944 83ba eb8f 833c 6ee8 523d
000003e0: 50f7 23bd c8cb 10bd c65b 14bd 058e 0d3d
000003f0: 9abb 09bc 2ac8 57bc 50d1 d83c 853e 84ba

fc1.bias f4 [128]
-0.010564722 0.11269851 -0.011626851 -0.011820774 -0.008075499 0.08402569 -0.010221193 -0.010138693
-0.007204105 -0.007936559 0.10757776 0.11787961 -0.007705328 0.12297914 0.11442187 0.1179799
0.1241603 0.11128007 -0.011585685 -0.011105278 -0.0084727295 0.11336926 0.11892493 -0.009097133
0.12044034 -0.011279618 -0.0062061716 -0.008306373 0.116051346 0.11650598 0.11063437 0.12944336
0.10648071 0.111371994 -0.0010868048 0.12076901 -0.0094084805 -0.008208749 0.11300512 -0.008405023
-0.008930661 -0.004871774 0.1291758 0.09815419 -0.010635777 -0.01044883 -0.008930848 -0.011465678
-0.0075862356 0.11936884 -0.008176259 0.10530481 0.10045815 -0.0066640833 0.12311025 -0.0076950486
-0.0084548425 0.11296701 0.11418748 -0.008206812 -0.008267638 0.12773536 -0.008376273 0.11649168
-0.007862122 0.11489973 -0.010215084 0.1171598 0.12237381 0.12483414 -0.006606363 0.12461234
-0.0078061908 -0.0074777175 -0.009470011 -0.0070441486 -0.012918484 0.115287155 -0.008475993 -0.014177709
-0.013368398 -0.008967735 -0.00600217 -0.00049785664 0.114624314 0.11375723 0.12862362 -0.011980179
0.11176811 0.1197766 0.11493072 0.11745354 -0.011545034 0.10750293 -0.008232631 0.09931309
-0.010928424 -0.0061605796 0.11390182 0.10837613 -0.007008683 -0.013129351 -0.008656087 -0.017368294
0.11215321 -0.011730463 -0.010307934 0.12060425 0.095650315 -0.007555859 -0.0072927517 -0.00988679
-0.00447848 0.12012486 -0.0067913197 0.11668841 -0.0025117518 0.104504436 -0.010328743 -0.007932265
0.118153684 -0.010361208 -0.00910633 -0.007663605 -0.008480801 0.11825298 0.1142227 -0.007444079
00000000: a817 2dbc 7ace e63d 8c7e 3ebc ebab 41bc
00000010: 194f 04bc a915 ac3d ca76 27bc c31c 26bc
00000020: 6a10 ecbb 5708 02bc bb51 dc3d dd6a f13d
00000030: fa7c fcbb 7ddc fb3d 0356 ea3d 729f f13d
00000040: c147 fe3d cee6 e33d e3d1 3dbc e9f2 35bc
00000050: 34d1 0abc 252e e83d ea8e f33d 240c 15bc
00000060: 6da9 f63d 26ce 38bc 245d cbbb 7417 08bc
00000070: 54ac ed3d b09a ee3d 4694 e23d cd8c 043e
00000080: 8f12 da3d 0017 e43d 1e73 8eba be55 f73d
00000090: 0726 1abc fd7d 06bc 3a6f e73d 39b5 09bc
000000a0: e851 12bc 67a3 9fbb a946 043e 1005 c93d
000000b0: af41 2ebc 9231 2bbc b152 12bc 8ada 3bbc
000000c0: f595 f8bb a677 f43d b7f5 05bc 0caa d73d
000000d0: 01bd cd3d 625e dabb 3a21 fc3d bf26 fcbb
000000e0: 2e86 0abc 3f5b e73d 20db e93d dd75 06bc
000000f0: fd74 07bc 0fcd 023e a33c 09bc 3193 ee3d
00000100: 21d0 00bc 8d50 eb3d 2b5d 27bc 7af1 ef3d
00000110: 1f9f fa3d 0ba9 ff3d 317a d8bb c134 ff3d
00000120: 13cb ffbb a407 f5bb 1b28 1bbc 9ad2 e6bb
00000130: 0da8 53bc ac1b ec3d e4de 0abc 9f49 68bc
00000140: 2007 5bbc 68ed 12bc daad c4bb 9882 02ba
00000150: 27c0 ea3d 8df9 e83d e9b5 033e 8348 44bc
00000160: aee6 e43d 6f4d f53d cc60 eb3d 7b8b f03d
00000170: 6227 3dbc 7f2a dc3d 28e2 06bc a964 cb3d
00000180: 220d 33bc b0de c9bb 5b45 e93d 4ef4 dd3d
00000190: 18a9 e5bb 7d1c 57bc 43d2 0dbc f447 8ebc
000001a0: 95b0 e53d 2131 40bc 9ce2 28bc 5cff f63d
000001b0: 50e4 c33d 2497 f7bb 09f8 eebb 34fc 21bc
000001c0: 37c0 92bb 0604 f63d b889 debb 55fa ee3d
000001d0: 349c 24bb 6c06 d63d e339 29bc 55f6 01bc
000001e0: 8ffa f13d 0ec2 29bc b732 15bc fa1e fbbb
000001f0: 0ff3 0abc 9e2e f23d 97ed e93d 76ed f3bb

fc2.weight f4 [14, 128]
-0.09470792 -0.14956112 0.020370094 -0.10310152 0.16754806 -0.18171105 0.21481238 0.035971574
0.09572171 -0.0074118474 -0.028643155 0.02782604 -0.15992162 -0.17878152 0.1343308 -0.16622353
-0.099032134 -0.007288059 0.018211639 -0.15858123 -0.12955147 -0.090275526 -0.0050075985 0.20299642
-0.05348334 -0.16201995 -0.09092883 -0.16078123 -0.11641899 0.07446477 -0.00918698 0.07248783
-0.15627556 0.073177315 -0.015632305 -0.17103991 -0.17450859 0.033134133 0.13974363 0.20025186
-0.09203602 -0.031062908 0.078729846 0.18032384 -0.0022074832 -0.14954643 -0.14542337 0.17088197
0.04020164 -0.01141758 -0.06559275 0.10125438 0.18228038 0.16032052 -0.17218563 -0.15333007
-0.14646195 0.07540389 -0.11542952 0.051696725 -0.19343826 -0.17280316 -0.030739952 -0.11540324
0.18198176 -0.18729346 -0.07572677 0.12706666 0.006171472 -0.18624201 -0.10752234 0.16542287
0.10439271 -0.1051095 0.08118116 -0.12766287 0.08831705 0.18202914 0.024320053 0.01004761
0.024985902 0.15323573 0.046529163 -0.138245 -0.03207002 0.13218337 -0.10333954 -0.05300331
-0.14649652 0.13420416 0.11971823 -0.15747981 0.0452301 0.20105703 -0.046083685 0.17009816
-0.12868892 0.15068594 0.004909247 0.0816756 0.048243962 -0.08614379 -0.019829448 0.15707664
0.08782528 0.20580946 0.029190494 0.11848138 -0.19477162 0.048324943 0.10395225 0.20490818
-0.14828554 -0.13369912 0.06208175 -0.06470919 0.091731586 -0.14419386 -0.032188408 0.016214252
0.08896792 0.12732598 -0.12124924 -0.056959543 0.15502341 -0.04526819 0.15662281 0.19921811
-0.17182584 -0.07733379 -0.09292234 0.06676182 0.15255813 -0.027275495 -0.17410035 -0.031710252
-0.031488143 0.0391965 -0.16525266 0.1178412 -0.18549107 0.20219679 0.119293556 0.058571585
-0.033238757 -0.044503924 0.108527675 -0.14982834 0.0016253984 -0.10459049 0.1159259 0.09692679
0.19238372 -0.07018129 -0.100581504 0.092046715 0.0853196 0.16296335 -0.0925204 0.16873242
0.04483303 -0.17789112 0.13695002 0.096308365 -0.17495972 0.15355347 -0.10025909 0.074351616
0.027483264 0.20767574 0.1905 -0.14811578 0.10535381 -0.12011231 -0.17112324 0.18265812
-0.14987805 0.15262601 0.08510715 -0.16983575 -0.14390597 0.04955387 0.030347584 0.18929063
0.020978777 -0.010122738 0.12066433 0.1784361 -0.044745207 0.1830226 -0.19352175 0.07017435
-0.04734365 -0.002930873 -0.14931726 0.092433415 0.20261122 -0.0143379 0.07157877 0.029255971
-0.15549582 0.10195058 -0.0967803 -0.17566738 -0.08752683 0.032803625 0.08233257 0.18507151
0.07237926 -0.026247421 -0.046748154 0.0564953 0.05849757 0.119403236 0.14112662 0.03765156
-0.058863673 0.080678225 -0.018586284 0.1975315 0.13916048 -0.15538101 -0.10458187 -0.14839327
0.1073369 -0.044277888 0.016653799 -0.12328025 -0.10584081 -0.085455984 -0.155463 0.22749543
-0.13079947 0.17739421 0.15534265 0.0356771 -0.18171087 -0.0045111543 0.07110069 0.10941476
-0.17327684 0.15118878 -0.11492135 0.1154242 0.07916438 -0.08148472 -0.1419594 -0.010529402
-0.067401916 -0.14850444 0.10133221 0.09741273 -0.036962517 0.20662928 -0.061243396 0.05857453
00000000: 3af6 c1bd 8d26 19be 2fdf a63c e426 d3bd
00000010: b891 2b3e 7612 3abe c7f7 5b3e ee56 133d
00000020: be09 c43d 15df f2bb 0da5 eabc 6ff3 e33c
00000030: 7ec2 23be 8112 37be 038e 093e 8036 2abe
00000040: 5cd1 cabd acd0 eebb 9330 953c 1e63 22be
00000050: 24a9 04be 60e2 b8bd c816 a4bb 4bde 4f3e
00000060: 5911 5bbd 8fe8 25be e538 babd d6a3 24be
00000070: 146d eebd fc80 983d fd84 16bc 8074 943d
00000080: b306 20be fddd 953d 520f 80bc 1625 2fbe
00000090: 61b2 32be a8b7 073d f418 0f3e d30e 4d3e
000000a0: 617d bcbd a477 febc 1d3d a13d d0a6 383e
000000b0: 6cab 10bb b322 19be dde9 14be affb 2e3e
000000c0: 7aaa 243d cd10 3bbc 7e55 86bd 755e cf3d
000000d0: b5a7 3a3e 102b 243e 6e51 30be 8f02 1dbe
000000e0: 1ffa 15be 5b6d 9a3d 5066 ecbd f2bf 533d
000000f0: ae14 46be 50f3 30be 5ad2 fbbc 8958 ecbd
00000100: 6d59 3a3e dbc9 3fbe a316 9bbd c31d 023e
00000110: 0f3a ca3b 3ab6 3ebe ac34 dcbd 9d64 293e
00000120: d8cb d53d a643 d7bd 4f42 a63d 0eba 02be
00000130: 92df b43d d965 3a3e d93a c73c bb9e 243c
00000140: 3caf cc3c d4e9 1c3e 5d95 3e3d 1990 0dbe
00000150: da5b 03bd 145b 073e aea3 d3bd 001a 59bd
00000160: 2f03 16be d16c 093e d52e f53d 6342 21be
00000170: 3343 393d e5e1 4d3e 3fc2 3cbd 362e 2e3e
00000180: 07c7 03be 6a4d 1a3e c0dd a03b 8945 a73d
00000190: 769b 453d 286c b0bd 5e71 a2bc b3d8 203e
000001a0: bedd b33d b7bf 523e e720 ef3c 5ea6 f23d
000001b0: 3672 47be 60f0 453d ebe4 d43d 73d3 513e
000001c0: 2ad8 17be 6ce8 08be 6f49 7e3d 4086 84bd
000001d0: c5dd bb3d 8ea7 13be fed7 03bd c0d3 843c
000001e0: d034 b63d be61 023e 8651 f8bd 694e 69bd
000001f0: 75be 1e3e 236b 39bd bb61 203e d5ff 4b3e
00000200: 1df3 2fbe 2e61 9ebd 114e bebd 6cba 883d
00000210: 3338 1c3e dc70 dfbc 5d47 32be 9ce2 01bd
00000220: b6f9 00bd 828c 203d fe37 29be ba56 f13d
00000230: 5ff1 3dbe ad0c 4f3e 2e50 f43d c2e8 6f3d
00000240: 5d25 08bd bf49 36bd c243 de3d 9a6c 19be
00000250: 520b d53a 8a33 d6bd 8f6a ed3d 8e81 c63d
00000260: 3d00 453e 35bb 8fbd adfd cdbd fd82 bc3d
00000270: 0bbc ae3d dddf 263e 567b bdbd 31c8 2c3e
00000280: d7a2 373d 1729 36be a03c 0c3e 523d c53d
00000290: a428 33be 1f3d 1d3e a354 cdbd a945 983d
000002a0: 9524 e13c f3a8 543e 6f12 433e aaab 17be
000002b0: bdc3 d73d 71fd f5bd ee3a 2fbe bb0a 3b3e
000002c0: a279 19be fe49 1c3e a84c ae3d 6ce9 2dbe
000002d0: 165c 13be 00f9 4a3d 7f9b f83c 67d5 413e
000002e0: afdb ab3c d7d9 25bc dc1e f73d f4b7 363e
000002f0: c046 37bd 476a 3b3e 912a 46be 92b7 8f3d
00000300: 6aeb 41bd e413 40bb a0e6 18be bb4d bd3d
00000310: 5179 4f3e 83e9 6abc e497 923d 38aa ef3c
00000320: 4c3a 1fbe 77cb d03d c034 c6bd 26e2 33be
00000330: 4441 b3bd 185d 063d fa9d a83d 6383 3d3e
00000340: 943b 943d d504 d7bc fe7a 3fbd 9e67 673d
00000350: 269b 6f3d af89 f43d 7f83 103e 8638 1a3d
00000360: 091b 71bd a03a a53d 4342 98bc b345 4a3e
00000370: 1680 0e3e 331c 1fbe 052f d6bd 68f4 17be
00000380: 73d3 db3d bb5c 35bd 8c6d 883c 5b7a fcbd
00000390: 11c3 d8bd 8c03 afbd b131 1fbe 90f4 683e
000003a0: 4cf0 05be d4a6 353e 2512 1f3e 2722 123d
000003b0: 6a12 3abe 4ed2 93bb 3d9d 913d d814 e03d
000003c0: 7c6f 31be 3bd1 1a3e e25b ebbd 8663 ec3d
000003d0: ef20 a23d 76e1 a6bd ce5d 11be 8383 2cbc
000003e0: 040a 8abd 8c11 18be 4387 cf3d 5380 c73d
000003f0: 0266 17bd a096 533e 5bda 7abd d9eb 6f3d

fc2.bias f4 [14]
0.050043244 0.06466748 -0.0030096816 0.016791074 0.04063429 0.016082184 0.04741246 0.024771832
0.02957601 0.089485124 0.105254434 0.036928374 0.06811873 0.038749307
00000000: 25fa 4c3d 6270 843d 143e 45bb 6f8d 893c
00000010: 2470 263d c9be 833c 9133 423d 4cee ca3c
00000020: 6349 f23c fa43 b73d a38f d73d 3542 173d
00000030: d581 8b3d 98b7 1e3d
