Response14/state_dicts/model_state_dict_300e.pth (torch, 467995 bytes, 8 tensors)

conv1.weight f4 [32, 512, 3]
0	0x3e257f21	0.16161777
1	0x3db1362d	0.08652911
2	0x3c96f1b6	0.018425804
3	0x3bfcdde0	0.0077168792
4	0xbb8bc8b4	-0.004265869
5	0xbac5ac8c	-0.001508133
6	0xbe159524	-0.14607674
7	0xbd3e40c5	-0.046448488
8	0x3da1e108	0.079042494
9	0xbeb96dc0	-0.36216545
10	0xbea4ba42	-0.32173353
11	0xbe93b746	-0.28850764
12	0xbd4298cf	-0.04750901
13	0x3d7690bc	0.060196623
14	0x3e21d038	0.15802085
15	0xbe0ee441	-0.1395426
16	0x3be5ac15	0.007009039
17	0x3d769785	0.060203094
18	0x3c080218	0.00830128
19	0xbd347aed	-0.044062544
20	0xbdba9d44	-0.09112027
21	0x3f16ca63	0.5890257
22	0x3f025803	0.50915545
23	0x3ef349e9	0.47517326
24	0x3edd928b	0.43275866
25	0x3ec42ea2	0.38316828
26	0x3ecd3b99	0.40084532
27	0xbe2be96f	-0.16788267
28	0xbe6a891b	-0.22903864
29	0xbe7a18bc	-0.24423498
30	0xbe145c19	-0.14488257
31	0xbe2ecc0b	-0.17070024
32	0xbe2f1393	-0.1709731
33	0x3d8b34a8	0.06797153
34	0x3d884aa5	0.06654862
35	0x3d4460fc	0.047944054
36	0xbe76f940	-0.24118519
37	0xbe2b14a5	-0.16707094
38	0xbdaf73ee	-0.08567034
39	0xbd0c0948	-0.03418854
40	0x3c96b4f4	0.018396832
41	0x3d10cbf9	0.035350773
42	0xbd5db0c8	-0.05412367
43	0xbdc07b92	-0.09398569
44	0xbd980165	-0.07422141
45	0xbeaf8ff6	-0.3428952
46	0xbec1f3ae	-0.37881225
47	0xbec2a803	-0.38018808
48	0xbda13e1e	-0.07873176
49	0xbd8a9c5b	-0.06768104
50	0xbd94a625	-0.07258252
51	0x3d3f63c6	0.04672601
52	0x3e19ce93	0.15020208
53	0x3e79c396	0.24391016
54	0xbdbec079	-0.09314055
55	0xbd5f37d5	-0.054496605
56	0xbdc34957	-0.09535473
57	0xbd9dae20	-0.07699227
58	0xbdc4bcb8	-0.09606308
59	0xbe167d2f	-0.14696191
60	0x3eaef389	0.34170178
61	0x3edac0ff	0.4272537
62	0x3ee8d217	0.45472786
63	0xbe831efe	-0.25609583
64	0xbea8d7ec	-0.32977235
65	0xbec2e941	-0.38068584
66	0x3d30d72d	0.043173958
67	0x3dad5383	0.08463194
68	0x3e3f1381	0.18659784
69	0xbe13fad5	-0.14451154
70	0xbdf8624f	-0.12128126
71	0xbd463d79	-0.04839847
72	0xbe0ad298	-0.13556898
73	0xbe3e9045	-0.18609722
74	0xbe4aa0b9	-0.19787873
75	0x3e37a32c	0.17933339
76	0x3e6197f7	0.22030626
77	0x3e332a47	0.17496596
78	0x3e328888	0.17434895
79	0x3e669a7b	0.22519867
80	0x3e60b003	0.21942143
81	0x3e6ef01c	0.23333782
82	0x3e6fef2d	0.23431082
83	0x3df6788f	0.120347135
84	0x3e2fc5e2	0.1716533
85	0x3ea151c3	0.31507692
86	0x3ef2eee9	0.474479
87	0x3de75abb	0.11296602
88	0x3e0c0b5f	0.13676213
89	0x3d938b2f	0.072042815
90	0xbe806d29	-0.25083283
91	0xbe98491e	-0.29743284
92	0xbea09bca	-0.31368858
93	0xbd38f8de	-0.045159213
94	0x3d2f7a4e	0.04284125
95	0x3d36bd65	0.044614214
96	0x3dce8d3c	0.10085532
97	0x3e18b3d9	0.14912356
98	0x3e00baf9	0.12571324
99	0x3ebb76e6	0.3661415
100	0x3ed86332	0.4226318
101	0x3eea098c	0.4571041
102	0xbce30603	-0.027712828
103	0xbd5f60d5	-0.054535706
104	0xbc6b8cce	-0.014376832
105	0x3eccec4c	0.4002403
106	0x3e8160be	0.2526912
107	0xbc619eae	-0.013770742
108	0x3f099e86	0.5375751
109	0x3f02eaad	0.51139337
110	0x3f067d99	0.52535397
111	0xbddddae2	-0.10832764
112	0xbe002ad8	-0.12516344
113	0xbe2aa0e9	-0.16662945
114	0xbd173521	-0.036915902
115	0xbd9eb56a	-0.07749446
116	0xbdf18782	-0.11793424
117	0xbe29ab59	-0.1656927
118	0xbded6e59	-0.11593313
119	0xbe002669	-0.12514652
120	0xbec1de9a	-0.37865144
121	0xbe662fc3	-0.22479157
122	0xbe130e37	-0.14360891
123	0x3e8dbabf	0.27681538
124	0x3e428f78	0.19000041
125	0x3de0f5ce	0.109843835
126	0xbcadb353	-0.021203673
127	0xbd31a413	-0.043369364
128	0xbd2ac8ec	-0.04169552
129	0xbe8b3320	-0.27187443
130	0xbe6ace35	-0.22930224
131	0xbe01a46c	-0.12660378
132	0xbe1b0265	-0.15137632
133	0xbd32f4c5	-0.04369046
134	0xbc3689e2	-0.011141272
135	0xbe062242	-0.13099006
136	0xbe31443e	-0.17311189
137	0xbdb70027	-0.08935576
138	0xbbd226c6	-0.0064133136
139	0xbdad4ebb	-0.08462282
140	0xbe39ead5	-0.18155988
141	0xbe2ab8ee	-0.16672108
142	0xbe30ade4	-0.17253834
143	0xbe504341	-0.20338155
144	0xbeede99e	-0.46467298
145	0xbee1b4de	-0.44083303
146	0xbec354f5	-0.38150755
147	0xbdd70203	-0.104984306
148	0xbda1da99	-0.07903022
149	0xbdd500b0	-0.10400522
150	0xbd1351a9	-0.03596655
151	0x3da2ba84	0.07945731
152	0x3e14d1f5	0.14533217
153	0xbea8c486	-0.32962435
154	0xbec1127e	-0.3770942
155	0xbee3957d	-0.44449988
156	0x3eac3162	0.33631426
157	0x3e830632	0.25590664
158	0x3e750f37	0.23931585
159	0x3d78d872	0.060753293
160	0x3d224241	0.039613966
161	0xbce159b3	-0.027508592
162	0x3c44ff40	0.012023747
163	0xbd8ed284	-0.069737464
164	0xbe031709	-0.12801756
165	0x3d51256c	0.05106108
166	0x3dda007a	0.10644622
167	0x3e100b89	0.140669
168	0x3f037ccd	0.51362306
169	0x3ef9a6d1	0.48760083
170	0x3f0b4ae7	0.54411167
171	0x3cfcfb98	0.030881688
172	0x3dfb040a	0.1225663
173	0x3e263910	0.16232705
174	0x3e772ade	0.24137446
175	0x3e5ffb9b	0.21873324
176	0x3e4dc626	0.20095119
177	0xbe70211e	-0.23450133
178	0xbe463f0a	-0.19359985
179	0xbe2542f7	-0.16138826
180	0xbeb52068	-0.35376287
181	0xbec54c31	-0.38534692
182	0xbecf2641	-0.40458873
183	0x3ed49d22	0.41526133
184	0x3ed502a7	0.41603586
185	0x3ed9891f	0.42487428
186	0x3ea04419	0.31301954
187	0x3e9ea91f	0.30988404
188	0x3e9d6b00	0.30745697
189	0x3dd9fe23	0.10644176
190	0x3c9d6c67	0.01921673
191	0xbd65d015	-0.056106646
192	0xbe1c271a	-0.15249291
193	0xbe00dd3c	-0.12584394
194	0xbe2302e9	-0.15919079
195	0x3cdce33f	0.026963828
196	0xbcae498a	-0.0212753
197	0xbddd132b	-0.107946716
198	0x3ddd87e5	0.108169354
199	0x3e7b863f	0.2456293
200	0x3e9920ac	0.2990774
201	0xbd97d4cb	-0.07413634
202	0xbdaab873	-0.08335962
203	0xbe0cb1ff	-0.13739775
204	0x3d83c7b2	0.06434573
205	0xbd0fbbf4	-0.035091355
206	0xbe22f2b7	-0.15912901
207	0x3e701281	0.23444559
208	0x3e54df2d	0.2078826
209	0x3e522191	0.20520617
210	0xbe7d2e3a	-0.24724665
211	0xbe90b12b	-0.28260168
212	0xbe9e0e88	-0.3087046
213	0x3e50d1b9	0.20392503
214	0x3e5b3ec2	0.21410659
215	0x3e5a7fb7	0.21337782
216	0x3e8cea1f	0.2752237
217	0x3e59c205	0.21265419
218	0x3e3fa7ee	0.18716404
219	0xbe70b5a0	-0.23506784
220	0xbe7ceca1	-0.24699642
221	0xbe8fcdb7	-0.28086635
222	0x3d8ecd7e	0.06972788
223	0x3db3cd24	0.08779362
224	0x3e1008be	0.14065835
225	0x3ec3cd24	0.38242447
226	0x3e9cbb71	0.30611756
227	0x3e8ac342	0.27102095
228	0xbe132197	-0.14368282
229	0xbe6d7d38	-0.23192298
230	0xbeae1ff7	-0.34008762
231	0x3e1bb25b	0.15204756
232	0x3e1e11a1	0.15436412
233	0x3dd93947	0.10606628
234	0xbe85713c	-0.26062953
235	0xbea528f9	-0.32257822
236	0xbea9953f	-0.33121678
237	0xbe4fbd70	-0.20287108
238	0xbe055548	-0.13020813
239	0xbdc65aa2	-0.096852556
240	0xbf3312e4	-0.699507
241	0xbf1e3239	-0.61795384
242	0xbf01a21c	-0.50637984
243	0x3ea5d385	0.3238794
244	0x3edbe8cc	0.42951047
245	0x3ef1a5ba	0.47196752
246	0xbe3450a2	-0.17608884
247	0xbdc977c8	-0.098372996
248	0xbd5b6566	-0.053563498
249	0xbe6ce8d8	-0.23135698
250	0xbe233af1	-0.15940453
251	0xbe07a144	-0.13245112
252	0x3d95efb8	0.07321113
253	0xbce480d5	-0.027893463
254	0xbdbeada4	-0.09310463
255	0xbdae6c43	-0.08516743

conv1.bias f4 [32]
0	0xbecf7d44	-0.40525258
1	0xbe717333	-0.23579101
2	0xbf121b5a	-0.57072985
3	0xbe9766d3	-0.29570636
4	0xbe074c6e	-0.1321275
5	0xbe45dd59	-0.19322719
6	0xbd920f90	-0.071318746
7	0xbec23aa5	-0.37935367
8	0xbe7aeaf6	-0.24503693
9	0xbeb25e9c	-0.34837806
10	0xbf018562	-0.5059415
11	0xbe816bb0	-0.25277472
12	0xbd16f459	-0.03685412
13	0xbdfa02a2	-0.122075334
14	0xbe259a22	-0.16172078
15	0xbe4bc9bd	-0.19901176
16	0xbe1e2195	-0.15442498
17	0x3d91f80e	0.07127391
18	0xbea45359	-0.3209484
19	0x3e36d3e2	0.17854264
20	0xbe5fd601	-0.2185898
21	0xbe628454	-0.22120792
22	0xbe93a9db	-0.28840527
23	0xbe95d0b6	-0.29260796
24	0xbe6453ad	-0.22297545
25	0xbe3b1484	-0.18269545
26	0xbcb755c8	-0.02237977
27	0xbe81dabd	-0.25362197
28	0xbe418ca1	-0.18901302
29	0xbd2ee632	-0.0427
30	0x3e3e92dd	0.18610711
31	0xbe15a7d6	-0.14614806

conv2.weight f4 [512, 32, 3]
0	0x3e0e0262	0.13868096
1	0x3e942619	0.28935316
2	0x3ecc578b	0.3991054
3	0x3f1c72e6	0.6111282
4	0x3f458c27	0.7716698
5	0x3f300bc5	0.6876796
6	0x3dd162fc	0.10223958
7	0x3e3a4dcc	0.1819374
8	0x3d0094e1	0.031391982
9	0x3e36ec9e	0.178637
10	0x3e5a6e6a	0.21331182
11	0x3e927fed	0.28613225
12	0xbd2d92f2	-0.042376466
13	0x3c54112d	0.012943548
14	0x3b550239	0.0032502546
15	0x3e38bd40	0.18040943
16	0x3e235929	0.1595198
17	0x3e677cf0	0.22606254
18	0x3ebd2d03	0.36948404
19	0x3e84ac2b	0.25912604
20	0x3e327008	0.17425549
21	0x3dab765c	0.08372185
22	0x3e398e69	0.18120731
23	0x3e35bd20	0.17747927
24	0x3e3a0ba4	0.18168503
25	0x3e90e8f4	0.2830273
26	0x3e377b53	0.17918138
27	0x3e883ccc	0.26608884
28	0x3eceb5a6	0.40372962
29	0x3eb8aa07	0.3606722
30	0x3e40f8e5	0.18844946
31	0x3e282a77	0.16422449
32	0x3e1235df	0.14278363
33	0x3e40afa3	0.18817
34	0x3e898ff6	0.26867646
35	0x3e86f8c0	0.26361656
36	0xbdb42cef	-0.08797633
37	0x3e11aa2f	0.14225076
38	0x3e57bada	0.21067372
39	0x3e8fdc36	0.28097695
40	0x3e868250	0.26271296
41	0x3e4695b6	0.19393048
42	0x3eb59b7a	0.35470182
43	0x3eb9ed59	0.36313894
44	0x3f11ddfe	0.5697936
45	0x3ea1d1e1	0.31605437
46	0x3ecddea4	0.40208924
47	0x3ee78b4b	0.4522346
48	0x3f0b523a	0.5442234
49	0x3ee8567f	0.4537849
50	0x3f1a0872	0.60169137
51	0x3d8a48c9	0.06752164
52	0x3e10ab9d	0.14127965
53	0x3e13ed39	0.14445962
54	0x3e314342	0.17310813
55	0x3e846d34	0.25864565
56	0x3e23a8bc	0.15982336
57	0x3e1c1105	0.15240867
58	0x3d96587a	0.07341094
59	0x388990ec	6.559663e-05
60	0x3e8cc1e9	0.27491692
61	0x3e8bce2a	0.27305728
62	0x3e08faaa	0.13376871
63	0x3e512d31	0.20427395
64	0x3e4514dc	0.19246238
65	0x3dd6e0ed	0.1049212
66	0x3c016d4f	0.007899596
67	0x3d9e37cd	0.07725487
68	0x3d9ead6d	0.07747922
69	0x3ddcd2ae	0.107823715
70	0x3d5d8671	0.05408329
71	0x3d7583f0	0.05994028
72	0x3e044a13	0.12918882
73	0x3e810040	0.25195503
74	0x3e4b3fd4	0.19848567
75	0x3ed488a7	0.41510507
76	0x3ede8d4c	0.43467176
77	0x3ed2c271	0.41163972
78	0x3e13eb4b	0.14445226
79	0x3e823f0b	0.25438723
80	0x3e6db85d	0.2321486
81	0x3e9da573	0.3079029
82	0x3eb7c2e2	0.3589087
83	0x3f067a12	0.52530015
84	0x3eaf6471	0.34256318
85	0x3e9414b7	0.28922054
86	0x3ef72efa	0.48278028
87	0x3e63c9c8	0.22244942
88	0x3de185c5	0.11011843
89	0x3dbcb3fe	0.09214018
90	0x3e6d322a	0.23163667
91	0x3eb3b172	0.35096318
92	0x3e7e98c9	0.2486297
93	0x3e2b6f7a	0.16741744
94	0x3eabda80	0.3356514
95	0x3eccd082	0.4000283
96	0x3bb17202	0.005415202
97	0xbd1307c3	-0.035896074
98	0x3e276a6c	0.1634919
99	0x3e105b1c	0.14097255
100	0x3e695234	0.22785264
101	0x3df61311	0.120153554
102	0x3d9220fe	0.07135199
103	0x3e03b64a	0.12862507
104	0x3d2aead5	0.04172786
105	0x3e66d2e8	0.22541392
106	0x3e932c71	0.28744844
107	0x3e552242	0.2081385
108	0x3eb9445b	0.36184964
109	0x3e969a2f	0.29414508
110	0x3e9141f5	0.28370634
111	0x3e28e2df	0.16492794
112	0x3e2fd5a7	0.17171346
113	0x3e07e293	0.13270025
114	0x3e2d0f14	0.16900283
115	0x3e2d5133	0.16925506
116	0x3e8f047c	0.2793311
117	0x3e44a39d	0.19203039
118	0x3e3df71e	0.18551299
119	0x3e85d23e	0.26136965
120	0x3e176a6c	0.1478669
121	0x3cdf205c	0.02723711
122	0x3e23fc69	0.16014256
123	0x3e84620d	0.25856057
124	0x3e8f360d	0.27970925
125	0x3e9238e1	0.2855902
126	0x3df71297	0.120640926
127	0x3d894929	0.06703407
128	0x3e0c4914	0.13699752
129	0x3d783965	0.06060161
130	0x3e7a969a	0.24471512
131	0x3e85e5d0	0.26151896
132	0x3e070d9a	0.13188782
133	0x3e4e4909	0.20145048
134	0x3e40209d	0.18762441
135	0x3d62fc45	0.055416364
136	0x3e07253f	0.13197802
137	0x3e49f2e1	0.19721557
138	0x3e84340d	0.25820962
139	0x3dd7e487	0.10541635
140	0x3dbb4d9a	0.09145661
141	0x3e29f4af	0.16597246
142	0x3e957c44	0.2919637
143	0x3df581d6	0.11987655
144	0x3ea7eed1	0.3279939
145	0x3ec6a6e5	0.38799205
146	0x3e9888f0	0.29791975
147	0x3efcef04	0.49401104
148	0x3e897833	0.26849517
149	0x3e869451	0.2628503
150	0xbd62693d	-0.055276144
151	0x3e01ee3b	0.12688534
152	0x3dded0b7	0.10879653
153	0x3e683b8b	0.22678964
154	0x3e9b91b0	0.30384588
155	0x3ebb5570	0.3658862
156	0x3e0e6fb4	0.13909799
157	0x3e72fbd6	0.2372888
158	0x3e868c64	0.26278985
159	0x3e1d8018	0.15380895
160	0x3e7c1ac1	0.24619581
161	0x3e8c2dcc	0.2737869
162	0x3e06078e	0.1308882
163	0x3e7cb956	0.24680075
164	0x3d8e0aca	0.069356516
165	0x3e3c3584	0.1837979
166	0x3e93b0fc	0.28845966
167	0x3dadbaba	0.08482881
168	0x3e9fe1cc	0.31226957
169	0x3e531726	0.20614299
170	0x3e994cfa	0.2994154
171	0x3e3aaf52	0.18230942
172	0x3e75fb22	0.24021581
173	0x3e818a68	0.25300908
174	0x3e9ae7fe	0.3025512
175	0x3e37204d	0.17883416
176	0xbb653197	-0.0034972185
177	0x3e80c58a	0.2515071
178	0x3e31f946	0.17380247
179	0x3e290369	0.16505207
180	0x3e3b1a0d	0.18271656
181	0x3e4d3ca1	0.2004266
182	0x3ea2c532	0.31791073
183	0x3f083234	0.53201604
184	0x3efeeca1	0.4978991
185	0x3ed15050	0.40881586
186	0x3e65a080	0.22424507
187	0x3e362571	0.1778772
188	0x3e649e3d	0.22325988
189	0x3cdcf11e	0.026970442
190	0x3e1135f9	0.14180745
191	0x3d4ad29f	0.04951727
192	0x3ecbde54	0.3981806
193	0x3f024052	0.50879395
194	0x3f09f496	0.53888834
195	0x3eccc47e	0.39993662
196	0x3ecd3546	0.40079707
197	0x3edd764a	0.4325431
198	0x3e25b182	0.16180995
199	0x3df9a461	0.12189556
200	0x3d9f30cc	0.07772979
201	0x3e974183	0.2954217
202	0x3ea66540	0.32499123
203	0x3e324d42	0.17412284
204	0x3e99bfdd	0.30029193
205	0x3e78fe3d	0.24315734
206	0x3e88739d	0.26650706
207	0x3e29260a	0.16518417
208	0x3e07de82	0.13268474
209	0x3e3bc680	0.1833744
210	0x3eb86700	0.36016083
211	0x3e6c233f	0.2306032
212	0x3e945b51	0.2897592
213	0x3e4d1d29	0.20030655
214	0x3e19a71d	0.15005155
215	0x3e26e21c	0.16297191
216	0x3eade5e5	0.33964458
217	0x3edf2ddd	0.43589678
218	0x3f035ce2	0.513136
219	0x3e8c2f22	0.2737971
220	0x3def1999	0.11674804
221	0x3e012ac6	0.12613973
222	0x3dee76ec	0.11643776
223	0x3e02a4ad	0.12758131
224	0x3d02254b	0.031773847
225	0x3e79aaa1	0.24381496
226	0x3df8c52b	0.12146982
227	0x3e78d3a5	0.24299486
228	0x3ea2fc6a	0.31833202
229	0x3e303633	0.17208175
230	0x3e9181da	0.2841938
231	0x3df02805	0.11726383
232	0x3da22b4e	0.07918416
233	0x3ea92dc6	0.33042735
234	0x3ea3ec2f	0.3201613
235	0x3ed67b8f	0.41891143
236	0x3e942847	0.2893698
237	0x3e64d343	0.22346215
238	0x3e8682a4	0.26271546
239	0x3e5adc5f	0.21373127
240	0x3ed7c67d	0.42143622
241	0x3e96e9b9	0.2947519
242	0x3dbecd12	0.09316458
243	0x3ea8eea6	0.32994574
244	0x3eb6bcac	0.3569082
245	0x3ed3e155	0.41382852
246	0x3d88327d	0.06650255
247	0x3d6df550	0.058095276
248	0xbd732443	-0.059360754
249	0x3e8aee60	0.2713499
250	0x3ee6aebd	0.4505519
251	0x3e9b212e	0.30298752
252	0x3eeb10a6	0.4591114
253	0x3ecfdbe8	0.40597463
254	0x3dc6ab6d	0.097006656
255	0x3e6a7328	0.22895491

conv2.bias f4 [512]
0	0x3eb1bbc3	0.34713563
1	0x3e9a911e	0.3018884
2	0x3ea68693	0.32524547
3	0x3e820da1	0.25401023
4	0x3e387539	0.18013467
5	0x3eaee6ea	0.34160548
6	0x3ebbafbe	0.36657518
7	0x3ea1e542	0.31620222
8	0x3e85d7aa	0.261411
9	0x3ea978f3	0.3310009
10	0x3ec0cf51	0.3765817
11	0x3eaf9382	0.34292227
12	0x3e97746d	0.29581013
13	0x3e530449	0.20607103
14	0x3e68dacf	0.22739719
15	0x3e9e559e	0.30924696
16	0x3e829146	0.2550146
17	0x3e047a43	0.12937264
18	0x3e910be9	0.283294
19	0x3e9a0eaf	0.30089328
20	0x3e8ecc26	0.27890128
21	0x3e2ff3c6	0.17182836
22	0x3e7bf097	0.24603496
23	0xbe8ebf1a	-0.27880174
24	0x3eb88aa1	0.36043265
25	0x3e00de26	0.12584743
26	0x3e9b28ca	0.30304557
27	0x3e81323c	0.25233638
28	0x3e424482	0.18971446
29	0x3e8d88a4	0.2764331
30	0x3e68947c	0.22712892
31	0x3e0f382c	0.13986272
32	0x3e8487e4	0.25884926
33	0x3e5f8324	0.2182737
34	0x3e97c2ca	0.296408
35	0x3e01f9df	0.12692975
36	0x3ecb849e	0.39749616
37	0x3eaf1a7d	0.34199896
38	0x3e99b739	0.300226
39	0x3e3e9719	0.18612327
40	0x3ea70ead	0.32628384
41	0x3e2ebc48	0.17064011
42	0x3e89f19a	0.2694214
43	0x3e63d2a5	0.22248323
44	0x3eafdf17	0.34349892
45	0x3e03ba13	0.1286395
46	0x3e3edaa1	0.18638088
47	0x3e8e5f01	0.27806857
48	0x3e5e1a59	0.21689738
49	0x3e0f224e	0.1397793
50	0x3eb1aa11	0.34700063
51	0x3ec61ae3	0.38692388
52	0x3e7b69c5	0.24552067
53	0x3eb027b4	0.3440529
54	0x3eb5d9ed	0.35517827
55	0x3eb1c2d9	0.3471897
56	0x3e0d567f	0.13802527
57	0x3e5199d2	0.20468834
58	0x3eae5cd9	0.34055212
59	0x3e900f77	0.281368
60	0x3e906bd6	0.28207272
61	0x3ec0b8ca	0.37640983
62	0x3e480b5c	0.19535583
63	0x3e6e2dc3	0.23259644
64	0x3eb8992a	0.36054355
65	0xbdd4341d	-0.10361502
66	0x3eee4860	0.46539593
67	0x3e56273d	0.20913406
68	0x3e8e4d16	0.27793187
69	0x3e89482f	0.26812884
70	0x3e1ced7d	0.1532497
71	0x3eab4825	0.3345348
72	0x3ec267d7	0.3796985
73	0x3e789fc6	0.24279699
74	0x3ed2f1c3	0.41200075
75	0x3e36314b	0.17792241
76	0x3e213e18	0.15746343
77	0x3eb9a454	0.36258185
78	0x3e9c101a	0.30481035
79	0x3e8ada3d	0.27119628
80	0x3ec3822e	0.38185257
81	0x3e6f4c89	0.2336904
82	0x3e822590	0.25419283
83	0x3e9e56f9	0.3092573
84	0x3e46f50a	0.19429412
85	0x3e5476e5	0.2074848
86	0x3e7806b4	0.24221307
87	0x3ea0ceac	0.31407678
88	0x3e1893b4	0.14900094
89	0x3e7afd54	0.245107
90	0x3e34714e	0.17621347
91	0xbd035657	-0.032064762
92	0x3e852190	0.2600217
93	0xbdc7c33d	-0.097540356
94	0x3e1e09b7	0.15433393
95	0x3edbb605	0.42912307
96	0x3ec9b28f	0.39394042
97	0x3e51a066	0.20471343
98	0x3ea73082	0.32654196
99	0xbc2fe91c	-0.01073673
100	0x3eabacde	0.33530325
101	0x3e04e53e	0.12978074
102	0x3e96100e	0.29309124
103	0x3ea5fb96	0.32418507
104	0x3e92ca2b	0.28669867
105	0x3e33e10e	0.1756632
106	0x3e883b62	0.26607805
107	0x3e381d73	0.17979984
108	0x3ec50732	0.38482052
109	0x3e53d546	0.20686826
110	0x3e56d3d8	0.2097925
111	0x3e9cf990	0.3065915
112	0x3ea09232	0.31361538
113	0x3ebf4992	0.37360817
114	0x3eb85ca6	0.36008185
115	0xbe46b265	-0.1940399
116	0x3e9ffbf6	0.31246918
117	0x3e9ae926	0.30256003
118	0x3ebbdf04	0.36693585
119	0x3eaa8740	0.33306313
120	0x3e2a3af7	0.16624056
121	0x3e480f65	0.19537123
122	0x3eab51a4	0.33460724
123	0x3e669867	0.22519074
124	0x3ed5f33d	0.4178714
125	0x3e84cb01	0.2593613
126	0x3e6c3782	0.2306805
127	0x3ed8d91c	0.4235314
128	0x3e6bdbc0	0.23033047
129	0x3ec6cea6	0.38829535
130	0x3e6a6ca6	0.22893009
131	0x3e858570	0.26078367
132	0x3e7b6562	0.24550393
133	0x3e8558c0	0.26044273
134	0x3ec240d9	0.379401
135	0x3e686db9	0.22698106
136	0x3e1d987e	0.15390202
137	0x3eaf06cb	0.3418487
138	0x3e9fabf3	0.31185874
139	0x3e92fb4b	0.28707346
140	0x3e4252de	0.18976924
141	0x3e41f6b6	0.18941769
142	0x3e98b171	0.29822877
143	0x3ec57047	0.38562223
144	0x3ea148c3	0.31500825
145	0x3e1863a0	0.14881754
146	0x3eafea2b	0.34358343
147	0x3e8d8d28	0.27646756
148	0x3ea61a29	0.32441834
149	0x3ebcc8e9	0.36872032
150	0x3eadca26	0.3394329
151	0x3e89cf92	0.26916176
152	0x3e26fece	0.16308138
153	0x3e86ea79	0.26350763
154	0x3e737df2	0.23778513
155	0x3e205013	0.15655546
156	0x3e4c9938	0.19980323
157	0x3e981be7	0.29708788
158	0x3deef2f0	0.116674304
159	0x3e9d7e27	0.3076031
160	0x3e2f295d	0.17105623
161	0x3ecb3007	0.3968508
162	0x3e2bf5de	0.1679301
163	0x3e4974de	0.19673488
164	0x3ec5dc3a	0.38644582
165	0x3e864586	0.26224917
166	0x3eb1d879	0.34735468
167	0x3ec2c436	0.38040322
168	0x3eac74b4	0.33682787
169	0x3e7ce88c	0.24698085
170	0x3eaedf9d	0.34154978
171	0x3ea7bdb5	0.32761922
172	0x3e944d12	0.2896505
173	0x3e708761	0.23489143
174	0x3e7cd14e	0.24689218
175	0x3e3dbb69	0.18528523
176	0x3e9c5ef3	0.3054119
177	0x3e30936d	0.17243738
178	0x3ec63314	0.38710845
179	0x3e934534	0.28763735
180	0x3e1e5f47	0.15466033
181	0x3e70c39e	0.23512122
182	0x3e94118d	0.2891964
183	0x3e5f524d	0.21808739
184	0x3e30f339	0.17280282
185	0x3e079a35	0.13242419
186	0x3e7c3cb9	0.24632539
187	0x3ead4008	0.33837914
188	0x3e9b5bb8	0.30343413
189	0x3ec2aa10	0.38020372
190	0xbe089e59	-0.13341655
191	0x3ea884d7	0.3291385
192	0x3eaf0969	0.34186867
193	0x3eb9cdcf	0.36289832
194	0x3e831f70	0.25609922
195	0x3e58d58e	0.21175215
196	0x3e8433bc	0.2582072
197	0x3e9fdc7b	0.312229
198	0x3df64d32	0.120264426
199	0x3ebd3faf	0.3696265
200	0x3eb45643	0.35222062
201	0x3e517db0	0.20458102
202	0x3e6be8bd	0.23038001
203	0xbd9ed881	-0.077561386
204	0x3e10aa34	0.14127427
205	0x3ea9db08	0.3317492
206	0x3e9e5553	0.30924472
207	0x3e758f8c	0.2398054
208	0x3e707d4e	0.234853
209	0x3eaf716e	0.34266227
210	0x3eaf1def	0.34202525
211	0x3e883f60	0.2661085
212	0x3e649ae4	0.22324711
213	0x3e0c7bfd	0.13719173
214	0x3e97d82a	0.29657108
215	0x3e23a032	0.15979078
216	0x3e794b52	0.24345139
217	0x3e3752dd	0.17902704
218	0x3e85c96d	0.26130238
219	0x3e32ab24	0.17448097
220	0x3eb1fbf0	0.34762526
221	0x3e7ccea4	0.24688202
222	0x3edde98e	0.4334225
223	0x3e8a8169	0.27051857
224	0x3e931e0c	0.2873386
225	0x3e6602d5	0.22462018
226	0x3eb271f2	0.34852558
227	0x3e5d752c	0.21626729
228	0x3e9e6856	0.30938977
229	0x3ed15168	0.4088242
230	0x3e89c003	0.26904306
231	0x3e315a38	0.17319572
232	0x3e40d98a	0.18832985
233	0x3e861e5b	0.26195034
234	0x3e9f7de5	0.31150737
235	0x3e67c605	0.22634132
236	0x3eb72e17	0.3577735
237	0x3e6c7aed	0.23093767
238	0x3e29953e	0.16560838
239	0x3e2297e8	0.1587826
240	0x3e2c4303	0.16822438
241	0x3e848897	0.2588546
242	0x3e67990c	0.22616976
243	0x3e102042	0.14074805
244	0x3e864809	0.26226833
245	0x3e970959	0.2949932
246	0xbe08e752	-0.13369492
247	0x3eaf8b39	0.34285906
248	0x3e5362d0	0.20643163
249	0x3eca3dab	0.39500174
250	0x3eae19f6	0.34004182
251	0x3e8381bc	0.25684917
252	0x3e210bfb	0.15727226
253	0x3e988f3a	0.29796773
254	0x3e301231	0.1719444
255	0x3e24ff9f	0.16113137

fc1.weight f4 [256, 53]
0	0x3e7be7d8	0.2460016
1	0xbea0f212	-0.31434685
2	0xbec7a36d	-0.3899187
3	0xbec314ac	-0.3810171
4	0xbeb069b3	-0.34455642
5	0x3ddaf2a7	0.106908135
6	0xbe70856b	-0.23488395
7	0x3df561fd	0.119815804
8	0x3e6ccbf2	0.23124674
9	0x3e132cec	0.14372605
10	0xbde4f814	-0.1118013
11	0xbe97cc33	-0.2964798
12	0x3e2373be	0.15962121
13	0xbe741133	-0.23834686
14	0xbe4c8866	-0.19973907
15	0xbcceac1a	-0.025228549
16	0xbd244f37	-0.040114608
17	0xbdeb8794	-0.11500469
18	0xbe3409ec	-0.1758191
19	0xbd54790d	-0.051873256
20	0x3dd5c1d4	0.104373604
21	0xbebab1bc	-0.36463726
22	0xbd562627	-0.05228248
23	0x3e802961	0.2503157
24	0xbe903caf	-0.28171298
25	0xbe1e1d77	-0.15440927
26	0x3dd13b88	0.10216433
27	0xbe672231	-0.22571637
28	0xbdd52110	-0.10406697
29	0xbe9e11e0	-0.30873013
30	0xbc0a5fa0	-0.00844565
31	0xbe97eed4	-0.296744
32	0xbeaea8b4	-0.34113085
33	0xbdea9591	-0.11454309
34	0x3e8bfadd	0.2733983
35	0x3e1dfcef	0.15428518
36	0xbded2510	-0.11579335
37	0xbe2ac644	-0.16677195
38	0xbe7429de	-0.23844096
39	0x3e882766	0.2659256
40	0x3e2e6256	0.170297
41	0xbe187827	-0.14889584
42	0xbebb865c	-0.36625946
43	0xbeb1a5b9	-0.3469675
44	0x3d322289	0.043489967
45	0x3d0b2697	0.03397235
46	0x3d8e3230	0.06943166
47	0xbe07269e	-0.13198325
48	0x3e62b9d1	0.22141196
49	0x3e90c3e8	0.28274465
50	0x3e636bc8	0.22209084
51	0x3ce84172	0.02835152
52	0x3da1f7e5	0.0790861
53	0x3c0f31cc	0.0087399
54	0xbe3d6098	-0.18493879
55	0xbc86a59f	-0.016436396
56	0x3e44ef2d	0.19231863
57	0x3ccefa33	0.025265789
58	0x3e9a0291	0.30080083
59	0x3c648547	0.013947791
60	0x3e831019	0.2559822
61	0xbe9b7417	-0.30362007
62	0x3b087a0f	0.0020824706
63	0xbe3ee4d3	-0.18641977
64	0xbe5a2c5d	-0.21305986
65	0x3d2396c3	0.0399387
66	0xbe7313bb	-0.23737995
67	0xbe8b604e	-0.27221912
68	0x3d098a5f	0.033579227
69	0xbed9d822	-0.4254771
70	0xbd882a07	-0.06648641
71	0x3da36e46	0.07980017
72	0x3d325dfa	0.043546654
73	0xbd0ac551	-0.03387958
74	0xbdf21a76	-0.11821453
75	0x3e4f0546	0.20216855
76	0xbe5738e4	-0.21017796
77	0xbdfecc61	-0.12441326
78	0xbe030319	-0.1279415
79	0x3e750331	0.23926999
80	0x3ced05b5	0.028933385
81	0xbdd4aeee	-0.10384928
82	0xbeadf0a4	-0.33972657
83	0x3cd87d48	0.026426926
84	0xbcd3b4db	-0.025843075
85	0xbb1cdd67	-0.0023935677
86	0x3e0cfc93	0.13768224
87	0x3b00018e	0.0019532177
88	0x3c644cf1	0.01393436
89	0x3d8cb6b5	0.06870786
90	0xbe937a00	-0.28804016
91	0xbe73d204	-0.23810583
92	0xbeb02f1f	-0.3441095
93	0xbeb92cb7	-0.36166927
94	0xbe96dd0d	-0.29465523
95	0xbeb4692b	-0.35236487
96	0xbeb61c74	-0.35568583
97	0xbea65124	-0.3248378
98	0xbd291aaf	-0.041285213
99	0x3df53006	0.1197205
100	0x3e775e0b	0.24156968
101	0x3e12f930	0.1435287
102	0x3d65bfaf	0.056091007
103	0x3e2f1017	0.17095982
104	0xbe434aee	-0.19071552
105	0xbe221fd9	-0.15832461
106	0xbe110cba	-0.14165011
107	0xbed3d6e9	-0.413749
108	0xbe30777a	-0.17233077
109	0xbd1ef70c	-0.03880982
110	0xbdf60d7a	-0.12014289
111	0xbeb0ce7c	-0.34532535
112	0x3e34d0e6	0.17657813
113	0x3db40843	0.08790638
114	0xbda8345b	-0.08213111
115	0xbe341482	-0.17585948
116	0x3e47dfc2	0.1951895
117	0xbec69274	-0.3878361
118	0x3e221a95	0.15830453
119	0x3d1a3dbd	0.037656534
120	0xbed73d91	-0.4203916
121	0xbee82e22	-0.45347697
122	0x3dc8cbcb	0.098044954
123	0xbebbee52	-0.3670526
124	0xbedc77e9	-0.43060234
125	0xbeb12122	-0.3459559
126	0x3d751746	0.05983665
127	0xbec00ae8	-0.3750832
128	0xbe9f9982	-0.31171805
129	0x3d622689	0.05521253
130	0x3da86d12	0.082239285
131	0xbead9f5b	-0.3391064
132	0x3e224ebb	0.15850346
133	0xbeb641aa	-0.35596973
134	0xbc3d4d2e	-0.011554046
135	0xbe81f1e3	-0.25379857
136	0x3e4da32a	0.20081773
137	0xbe5592cc	-0.2085678
138	0x3dfae9af	0.12251603
139	0xbe9131d8	-0.2835834
140	0x3e0524be	0.13002297
141	0x3e54751d	0.207478
142	0xbed745d6	-0.42045468
143	0xbead6d41	-0.33872417
144	0x3e335eaa	0.1751658
145	0x3dd92e90	0.10604584
146	0xbe352b03	-0.17692189
147	0x3d75d613	0.06001861
148	0x3e2482af	0.16065477
149	0xbeb400d3	-0.3515688
150	0x3da8844c	0.082283586
151	0x3e3c7b47	0.18406402
152	0x3cbccdc1	0.02304733
153	0xbdf6b96d	-0.12047086
154	0xbd9231b4	-0.07138386
155	0x3c47dd05	0.012198691
156	0xbe485a73	-0.19565754
157	0x3d542cce	0.05180054
158	0xbcc3311c	-0.023827128
159	0x3e38b669	0.18038334
160	0x3e0aa8f3	0.13541012
161	0xbea51550	-0.32242823
162	0x3da59aa5	0.08086137
163	0x3c3ebd31	0.011641786
164	0x3e5f73f4	0.21821576
165	0x3db6c873	0.089249514
166	0x3de9ab98	0.11409682
167	0x3db5cd98	0.088771045
168	0xbe2ad17d	-0.16681476
169	0x3e57c343	0.2107058
170	0x3da95416	0.08267991
171	0xbd90add1	-0.07064403
172	0xbdc30a3d	-0.09523437
173	0x3e7b8f42	0.24566367
174	0x3e6e8482	0.23292735
175	0xbd8e5680	-0.06950092
176	0xbe6ff3fd	-0.23432918
177	0x3e4b06e7	0.19826852
178	0xbe7a25f8	-0.24428546
179	0xbe8731e9	-0.26405266
180	0x3e1db093	0.15399389
181	0xbe8b5b1c	-0.27217948
182	0x3e95ede2	0.29283053
183	0x3e2d92e6	0.16950569
184	0xbe3e3dd4	-0.18578273
185	0x3df3bd4b	0.11901339
186	0x3e8418ca	0.25800163
187	0xbe3d19cd	-0.18466873
188	0x3dfa7da7	0.122309975
189	0xbe9eb55a	-0.30997735
190	0x3e81febb	0.25389656
191	0x3ea174b5	0.31534353
192	0xbd8e8f9a	-0.069609836
193	0x3e0e3d80	0.13890648
194	0xbe0aee27	-0.1356741
195	0xbeae5649	-0.34050205
196	0x3e889b3f	0.26680943
197	0x3e3becab	0.18352
198	0xbcdf4f87	-0.027259601
199	0xbd80ecdb	-0.062951766
200	0x3cd050a0	0.02542907
201	0x3ee3ea49	0.44514683
202	0x3de83d9f	0.11339878
203	0xbe913eef	-0.28368327
204	0xbd9e700e	-0.077362165
205	0x3d44cba7	0.04804578
206	0xbe183032	-0.14862135
207	0x3ca5895e	0.020207103
208	0x3ea74a3d	0.32673827
209	0xbe0e6a02	-0.13907626
210	0xbd025992	-0.031823702
211	0x3e9f5746	0.31121272
212	0x3d55f3d2	0.05223448
213	0xbe6c93ff	-0.23103331
214	0xbe1e4ba4	-0.15458542
215	0x3e2de73d	0.16982742
216	0x3d1d7687	0.038443115
217	0xbf26b9d0	-0.6512728
218	0x3eae660b	0.34062228
219	0x3e169f42	0.1470919
220	0x3e3dd09a	0.18536606
221	0x3dd5ee07	0.10445791
222	0xbe2c599a	-0.16831055
223	0xbea6e1cd	-0.32594147
224	0xbeb14a84	-0.34627163
225	0x3e2e3ce5	0.17015417
226	0xbe486eee	-0.19573566
227	0x3be53a89	0.0069955033
228	0x3d4e79e4	0.050409213
229	0xbf375691	-0.71616465
230	0xbc8f2eb3	-0.017478323
231	0xbe6ed71f	-0.2332425
232	0x3db42508	0.08796126
233	0xbec10a55	-0.37703195
234	0x3dadc916	0.0848562
235	0xbe284331	-0.16431881
236	0x3e40c0b8	0.18823516
237	0xbd81d3b0	-0.06339204
238	0x3ebe8bbf	0.37215993
239	0xbe237da8	-0.15965903
240	0xbe84cf5a	-0.25939447
241	0x3e14de8a	0.14538017
242	0xbe284c3c	-0.16435331
243	0xbeb3e799	-0.35137632
244	0xbebea0ed	-0.37232152
245	0xbe901076	-0.2813756
246	0x3e830eeb	0.2559732
247	0x3dc54561	0.096323736
248	0xbe7f8506	-0.24953088
249	0x3d995d1e	0.07488464
250	0xbe84a2a6	-0.2590534
251	0x3de635e2	0.11240746
252	0x3f0ff104	0.56227136
253	0xbe83d55c	-0.25748718
254	0x3e0549e7	0.13016473
255	0x3d23f7cf	0.04003125

fc1.bias f4 [256]
0	0x40b1d9bd	5.5578294
1	0x3fb71c1e	1.4305456
2	0xbdf5d31f	-0.12003159
3	0x408032b2	4.0061884
4	0x409ceb42	4.903718
5	0x4081eeca	4.060399
6	0x40180459	2.3752654
7	0x40c1a163	6.0509505
8	0x3fac3664	1.3454099
9	0x4087b43c	4.2407513
10	0x4086d765	4.2137933
11	0x3fe8b01c	1.8178744
12	0x3fc83d88	1.5643778
13	0x40aacef7	5.3377643
14	0xbdcaa26a	-0.09894259
15	0xbd8cc622	-0.06873728
16	0x3fa3f946	1.2810447
17	0xbdae1a73	-0.085011385
18	0x406202f7	3.531431
19	0x4112648b	9.149547
20	0x3fb1fa4b	1.3904508
21	0x406c457f	3.6917417
22	0x3facd75b	1.3503221
23	0xbde4834e	-0.11157857
24	0xbde00595	-0.10938565
25	0x3fa8b022	1.3178751
26	0x4038a6aa	2.8851724
27	0xbda5fcf1	-0.08104885
28	0x4081e019	4.0586057
29	0x40806e6e	4.01348
30	0x3f545f49	0.82957894
31	0x3f9933e7	1.1968964
32	0xbddadb8a	-0.10686405
33	0xbdd1c009	-0.10241706
34	0x4082beae	4.0857763
35	0x405a6185	3.4122021
36	0x40c1a0d0	6.0508804
37	0x409f5ce8	4.980091
38	0x40bdb950	5.928871
39	0x40823bfe	4.0698233
40	0x4041c75a	3.0277925
41	0xbde469d1	-0.111529954
42	0x40812c07	4.0366244
43	0x40f8dca0	7.776932
44	0xbddda6f5	-0.1082286
45	0xbdaadab5	-0.08342496
46	0xbdd37597	-0.10325163
47	0x410cfd84	8.811893
48	0x3f5937c0	0.8485069
49	0x405e46a9	3.4730628
50	0x41022b00	8.135498
51	0x40918d6a	4.5485125
52	0xbdc22f1a	-0.0948164
53	0x405eba58	3.4801235
54	0x408b22ea	4.348012
55	0xbde2c7dd	-0.11073277
56	0xbdf65238	-0.12027401
57	0x40348816	2.820806
58	0x41133ba0	9.202057
59	0xbda979bd	-0.08275173
60	0x406485eb	3.5706737
61	0x405e36d5	3.4720967
62	0xbdcd4287	-0.10022455
63	0x408d8a1d	4.4231095
64	0x4086d22f	4.213157
65	0x41189df9	9.538568
66	0xbddb3cb9	-0.10704941
67	0x3ff13737	1.8844975
68	0x3f9c6213	1.221743
69	0x4118b528	9.544228
70	0x3fcd8cd0	1.6058598
71	0xbdfbcc78	-0.12294859
72	0x3ffc1492	1.9693778
73	0xbdd4f377	-0.10398
74	0x401c3b5e	2.4411235
75	0x4080a834	4.0205326
76	0x4041c42f	3.027599
77	0xbdd2330d	-0.102636434
78	0x411b0e92	9.691057
79	0xbdbb34dc	-0.091409415
80	0xbdf91163	-0.121615194
81	0x40018ae7	2.024103
82	0x406597fa	3.587401
83	0x4001a7a4	2.025857
84	0xbdd4e0b5	-0.10394422
85	0x3fec544b	1.8463224
86	0xbdc23d51	-0.094843514
87	0xbe042558	-0.1290487
88	0x3ff6497d	1.9241177
89	0xbdab682c	-0.083694786
90	0x4004ed34	2.0769777
91	0x40803247	4.0061374
92	0xbd5494e9	-0.051899824
93	0x411049a1	9.017976
94	0x403d24ee	2.955379
95	0x3fdaf9e9	1.7107517
96	0x411d505e	9.832121
97	0x4085410c	4.1641903
98	0x40838be3	4.110826
99	0x40f4b752	7.647378
100	0x3fac2929	1.3450061
101	0x408c40d3	4.382913
102	0x412225d9	10.13424
103	0x3faebac6	1.3650749
104	0x40e141c1	7.0392766
105	0x40898d27	4.2984805
106	0xbdccf54c	-0.10007724
107	0x40fe83d5	7.953593
108	0xbe044973	-0.12918644
109	0x3fc06bc8	1.5032892
110	0x411f66c0	9.962585
111	0x4050966b	3.2591808
112	0xbda15d04	-0.078790694
113	0x4084996c	4.1437283
114	0xbdd4126d	-0.10355077
115	0x40a1d031	5.056664
116	0x3fd8ea4e	1.6946504
117	0xbcd8437e	-0.02639937
118	0x408f5478	4.479061
119	0x3fce8c72	1.613661
120	0xbda65d20	-0.08123231
121	0x3f9fe228	1.2490892
122	0x410055f0	8.020981
123	0x3f450868	0.7696595
124	0x400555ad	2.0833542
125	0x4114b3e0	9.293915
126	0xbdb94933	-0.09047165
127	0xbdc8ef68	-0.09811288
128	0x40f8ba6c	7.7727566
129	0x4101eddc	8.120571
130	0x400e7774	2.2260408
131	0x3facd080	1.3501129
132	0x4089bc34	4.304224
133	0xbda5677d	-0.080763794
134	0x40c0252d	6.004538
135	0x403405c6	2.8128524
136	0x40a4dd2f	5.152
137	0x3fb843de	1.4395711
138	0x40a55ded	5.1677155
139	0x4075fcce	3.843555
140	0xbdbdd090	-0.09268296
141	0x40450074	3.0781527
142	0x3fdf1601	1.742859
143	0x400b994f	2.1812322
144	0x3fbebc61	1.4901239
145	0x3fa80f6f	1.312971
146	0x40292179	2.642668
147	0x3f8baea4	1.0912671
148	0xbdc19922	-0.09453036
149	0xbdc1b005	-0.09457401
150	0x3fbef856	1.4919536
151	0x3fd70ef2	1.6801436
152	0xbe01f28e	-0.12690184
153	0x408885c3	4.2663283
154	0xbe0b8903	-0.13626485
155	0x40632228	3.5489597
156	0xbcad0bf2	-0.02112386
157	0x411ee3fe	9.930662
158	0xbdcd31cd	-0.10019264
159	0xbdf61aef	-0.12016856
160	0xbdbbc8eb	-0.091691814
161	0xbdd0bb52	-0.101919785
162	0x4014679c	2.3188238
163	0x409330e9	4.5997205
164	0xbdae6fff	-0.08517455
165	0xbdcaa378	-0.098944604
166	0x3fd5d3ae	1.6705225
167	0xbdacd276	-0.0843858
168	0x40ff93c4	7.986788
169	0x410bdbdd	8.741178
170	0xbdb9c588	-0.09070879
171	0x3f9457da	1.158931
172	0x40826f8c	4.0761166
173	0x40025fcd	2.0370972
174	0x4049acb7	3.1511667
175	0x40818c54	4.04838
176	0xbde360ed	-0.111024715
177	0x4103273a	8.197077
178	0x3fc88454	1.5665383
179	0x411224d5	9.133992
180	0x40030f03	2.0477912
181	0x3fb120a4	1.3838086
182	0x4011ad29	2.2761939
183	0x3fcd9d2a	1.6063588
184	0x402ba571	2.6819727
185	0xbde92c73	-0.11385431
186	0x4084921a	4.1428347
187	0xbd94a2c2	-0.07257606
188	0xbe033ff7	-0.1281737
189	0x41123be0	9.139618
190	0x40a85c63	5.2612777
191	0x411dc300	9.860107
192	0x3fe99e69	1.8251468
193	0x408fe8db	4.4971747
194	0x3faf15b5	1.36785
195	0x3fdb3bdc	1.7127643
196	0x40d1fa0d	6.561774
197	0x40796e05	3.89734
198	0xbdafe769	-0.0858906
199	0x400d1f31	2.2050288
200	0x4049f19e	3.1553721
201	0xbddd0f67	-0.107939534
202	0x3f90159f	1.1256598
203	0xbdee7472	-0.11643304
204	0x408a3601	4.3190923
205	0x408f8313	4.4847503
206	0xbdb2aa7e	-0.08723925
207	0xbcafc21e	-0.021454867
208	0xbc4ec1aa	-0.012619415
209	0x4040b62c	3.011119
210	0x3f8b7ff6	1.0898426
211	0x407302ce	3.7970462
212	0x3fda2871	1.7043592
213	0x40633f6b	3.5507457
214	0xbde54d58	-0.11196393
215	0x411caeeb	9.792705
216	0x3fe4af02	1.7865908
217	0xbdd08a98	-0.10182685
218	0x40365a3c	2.8492575
219	0xbdbc0ad9	-0.091817565
220	0xbdff697b	-0.12471291
221	0xbe1b072f	-0.15139459
222	0x40eb65e1	7.3561864
223	0x4120e32d	10.055463
224	0x3ff24865	1.8928343
225	0x3fa32964	1.2747006
226	0x4088a248	4.2698097
227	0x3f966c79	1.1751853
228	0x4094cbaf	4.6498637
229	0x40c2e020	6.089859
230	0x3fe014ce	1.7506349
231	0x4021a8ab	2.5259197
232	0x3fbeb20f	1.4898089
233	0x403e7ecc	2.976489
234	0x40efedaa	7.4977617
235	0x3fc99e1c	1.5751376
236	0x400bca07	2.1842058
237	0x408a9c3a	4.3315706
238	0x40785fe9	3.880854
239	0x3fad3168	1.3530703
240	0x4088b757	4.2723804
241	0xbdda196c	-0.1064938
242	0x40a3d3d7	5.1196094
243	0xbdff580a	-0.12467964
244	0xbde98500	-0.11402321
245	0xbcf583ff	-0.029970167
246	0x3faf73d6	1.3707225
247	0x40afe0f5	5.4962106
248	0xbdab46f7	-0.08363145
249	0x40eeefe4	7.4667835
250	0xbe196137	-0.14978491
251	0xbded3b8a	-0.11583622
252	0x40151c5e	2.3298564
253	0x3ff02512	1.8761313
254	0x4020f91f	2.5152051
255	0xbdc93e95	-0.0982639

fc2.weight f4 [14, 256]
0	0x3d28ca96	0.041208826
1	0xbd86a2d4	-0.06574026
2	0x3e278599	0.16359557
3	0xb995fa3e	-0.0002860594
4	0x3c4d7a0c	0.012541305
5	0xbd6ae8a9	-0.05735079
6	0x3ca86360	0.020555198
7	0x3d13c859	0.03607974
8	0x3ca19ad4	0.019727148
9	0xbd83d222	-0.06436564
10	0xbab0306d	-0.0013442166
11	0x3c0cd5d8	0.008595906
12	0x3c965322	0.018350188
13	0xbd1a09cd	-0.037607003
14	0x3c6014e5	0.013676857
15	0xbc8819cb	-0.016613862
16	0xbc2c41dd	-0.01051375
17	0xbd2755e3	-0.040853392
18	0x39fdf3ec	0.00048437656
19	0x3c452450	0.012032583
20	0x3be93f4b	0.007118141
21	0xbaaef557	-0.0013348263
22	0xbd451112	-0.048111983
23	0x3e029093	0.12750463
24	0xbe11fa99	-0.14255752
25	0xbca65cbc	-0.020307891
26	0x3bdf7878	0.006819781
27	0x3dd7ed95	0.10543362
28	0xb946b1f4	-0.00018949044
29	0x3da40db7	0.080104284
30	0x3d6b0609	0.057378802
31	0xbc25f81b	-0.010129954
32	0x3d02b2b0	0.03190869
33	0x3caf0452	0.021364365
34	0xb96bb880	-0.00022480078
35	0x3b9afc3f	0.004729777
36	0x3b8fdc47	0.004390273
37	0xba092527	-0.00052316714
38	0xbd8476b3	-0.064679526
39	0xba39f166	-0.0007093161
40	0xbdb035a2	-0.0860398
41	0x3d42091d	0.047371972
42	0xb9889fdd	-0.0002605905
43	0xba6312a3	-0.000866214
44	0x3d427c47	0.0474818
45	0x3e037f2a	0.12841478
46	0x3d2e28af	0.042519268
47	0x3c1099b2	0.008825706
48	0x3c3d4878	0.011552922
49	0xbd3c257a	-0.045934178
50	0xbd843b6d	-0.06456647
51	0x39b6716e	0.00034798257
52	0x3e6fed97	0.23430477
53	0xbdd22575	-0.102610506
54	0x3918cb3c	0.0001457156
55	0x3d2e3e41	0.04253984
56	0x3e1b00bc	0.15136999
57	0x3d549a75	0.051905114
58	0x3c045ef1	0.008079276
59	0x3ebf561b	0.3737038
60	0x3cf39de8	0.029738382
61	0x3d5e1a7e	0.054224484
62	0x3bcded06	0.006284359
63	0x392d7c58	0.00016544887
64	0xba721a38	-0.0009235474
65	0x3ad19cab	0.0015992125
66	0x3cf84956	0.030308407
67	0xbc41bb8a	-0.011824498
68	0xbbdcf613	-0.0067432015
69	0x3ae2f740	0.0017316118
70	0x3db3382b	0.087509476
71	0x3d573273	0.052538346
72	0x3c2fc3e4	0.010727856
73	0x3e0aabe8	0.1354214
74	0x3ceb2ce4	0.028707929
75	0x3a0735e1	0.000515787
76	0x3d3a754c	0.04552202
77	0xbe138f8a	-0.14410225
78	0x3ba6d890	0.005091734
79	0x3da76da1	0.08175207
80	0x3e0f34e0	0.13985014
81	0xbdb91397	-0.090369396
82	0x390e15e4	0.0001355033
83	0xbbeb709a	-0.007185054
84	0xbddfdc93	-0.10930743
85	0x3c01c079	0.007919424
86	0x3e09fbd6	0.13474974
87	0x3d071230	0.03297633
88	0x3d994393	0.07483592
89	0x3e3424a0	0.17592096
90	0x3c3ddfe6	0.011589026
91	0x3a3dcc06	0.00072401797
92	0xbd1a68b9	-0.037697528
93	0x3c43b10d	0.011944068
94	0xbc8bee26	-0.017081331
95	0x3d005330	0.031329334
96	0x3c166a90	0.00918068
97	0x39944375	0.0002827902
98	0x39213cf4	0.00015376863
99	0x3d6eba45	0.05828311
100	0x3d219070	0.039444387
101	0x3d7fc468	0.062443167
102	0x3bc4722d	0.005995056
103	0xbc28d342	-0.010304274
104	0xbc02e9a9	-0.007990279
105	0xb8683fa0	-5.5372366e-05
106	0xbe0b20ca	-0.13586727
107	0xbc6d0469	-0.0144663835
108	0x3e627c69	0.22117771
109	0x3d375dc3	0.044767153
110	0x3baba906	0.005238655
111	0xbd545fc4	-0.05184914
112	0xbd467661	-0.04845274
113	0x3daeae0d	0.08529291
114	0xbdd6d126	-0.10489111
115	0x3dbf4e4f	0.09341108
116	0x3c616f20	0.013759404
117	0x3da6240b	0.081123434
118	0x3d619f55	0.05508359
119	0x3cd80228	0.026368216
120	0x3e2fd1e4	0.1716991
121	0xbb859be4	-0.0040774215
122	0x3c41725c	0.011807051
123	0x3b0d2798	0.0021538492
124	0x3d34a20e	0.04409986
125	0x3c444be1	0.011980982
126	0x3d9bb8fa	0.07603641
127	0x3e56aefd	0.2096519
128	0xbcb4d3bd	-0.02207362
129	0x3cd44a13	0.025914228
130	0x3c0383bc	0.008027013
131	0xbc81e2d2	-0.015855227
132	0xb94cdf40	-0.00019538123
133	0x3d2a283d	0.04154228
134	0x3d214339	0.03937075
135	0xbba9d934	-0.0051833633
136	0xba50d6b2	-0.00079665624
137	0x3cef20a0	0.029190361
138	0x3d75beb9	0.05999634
139	0xba0643d2	-0.00051218004
140	0xbd4ba168	-0.049714476
141	0x3ca9c907	0.02072574
142	0x3aa00ebb	0.0012211421
143	0x3c58e514	0.01323821
144	0x3c6bbbc7	0.014388031
145	0xbd476b73	-0.048686456
146	0xbd4a87a3	-0.04944576
147	0x3c63bf35	0.013900568
148	0x3e623d97	0.22093807
149	0x3da50907	0.080583625
150	0x3d424a42	0.0474341
151	0x3ccb70a7	0.02483399
152	0x3dc27e08	0.09496695
153	0x3a726fbc	0.0009248217
154	0x3d3b987d	0.04579972
155	0xb9310229	-0.0001688084
156	0xbd4b44bb	-0.049626093
157	0x3c15d4ab	0.009144942
158	0x3d72296f	0.059121545
159	0x3b816161	0.003948376
160	0xbbcc6924	-0.0062381197
161	0xbe23a9c6	-0.15982732
162	0x3b89dfbf	0.004207581
163	0xbd48a42a	-0.048984684
164	0x3d9c4780	0.07630825
165	0xbe94976d	-0.2902178
166	0x3cc06d03	0.02348948
167	0xbe15b2ca	-0.14618984
168	0x3c95fffa	0.018310536
169	0x3b6dca7b	0.0036284018
170	0xbcf3bd6e	-0.029753413
171	0x3c02afa8	0.00797645
172	0x37777240	1.4748948e-05
173	0x3b84e6bf	0.0040558274
174	0xbd80ae21	-0.062832125
175	0x39db6206	0.00041843968
176	0xbd594603	-0.053045284
177	0xbc738165	-0.014862393
178	0x3ce8d9ed	0.028424228
179	0x3bce95eb	0.0063044927
180	0x3cccbf68	0.024993613
181	0xbd26b467	-0.04069939
182	0x3c8701f6	0.016480427
183	0x3cf19e1a	0.029494334
184	0xbc5c190c	-0.013433706
185	0x3e63d776	0.2225016
186	0xb8f2cdec	-0.00011577815
187	0x3c8a3cb8	0.016874656
188	0xbe5a4efc	-0.21319193
189	0x3c4e0e61	0.01257667
190	0xbb03a63b	-0.0020088095
191	0x3bde6dd4	0.006787995
192	0x3c93596a	0.017986972
193	0xba6dffff	-0.0009078979
194	0xbc6ea4c9	-0.014565655
195	0x3ceffc91	0.029295238
196	0xbcc1b557	-0.02364604
197	0xbd18cfd1	-0.037307564
198	0xbdf632c7	-0.12021404
199	0xbd88a428	-0.06671935
200	0x3a0dfe98	0.00054166606
201	0xbdce4ec3	-0.10073616
202	0x3a21687e	0.0006157233
203	0xbdc5025d	-0.096195914
204	0x3a3d1edc	0.0007214376
205	0xbd594a0f	-0.053049143
206	0x3d2927da	0.04129777
207	0x3daf57c4	0.08561662
208	0x3ae4bb2d	0.0017450802
209	0x3da20d4b	0.07912692
210	0x3bb97736	0.005659963
211	0x3992f0de	0.0002802675
212	0x3ca20550	0.019777924
213	0xb92f26f2	-0.00016703809
214	0x3ddc9c2f	0.10771977
215	0x3bb3dc52	0.0054889107
216	0xbc236ffe	-0.0099754315
217	0xbc4cb918	-0.012495302
218	0x3b846bdb	0.0040411777
219	0xbbd73f3f	-0.006568819
220	0xbe32b69b	-0.17452471
221	0xbd06757a	-0.032826878
222	0xbc66e9a8	-0.014093794
223	0x3bd386c2	0.0064552734
224	0xbdb507aa	-0.088393524
225	0x3c3bc458	0.011460386
226	0x39006ea8	0.00012248254
227	0x3cf36d94	0.029715337
228	0xbcc7d499	-0.024393367
229	0xbd6c5eed	-0.057707716
230	0x3bb04e8e	0.005380458
231	0xbd6b80ca	-0.05749587
232	0x3cee06c8	0.029055968
233	0xbcc029f0	-0.023457497
234	0x3d247787	0.040153053
235	0x3c38f6c6	0.011289304
236	0xbc13f4ea	-0.00903056
237	0xb921ad30	-0.00015418674
238	0xb9f16c66	-0.00046047865
239	0x3be6db36	0.007045175
240	0xb7b540f0	-2.160712e-05
241	0x3de9db6f	0.11418807
242	0xbd5dc4b0	-0.054142654
243	0xbd109fca	-0.035308637
244	0xbde2a968	-0.11067468
245	0xbcfa88a5	-0.030582735
246	0x3b69ec2c	0.0035693748
247	0xbcc2337d	-0.023706192
248	0x3e268a1c	0.16263622
249	0xbc96e666	-0.01842041
250	0xbdad2a8c	-0.08455381
251	0xbd1a289b	-0.03763638
252	0x3d3ff269	0.04686204
253	0xbb9c47e5	-0.0047693127
254	0xbdada254	-0.08478227
255	0xbde8060b	-0.113292776

fc2.bias f4 [14]
0	0x3e4e372a	0.20138231
1	0x40323f69	2.7851202
2	0x3f88333a	1.0640633
3	0x3fa16116	1.2607753
4	0x3fc7279f	1.5558966
5	0x3f0989c0	0.53725815
6	0x3e20fbf5	0.15721114
7	0x3f05b1f3	0.52224654
8	0x3e888fed	0.26672307
9	0x00000000	0.0
10	0x40ee8de0	7.4548187
11	0x3e9e9aad	0.30977383
12	0x3f0e608c	0.5561607
13	0x3e776390	0.24159074
