Response14/state_dicts/model_state_dict_5000e.pth (torch, 216677 bytes, 8 tensors)

conv1.weight f4 [32, 128, 3]
00000000: 4360 5c3f 02e5 48bf bfc9 c6bf a73d 04bf
00000010: d90a 7d3e 85ed 5e3f 9bb5 0fbf 6c14 35bf
00000020: e2e9 2dbf 47c0 a83f e4dd 803f 78db 203f
00000030: f184 eb3f 3d06 2dbf 4ad4 33c0 8aeb da3f
00000040: 7042 57bf 8022 42c0 a0d9 3040 99d6 583e
00000050: 5a6b 2ac0 b7ce 3fc0 6a6d adbe f266 2240
00000060: 0c6c 353e 2a99 773e ff3a 1fbe fcd1 c53f
00000070: 41b9 88bf 80bd 66c0 e36f 1fc0 dbd9 46bf
00000080: a2f5 8f3f 2ef7 9c3f 9b23 4dbe 0e04 15c0
00000090: c70c 28c0 65bc 47bf 77cb ee3f 0e1e 28c0
000000a0: 891d 573f ee04 5f40 fc87 e53e ff8c bd3e
000000b0: e77d a3be ae22 1ec0 bb45 1c3f bbd8 7b40
000000c0: b03d 78bf 8db9 9c3f 70f6 2640 f114 43be
000000d0: e60d c4be fd68 b8be 13bc 27c0 8eab 5fbd
000000e0: 577d d63f df31 6f3f 35f2 ee3d b5ff fbbe
000000f0: 0042 f23f 1d59 64bf b0be 8ac0 c284 b4bf
00000100: d97d c13d c09e 0240 0d9e b73f 8968 193e
00000110: e845 b1bf bec7 aabf 957c 9a3f f1df 2440
00000120: e0fa fdbf 8436 a8bf 3cd4 1abf 4029 e5bf
00000130: 67bb dcbf 2d86 ddbe c573 96bf dd5b 4dbd
00000140: f187 363f 41b3 85bf 74f9 5dbf 38a2 04bf
00000150: fcfc 603f c9d6 5d3e 8d93 8dbf ec08 e0bf
00000160: 4c28 f63d f3bf d03f ef08 2a3f ded5 573f
00000170: 71c1 363f 1135 963e 58a7 10bf 7612 dbbf
00000180: df39 83bf 466e 7abf 115a 77bf 3e41 50c0
00000190: 8ce1 b9be f4ac 4540 912d 4a3d 41df c4be
000001a0: e209 a2bd 7d89 a2bf 84a1 afbf c886 80bf
000001b0: 6b4d 12c0 6281 22be 62b8 1240 5afe b3bf
000001c0: d9b2 cc3e 252e 1840 8791 fbbf 4c97 4bbf
000001d0: f74f 503f c3d7 3140 0b85 793f 4dea a5bf
000001e0: 0fbc d0bf f882 f4bb b3c9 1940 794c 1d40
000001f0: 2e82 e63e 38a9 bcbf 4804 2140 c658 b93f
00000200: e3b3 6bbf b5ef 23bf a074 933f dd2b cc3f
00000210: 20db 0e3e 78d4 c1be cbe6 c3bf 71e3 a33e
00000220: d0ab 233f 71ff ecbd 5240 9e3f a620 9fbe
00000230: e2a6 14c0 766d bb3f 8d0e 883d d91f b9bf
00000240: 01fa f8bf 6892 323f ffd3 1940 7509 c33f
00000250: 803a 99bf d547 7bc0 f0fb 8f3e 3266 9ebe
00000260: 4f7b b5bf f092 6740 4597 1d3f 404d 51c0
00000270: c26f 8b40 6a4b f53e 36fa 40c0 9bdf ce3e
00000280: 0813 f1bc eb87 1cbe dc6d 8a3d 71f9 2ebe
00000290: c045 8bbe bed9 ba3e a2a5 b83f bf97 8e3f
000002a0: 7e77 4ac0 666b c9bb 8bef 7440 a4b4 17c0
000002b0: 678e c2bd 5d28 d73f a1a7 6cbe d20d bfbc
000002c0: 4444 463f e057 6b3d c4e6 9b3e f5f1 813f
000002d0: c18a c03f b22c efbe d71b 03c0 701f 9dbf
000002e0: cb70 ecbe b64b bd3e b4b2 6240 d71d 6c3f
000002f0: 5dda 21c0 33ac 2840 7897 4bbf d74c 90c0
00000300: 6058 1f40 c191 793f 373b a8bf 3b5c 0fc0
00000310: 90ab e6be 2bc8 e23f d6f9 623f db16 e8bd
00000320: affc 84bf a6b0 413f fe56 283f a338 41bf
00000330: fc9c 95be afea 5dbf 0f61 2cbf 96c4 ddbf
00000340: 7f68 ec3f b484 8740 8526 12c0 e7fa 863e
00000350: 3a27 1c40 6141 58bf 8a39 ac3d edfd b53f
00000360: 3b8f 1fc0 f554 e5be d5ec cf3f cb59 10be
00000370: e9d5 1f3f 167c 3e3f fffc ce3e bc33 a73f
00000380: e853 a93f 929b 73bf f293 473e 6405 763f
00000390: 00db 33bf 4b9d 943e 8b95 ab3e ae10 ffbf
000003a0: 8777 1cbf 851b 333e d6d8 08c0 572f 373d
000003b0: c9fa 3a40 5ded e0bf 5809 d8be 1721 1e3f
000003c0: 7cc7 133f b8de 9cbe e961 03bf c162 8fbe
000003d0: e62f a53f 0e3b 0c40 3e3e cfbf 00c1 683c
000003e0: 233a d23f cd09 7dbf 4bdb 753e a94b db3f
000003f0: 5263 3740 a4e4 e63f 015d a2bf 2364 3f3f
0.86084384 -0.7847444 -1.5530318 -0.51656574 0.2471117 0.87081176 -0.5613648 -0.70734286
-0.67935 1.3183678 1.0067716 0.6283488 1.8399945 -0.67587644 -2.809832 1.7103131
-0.8408575 -3.0333557 2.7632828 0.21175613 -2.6628022 -2.9969919 -0.3387254 2.5375333
0.17716998 0.24179521 -0.15549849 1.5454707 -1.0681535 -3.6053162 -2.491204 -0.7767617
1.1246836 1.2262933 -0.20033114 -2.3283725 -2.6257799 -0.7802184 1.8655843 -2.6268344
0.8402944 3.484676 0.4483031 0.37021634 -0.31931993 -2.4708667 0.610439 3.9351032
-0.9696913 1.2244126 2.6087914 -0.19050957 -0.38291854 -0.360176 -2.6208541 -0.054606967
1.6757001 0.9343547 0.11667291 -0.49218526 1.8926392 -0.89198476 -4.3357773 -1.4103014
0.09447832 2.0409393 1.4345108 0.14981283 -1.3849459 -1.3342206 1.206927 2.5761683
-1.9842186 -1.3141637 -0.60480094 -1.7903214 -1.7244691 -0.4326643 -1.175408 -0.050136436
0.7130118 -1.0445329 -0.8670876 -0.51810026 0.87886024 0.21663965 -1.1060654 -1.7502723
0.12019405 1.6308578 0.6641988 0.8431071 0.7138892 0.2933736 -0.56505346 -1.7115009
-1.0252036 -0.97824514 -0.96621805 -3.253982 -0.3630489 3.0886812 0.04935986 -0.3845158
-0.07912041 -1.2698208 -1.3721166 -1.0041132 -2.2859752 -0.15869668 2.2925038 -1.4061997
0.399802 2.3778164 -1.9653786 -0.79527736 0.81372017 2.778794 0.9746863 -1.2962128
-1.6307391 -0.0074619018 2.4029357 2.4577925 0.45021194 -1.4739141 2.5158863 1.4480217
-0.9207136 -0.6403764 1.1519966 1.5950886 0.13950777 -0.37857413 -1.5304807 0.32009462
0.6393404 -0.11572159 1.2363379 -0.31079596 -2.3226857 1.464278 0.066434 -1.4462844
-1.9451295 0.6975465 2.4035642 1.5237261 -1.1970978 -3.9262593 0.281219 -0.30937344
-1.4178256 3.6183434 0.61558944 -3.27034 4.3573923 0.479091 -3.0152717 0.40404972
-0.02942802 -0.15286224 0.06759235 -0.17087342 -0.27201653 0.3649425 1.4425547 1.1140059
-3.1635432 -0.006146836 3.8271205 -2.3704004 -0.09499817 1.6809193 -0.2311082 -0.02332202
0.77447915 0.05745685 0.30449498 1.0151964 1.5042344 -0.46713787 -2.0485742 -1.2275219
-0.46179804 0.36971825 3.5421572 0.9223303 -2.5289528 2.6355102 -0.79528 -4.50938
2.489769 0.9748803 -1.3143071 -2.2400043 -0.45052767 1.7717336 0.8866247 -0.11332484
-1.0389613 0.7566017 0.6575774 -0.75477046 -0.29221332 -0.86686224 -0.673356 -1.7325618
1.846939 4.234949 -2.283601 0.26363298 2.4398942 -0.8447476 0.08409412 1.4218117
-2.493117 -0.4479138 1.624415 -0.14096753 0.62435776 0.7440809 0.40427396 1.3062663
1.3228731 -0.95159256 0.1949003 0.96101975 -0.7025604 0.29026255 0.3351253 -1.9926965
-0.61119884 0.17490967 -2.1382346 0.04472288 2.9215567 -1.7572438 -0.4219463 0.6176924
0.57726264 -0.3063867 -0.51321274 -0.2800503 1.2905242 2.1911044 -1.619087 0.014206171
1.6423992 -0.9884308 0.24009435 1.7132465 2.865437 1.8038526 -1.2684633 0.7476217

conv1.bias f4 [32]
00000000: c42d 0641 fdbe bf40 e45d ea40 ece0 0841
00000010: efa9 1041 16b9 ac40 5adb f340 2fd9 df40
00000020: 0b1d e140 c6b5 0441 5823 dc40 74dd 0141
00000030: 891a eb40 21fa de40 96dc ef40 663d c140
00000040: 7050 1d41 11d2 c340 70a0 d840 c24b fc40
00000050: b7a9 e240 3cd7 d940 00a1 d740 eba8 0d41
00000060: 89b7 df40 9cca 1041 510a ef40 ae57 eb40
00000070: d135 d840 4c7a 0c41 2184 0241 cedd d040
8.386173 5.992064 7.3239613 8.554913 9.041488 5.3975935 7.6205263 6.9952617
7.0347953 8.294378 6.8793144 8.116566 7.346989 6.9680333 7.495677 6.038745
9.832138 6.119393 6.7695847 7.884248 7.083217 6.8075237 6.7384033 8.85374
6.991154 9.049465 7.4700093 7.354453 6.7565694 8.779858 8.157258 6.527076

conv2.weight f4 [128, 32, 3]
00000000: 2f7d f03d beb9 dfbf 2366 b63e f5b1 f83e
00000010: df5c c73f 161a d2bf 5f41 86bf c72c bbbe
00000020: 0857 bf3e 03ad 21c0 2112 4c3f 7252 7b40
00000030: df30 9340 317c ee3f 6fa5 89c0 3d96 00c0
00000040: ea5c eebf fb48 d23f 84f8 f63e e0d1 73bf
00000050: e1b0 adbf 5260 823f 8791 4c40 b21e b83d
00000060: 9fe9 093f e900 6540 02df ec3f 3cea 0f40
00000070: b658 ac3f 542b 8ebf 4e4c ee3f fb41 b6bf
00000080: 680c f3bf 0519 96bf 6f9a 50bf b1bb 313f
00000090: f836 5a3e cd2f 313d e7f8 0f3d 9ef4 093f
000000a0: c8f9 ce3d 0b18 cabe 9d30 bb3e 58d6 963f
000000b0: 59a0 a83e 3181 2a40 0da3 bb3f 91e2 28c0
000000c0: 00d3 f63f 24cf 0840 2483 babe c7f0 513f
000000d0: b355 9ebe fc52 91bf de69 3e3e a749 98be
000000e0: 791c 0e3f a06a 3c3e 4d46 343f 8a52 523f
000000f0: afd3 57bf a467 9ebe 2011 ea3f 80cd 823d
00000100: fa4d ac3f a31a 8d3e 32c8 d43e 3f25 5bbe
00000110: 77be f43e f7c3 b4be 3d7e 9d3f a20a 0c40
00000120: 6b87 423f 9aa3 bbbe 15bb adbf 7163 2140
00000130: 00be 993f 3ec3 45c0 5bb4 ae3f ce66 663f
00000140: c1c4 bd3e e2a9 0f3e 9375 d43f 5f65 943f
00000150: 252d ab3f 2ec5 49c0 919c 43bf 1ebc 21c0
00000160: 2ade 3a3e f603 7740 244e ffbe 637f 883f
00000170: 7f15 81bf a4df 963e 428a c63f 49af 5c3f
00000180: d01f e13d 2ba2 e63d e8be 7abe 1834 873f
00000190: 2d26 973f ef2a 2dbe 2196 76be 48c2 5f3f
000001a0: 6381 ce3f 9a3f 7040 7ae3 0940 1701 1bbf
000001b0: 169a 0b40 79cf d8be 78f4 afbf c497 07bf
000001c0: 6aa9 1e40 09d7 b83f 02f1 54c0 2643 9ac0
000001d0: 9e3d 1940 9800 65bf 3561 c73f 5bcc 3f40
000001e0: 4d48 49bf d804 fdbe d650 0ebf 2f5d 0c3f
000001f0: e4bd 003f 568e 233f 3842 1e3f 93ac 943f
00000200: 8e63 5e3f e9c9 09be 38c1 8dbe 3197 b5be
00000210: 07c0 5640 f146 bd3f 07e6 29c0 76f7 293f
00000220: f114 843f 6b34 efbe 5345 4fbe c6ad 3fbf
00000230: 29b7 743f ee14 9dbf add0 803e e50d 3a40
00000240: 6fe6 b63f 2776 38bf ca9f 2ac0 5630 a33f
00000250: e3d8 8abf 1a4c cfbe d07d 373f e6a7 2abf
00000260: 8d66 183f b288 1340 2acb 0a40 211a 92be
00000270: 8b96 a23f b670 acbf 786f 68bf 7f1b f13f
00000280: 41a2 d5bf e0cb 94bf 7409 07bf 3571 a5bf
00000290: 76e6 333f fe2f cd3f b133 1cbf 6429 01c0
000002a0: 162b a03d f9d9 b33d db3a 0d40 e69c f5bf
000002b0: fc88 2fc0 c2dd cd3e 4002 74bf f6c7 84be
000002c0: 9201 1140 5077 4b3f 879d 783f 377c 433f
000002d0: d425 b23f a17f c23f 9ea4 0fbf 7a23 a1be
000002e0: d01a dd3f d50e d63f 01cb 273d dde7 1140
000002f0: 3671 cd3f c5d7 98bf e8bc 8b3f 279b 0e3f
00000300: 3ff1 863e 8e65 79bf 618b 91bf 0bba febe
00000310: 3cae a23f c2d5 ef3f 1db1 45bd c968 05be
00000320: 4953 053f a465 e83d 0aa0 d2bf 8357 42bf
00000330: 0b66 a43f f0d9 7b3d 262f b1bf de92 993f
00000340: 5637 543f cae1 063e 6d82 1a3f 6c6c c73f
00000350: 1c63 7d3f fba8 1d3f 146d 223e dc9f c9bf
00000360: 0af4 d2bf c6bc c03f 03e9 5d40 26bf de3d
00000370: 8e4d 56bf b310 67bf a9e5 3f3d f817 a53e
00000380: 8ce2 b63e 474c 573e 73a5 00c0 7633 debf
00000390: 1e11 6fbf a5a6 fd3e 122d bb3f fda5 8d3f
000003a0: 0c41 21bf f88c a8bf 1915 e23e 2e11 1d3f
000003b0: 7eba 233f 2cdb a739 1557 933f 340c c93f
000003c0: eb97 af3f 36e4 97bf 935a 81bf fb09 ec3f
000003d0: b9b1 3cbf 372f dfbf 00ab 6938 7095 ba3f
000003e0: d4a3 193f 69c0 1a40 29d0 003e 0d2e 0dc0
000003f0: 0c1f a53f c7a1 fe3e 174e 8abf 0739 34bf
0.11742627 -1.7478559 0.356248 0.4857327 1.5575217 -1.6414211 -1.04887 -0.365576
0.37371087 -2.5261848 0.7971516 3.926907 4.5997157 1.863165 -4.3014445 -2.0091698
-1.8622105 1.6428522 0.48236477 -0.9524212 -1.3569604 1.0185645 3.1963823 0.0899023
0.538721 3.5781806 1.8505557 2.2486715 1.3464572 -1.1106973 1.8617036 -1.4238886
-1.8988161 -1.1726385 -0.81485647 0.6942702 0.21310031 0.043258477 0.03514948 0.5388888
0.10106236 -0.39471468 0.36560526 1.1784163 0.32934836 2.6641352 1.4659134 -2.6388285
1.9283142 2.1376429 -0.36428177 0.8200802 -0.30924758 -1.135345 0.18595073 -0.29743692
0.55512196 0.18400049 0.7041977 0.82157195 -0.8430738 -0.30938447 1.8286476 0.06386852
1.3461297 0.27559385 0.41558987 -0.21400927 0.47801563 -0.3530576 1.230415 2.188149
0.7598788 -0.36648256 -1.3572718 2.5216944 1.2011108 -3.0900416 1.364879 0.9000062
0.37064174 0.14029649 1.6598381 1.1593436 1.3373152 -3.15266 -0.76410776 -2.5271068
0.18248811 3.8596168 -0.49864304 1.0663875 -1.0084685 0.294675 1.5510943 0.86204964
0.10992396 0.112614 -0.24486887 1.0562773 1.1808525 -0.16910909 -0.24080707 0.87405825
1.6133236 3.753882 2.154509 -0.6054854 2.1812797 -0.4234579 -1.3746481 -0.5296595
2.4790902 1.4440624 -3.32721 -4.820697 2.3943858 -0.8945403 1.557654 2.9968479
-0.7862595 -0.49417758 -0.55592096 0.54829687 0.5028975 0.6388906 0.6181979 1.1615165
0.8687066 -0.13455929 -0.27686477 -0.35466912 3.3554704 1.4787275 -2.6546648 0.6639322
1.0318891 -0.4671968 -0.20241289 -0.7487453 0.9559198 -1.2272012 0.25159207 2.907098
1.4289073 -0.72055286 -2.6660028 1.2749126 -1.0847439 -0.40487748 0.7167635 -0.6666244
0.5953148 2.3052182 2.1686502 -0.2853556 1.2702192 -1.3471897 -0.9079509 1.8836516
-1.6690141 -1.1624718 -0.527488 -1.2925173 0.7027353 1.6030271 -0.61016375 -2.0181513
0.07820718 0.08781809 2.2067173 -1.9188507 -2.7427359 0.4020825 -0.95315933 -0.25933808
2.2657208 0.7947893 0.9711537 0.7636141 1.3917794 1.5195199 -0.5611056 -0.3147238
1.7273808 1.6723276 0.040965084 2.2797768 1.6050174 -1.1940848 1.0917025 0.55705494
0.2635593 -0.97420585 -1.137066 -0.49751315 1.2709422 1.8737109 -0.04826461 -0.13028254
0.5208021 0.113475114 -1.645509 -0.7591478 1.2843641 0.06148714 -1.3842514 1.1997945
0.82896936 0.13172069 0.60355264 1.5579963 0.98979354 0.6158597 0.15861923 -1.575191
-1.6480725 1.5057609 3.467347 0.108763024 -0.8371209 -0.90259856 0.04684988 0.3224485
0.35719717 0.21025191 -2.0100982 -1.7359455 -0.93385494 0.49541202 1.4623129 1.1066281
-0.6298988 -1.316802 0.4415672 0.6135434 0.6395644 0.00032016018 1.151095 1.5706849
1.3718237 -1.186652 -1.0105766 1.8440546 -0.73708683 -1.7436284 5.5710785e-05 1.4576855
0.60015607 2.4179938 0.12579407 -2.2059357 1.29001 0.497328 -1.0805081 -0.70399517

conv2.bias f4 [128]
00000000: 5c00 c040 244f cf40 36f6 0640 0c3c a640
00000010: 2e1a b640 8f4f bc40 1a6f cc40 9965 ca40
00000020: a039 b5bd 5c0d b640 acc1 c640 fbbe 9a40
00000030: 6abe bb40 eda5 cd40 9881 c340 9371 ac40
00000040: e412 9a40 88d1 ba40 db9f cb40 b7ae a840
00000050: 1dbc b040 a513 ad40 5530 bc40 a65b c840
00000060: 0a6a ac40 1238 a640 9d16 aa40 e9f1 c640
00000070: 9c5e d940 0a2c b740 4eea c340 fe72 df40
00000080: 095e 5d40 9f7d db40 3e33 c540 65d1 b340
00000090: 8b61 bd40 a980 a640 f5c4 b140 f5a4 cd40
000000a0: 7db7 b240 efc2 d040 07af a440 3dcc a140
000000b0: 4f6d 4d40 c45b c540 6d62 a140 0f28 c240
000000c0: 837e b640 6743 f240 ea3d cb40 74d1 c940
000000d0: b58c c740 0e0e 9940 f9e7 bd40 e0c4 9a40
000000e0: 3eb6 b340 84cb d340 641f 9440 1eee ec40
000000f0: 01cf d540 d176 c640 1d3d a240 a78a b740
00000100: 7218 a440 327f c840 fea5 a840 fea0 c740
00000110: 5241 bd40 ea9e a440 9ca4 c040 8675 2540
00000120: f162 ca40 f31a b640 b551 c440 6d0e db40
00000130: 9f3d c340 14e7 b840 1390 a240 591f ac40
00000140: 2bb6 9a40 4b50 bb40 c858 d640 9897 c440
00000150: 37b9 ac40 d06f f040 2b94 ce40 8002 8b40
00000160: 70a2 c040 f66d 9d40 c516 e740 f78d a440
00000170: 8960 c740 3e9b bf40 b1d6 2040 4d20 ce40
00000180: c74c 9d40 46a6 dd40 7273 be40 e285 bc40
00000190: ed96 af40 ec3a ce40 f1de 9d40 c54d d240
000001a0: c9b0 ab40 9683 cd40 5756 e340 0ff8 b340
000001b0: 894f 9c40 59a2 de40 75f2 c340 a02f af40
000001c0: b37f a540 354a bc40 1212 bc40 cc13 c540
000001d0: 241e 8c40 b47f ec40 c2be a740 5987 bf40
000001e0: dd2d d440 5b55 a040 7468 ba40 85aa c640
000001f0: c1e4 a840 29e2 cd40 5ec0 9d40 aa1a be40
6.000044 6.4784107 2.1087775 5.19483 5.690696 5.8847117 6.388562 6.324902
-0.08848882 5.689131 6.2111416 4.835813 5.866994 6.4265046 6.1095695 5.388864
4.814806 5.8380775 6.3632636 5.2713275 5.522963 5.408648 5.8809 6.2611876
5.387944 5.1943445 5.3152604 6.21703 6.792799 5.724126 6.1223516 6.982787
3.4588645 6.8590846 6.162505 5.619311 5.918157 5.2032056 5.5552926 6.4263864
5.5848985 6.5237956 5.1463656 5.0561814 3.2097967 6.167452 5.043265 6.06739
5.7029433 7.570728 6.351308 6.306818 6.235926 4.7829657 5.934567 4.8365326
5.6159964 6.618593 4.628832 7.404067 6.681519 6.202004 5.06996 5.7356753
5.127984 6.265527 5.2702627 6.2384024 5.9142237 5.1443987 6.020094 2.585298
6.324578 5.6907897 6.134974 6.845511 6.101272 5.778208 5.080087 5.3788266
4.8347373 5.8535514 6.6983376 6.143505 5.397609 7.513649 6.455587 4.344055
6.019829 4.919673 7.2215295 5.1423297 6.230534 5.9877005 2.5131037 6.441443
4.915622 6.926547 5.9515924 5.891343 5.4871736 6.4446926 4.9334645 6.5719934
5.36533 6.4223127 7.1042895 5.6240306 4.884709 6.957318 6.123347 5.4745636
5.1718383 5.8840585 5.877206 6.1586666 4.3786793 7.3905888 5.242036 5.985272
6.6305985 5.0104194 5.8252506 6.2083154 5.277924 6.4338574 4.9297323 5.940755

fc1.weight f4 [256, 97]
00000000: 9921 92be 2e4e 92be 3117 92be d459 93be
00000010: 7104 94be edc5 a3be 0745 acbe b972 a3be
00000020: 20a4 a2be ac53 a3be 7a69 c1be 38ab a2be
00000030: 3014 acbe 89d4 e0be e6f7 d9be a284 dfbe
00000040: 5f37 c9be 34ef afbe e368 a8be 7a18 a3be
00000050: 8615 a3be 4c17 a3be 67a6 a2be 1aa4 a2be
00000060: 1ba4 a2be 1ba4 a2be 1ba4 a2be 1aa4 a2be
00000070: 1aa4 a2be 18a4 a2be 1aa4 a2be 1aa4 a2be
00000080: 1aa4 a2be 1ca4 a2be a4a4 a2be 7227 a3be
00000090: c219 a7be b2dd b2be ab1f bfbe 83a7 b9be
000000a0: b121 bfbe e3df b7be f869 aebe 6d99 a7be
000000b0: 1082 96be 2983 98be eb75 a7be 5a5d 9fbe
000000c0: 1154 93be 3a97 a3be d380 a3be aaf2 aebe
000000d0: b5b0 a4be 5cbc a2be c30e 93be cc48 9cbe
000000e0: 8eb8 93be 116a 92be 1ba4 a2be 1aa4 a2be
000000f0: 1aa4 a2be 1ba4 a2be 496e 92be 9d66 92be
00000100: a658 92be 6038 92be 3a35 92be 6736 92be
00000110: 123c 92be 3e52 92be 1ba4 a2be 19a4 a2be
00000120: 1ca4 a2be 1ca4 a2be 1aa4 a2be 1aa4 a2be
00000130: 1aa4 a2be 1ba4 a2be 1aa4 a2be 1aa4 a2be
00000140: 1069 92be e3a9 a2be 1aa4 a2be 1ca4 a2be
00000150: 63d9 a2be 74d7 a6be e20f 99be 8601 abbe
00000160: c9af 83be a70e 94be 644b 93be 63be 91be
00000170: 9f29 92be d683 a9be 9276 c0be 2044 a5be
00000180: 5663 b3be b824 1480 ee1f 1380 a156 1680
00000190: 7e34 1880 bade 1880 27e0 1980 565a 1b80
000001a0: d229 1980 68ab 1880 aca8 1980 1614 1b80
000001b0: 025f 1b80 de4a 2180 b4f3 2180 19ec 2280
000001c0: 8375 2680 dc36 2180 f2c3 1b80 390d 1980
000001d0: ba44 2580 e6b9 0480 28b4 3200 cc36 3600
000001e0: b32b 3900 6135 2f00 7018 1e00 d476 1900
000001f0: f918 1c00 85bd 1f00 6ba0 2600 09ba 2c00
00000200: 14f6 0b00 1e8c 2580 dbc6 1f80 cc6e 2080
00000210: 0eed 2080 b262 2180 0f73 1b80 5daf 1880
00000220: e813 1780 948b 1880 5801 1780 fc39 1780
00000230: 22d0 1680 1f94 1a80 3e9e 1780 20b3 1680
00000240: 2e44 1b80 9fc7 1980 01a9 1980 1545 1380
00000250: 255d 1380 e5f1 1880 8c0d 1b80 176b 1880
00000260: 2814 1980 047d 1980 ad2d 1a80 6cd6 1a80
00000270: 6190 1780 2bcc 1880 2e29 1780 1bdd 1980
00000280: 59ee 1680 2fe7 1880 7c5d 1780 4785 1880
00000290: 42ef 1780 302c 2780 0947 2880 0f97 1e80
000002a0: 90fd 1980 9b88 1780 3745 1980 269a 1980
000002b0: 13be 1980 1534 1880 995b 1b80 9fc9 1980
000002c0: 1a5e 1b80 cfff 1980 489a 1680 d401 1980
000002d0: 75af 1780 e824 2180 e13e 1e80 4a13 1c80
000002e0: d34f 1f80 f671 1e80 39bd 1a80 8a15 1a80
000002f0: dd99 1a80 be7a 1a80 bdaa 1080 873a 3d00
00000300: 0784 2080 734d 2280 9817 7ebe e098 65be
00000310: a76e 2fbe d78a 64be f501 95be c968 98be
00000320: 1541 96be 3688 89be 507e 7bbe 7294 77be
00000330: 3e50 84be 03c4 84be 11a4 69be 9823 3fbe
00000340: 1c6c 17be 3c00 05be e9ed f7bd 4cb7 e5bd
00000350: f076 e0bd c3c3 ebbd cdbc 0ebe 1815 3abe
00000360: 0d41 45be 60cb 32be 4e23 39be 258c 4bbe
00000370: 616e 47be 2972 43be c66e 40be 7353 42be
00000380: 77bd 4dbe 9074 64be 4a23 75be 981d 75be
00000390: 8d59 6cbe 103c 6bbe 2ad8 6cbe ec23 6dbe
000003a0: 7fc5 6abe 4000 69be 7055 71be 503b 78be
000003b0: bbbb 84be 866c 79be 90ff 54be 5c67 62be
000003c0: 8875 6fbe bded 52be e169 4dbe 63f7 4ebe
000003d0: 6efd 3ebe e0b7 25be c047 00be 5105 ccbd
000003e0: 3812 06be 2555 4dbe ca33 81be a5fd 8cbe
000003f0: 72f6 89be a846 82be f336 7ebe 24bc 7dbe
-0.28541258 -0.2857527 -0.2853332 -0.2877947 -0.2890964 -0.31986943 -0.33646414 -0.31923464
-0.31765842 -0.31899774 -0.37775785 -0.31771255 -0.33609152 -0.4391215 -0.42571944 -0.43655878
-0.39300057 -0.34362185 -0.32892522 -0.31854612 -0.3185236 -0.31853712 -0.3176758 -0.31765825
-0.31765828 -0.31765828 -0.31765828 -0.31765825 -0.31765825 -0.3176582 -0.31765825 -0.31765825
-0.31765825 -0.3176583 -0.31766236 -0.31866032 -0.3263684 -0.34934765 -0.37328848 -0.36260614
-0.37330392 -0.35913 -0.34065223 -0.32734242 -0.29396105 -0.29787567 -0.32707152 -0.3112591
-0.28775075 -0.31951314 -0.31934223 -0.34169513 -0.32166067 -0.31784332 -0.287222 -0.3052429
-0.28851742 -0.28596547 -0.31765828 -0.31765825 -0.31765825 -0.31765828 -0.28599766 -0.28593913
-0.28583258 -0.28558636 -0.28556234 -0.2855713 -0.28561455 -0.2857837 -0.31765828 -0.31765822
-0.3176583 -0.3176583 -0.31765825 -0.31765825 -0.31765825 -0.31765828 -0.31765825 -0.31765825
-0.2859578 -0.31770238 -0.31765825 -0.3176583 -0.31806478 -0.32586253 -0.2989493 -0.333996
-0.2572005 -0.2891743 -0.28768456 -0.28465566 -0.2854738 -0.33108395 -0.37590462 -0.32278538
-0.35036725 -1.849882e-39 -1.756329e-39 -2.051458e-39 -2.222883e-39 -2.283951e-39 -2.376298e-39 -2.511965e-39
-2.31089e-39 -2.265541e-39 -2.356395e-39 -2.486764e-39 -2.513641e-39 -3.057429e-39 -3.117996e-39 -3.207103e-39
-3.531904e-39 -3.050251e-39 -2.54985e-39 -2.300631e-39 -3.422568e-39 -4.3403e-40 4.656403e-39 4.978774e-39
5.2503e-39 4.335417e-39 2.763831e-39 2.338515e-39 2.580352e-39 2.914887e-39 3.547296e-39 4.107499e-39
1.098467e-39 -3.448178e-39 -2.918236e-39 -2.978482e-39 -3.023775e-39 -3.065977e-39 -2.520834e-39 -2.26696e-39
-2.119357e-39 -2.254123e-39 -2.112698e-39 -2.133017e-39 -2.095045e-39 -2.440859e-39 -2.168983e-39 -2.084639e-39
-2.504017e-39 -2.367498e-39 -2.356515e-39 -1.769656e-39 -1.778288e-39 -2.290827e-39 -2.484418e-39 -2.242469e-39
-2.303118e-39 -2.340735e-39 -2.404108e-39 -2.464643e-39 -2.16401e-39 -2.277294e-39 -2.126989e-39 -2.375205e-39
-2.105884e-39 -2.286985e-39 -2.145752e-39 -2.251863e-39 -2.198046e-39 -3.597436e-39 -3.698902e-39 -2.809254e-39
-2.386848e-39 -2.161221e-39 -2.320717e-39 -2.351185e-39 -2.364073e-39 -2.222735e-39 -2.512417e-39 -2.368215e-39
-2.513316e-39 -2.387654e-39 -2.075727e-39 -2.296543e-39 -2.175159e-39 -3.043811e-39 -2.777622e-39 -2.578314e-39
-2.875536e-39 -2.795946e-39 -2.455603e-39 -2.39545e-39 -2.442919e-39 -2.431755e-39 -1.530617e-39 5.622961e-39
-2.986098e-39 -3.15019e-39 -0.24813688 -0.22421598 -0.17132054 -0.22318588 -0.29103056 -0.29767445
-0.2934653 -0.26861733 -0.24559903 -0.24177721 -0.2584247 -0.25930795 -0.22816493 -0.18665922
-0.14787334 -0.1298837 -0.12105925 -0.11216602 -0.109601855 -0.11511948 -0.1393921 -0.18172109
-0.19263096 -0.17460394 -0.18079874 -0.1987768 -0.194757 -0.19086517 -0.18792257 -0.18977146
-0.20091806 -0.2231009 -0.23939243 -0.2393707 -0.23081036 -0.22972131 -0.23129335 -0.23158234
-0.22926901 -0.22754002 -0.23567748 -0.24241376 -0.25924477 -0.24357805 -0.20800614 -0.22109741
-0.23384678 -0.20598502 -0.20059921 -0.20211558 -0.18651363 -0.16183424 -0.1252737 -0.099619515
-0.13092887 -0.20052011 -0.25234824 -0.27537265 -0.26945835 -0.2544453 -0.24825649 -0.24778801

fc1.bias f4 [256]
00000000: 4588 2140 fe27 90b7 c362 51be fb4f 8a40
00000010: 2cc6 b540 0430 82be 56bf c040 25e5 fcb9
00000020: e43e 9ebc f775 24bd 312d 40bd 4846 42be
00000030: 8aca 2abd 5b6c 0abd 8cd7 1c42 f9d1 b83f
00000040: 13bc 85bb 36d8 b542 e31e 8ebd a802 4fbd
00000050: da5c 9840 eabe 6140 88a9 15ba 593e 9f9e
00000060: dcda 17be 495f ad42 61e8 53be 55e4 0c41
00000070: 82f6 1240 a62f 1dbb 6905 f6af 4a05 a940
00000080: 1381 bdb7 a82b 8240 d95d e1bc 8a18 a4bb
00000090: 45b0 cdb9 f198 d5b4 8f77 843f 902e 77b5
000000a0: 846f 5840 28eb 04b8 8bdd 0dbe 7f97 b4bc
000000b0: 6b25 eebc 1c64 1640 493d 4ca9 12da 6e40
000000c0: 87f8 86ae 185d b0bc 8c9e 6840 bac4 62bd
000000d0: cbbe 2240 9ece 7c40 0773 5db9 8684 5fbc
000000e0: f73c 72ba 86e3 dd3f 4113 27bd 68c7 c9bd
000000f0: 2e2b 96b2 91fd 833f 5295 04ba 3a1e adbe
00000100: 0255 fabd 234c 25be 4a81 8dbe c8ce 76bc
00000110: 68a8 8a40 7cd3 d8b8 7486 c1ba 5390 bf42
00000120: 3df8 fdbd 2463 5abe e4c6 da40 4b48 1d3e
00000130: 5dee d3bd 29be 2f3e 1f70 0742 0942 d6be
00000140: 12ab 90be f719 5bbe a1ab 7c40 65b3 a740
00000150: 89c4 60bd 2410 fa42 1b36 7740 6701 8dbe
00000160: 1938 b8bc 4f71 9c40 59e2 debc 84b6 2d40
00000170: 2426 0340 b3b9 d6ba 3990 7aa1 39fd 5541
00000180: 1b94 e8ba 51df 2dbe 7e9e ac40 d382 0e3f
00000190: 8ceb 7fb9 b649 2041 381c 31be 3823 5540
000001a0: 051d d6bd f235 e29c 6c32 8abe f625 6d40
000001b0: 4d64 8142 2a39 9e96 8b0a a8bc 1571 6340
000001c0: 7a11 a1be aaf9 81bb e382 20b1 b42c 9642
000001d0: 565f 5abe 945e 429f d772 4ebe cab3 a1be
000001e0: 5a71 5640 c985 1840 0c09 16bb 8c1c 5c40
000001f0: 9a84 a0be 7250 d7a1 f041 0ebe 2bbb bdbc
00000200: f785 6942 8f0c 0bbd 56e9 84be d75a 33bc
00000210: 219f 7fbc a06a 29be 958a 6a40 5b67 3140
00000220: e291 8c3f efb3 a640 819c 75bd bb3b f3a4
00000230: e785 5abe 6081 73be baa0 9240 b615 e9bb
00000240: 91c6 8798 411d 2ab4 d145 7da8 d843 64be
00000250: 8c8e 2141 195f e0bd 54a7 c6af f50a a3b3
00000260: 53c2 bab8 cac5 01be c5d5 9cbe bb36 14be
00000270: d30d d4be 3bf5 7a40 6a5e ea40 a390 ea40
00000280: 21ac 33bd 0002 a7be a836 f63f d21d 2040
00000290: 440c 5d3f 7050 6e40 1c65 cc96 9362 6940
000002a0: a15f dab7 64fd 9840 085a 8fbe 2e03 88be
000002b0: a153 b040 bfec 8d40 0d6e 6cbe 7e32 e8bd
000002c0: bb4b acbd 34cf 5b40 3279 b540 51fd 8740
000002d0: f9dd 89be 84e9 2342 203d 3cb6 38f6 5c40
000002e0: 8863 5a40 b18d d73e a221 17a9 27f4 97bc
000002f0: b3af 8d3f 0f95 b7be bca2 6040 d479 8440
00000300: e8b8 0db8 386f 863f 0cb7 3eb4 6128 cf3e
00000310: f07e e9ad 8704 f8bc d7dc 6440 85c7 9f40
00000320: 4d8b 3ebc 3007 b0bd cfeb ecbc fff0 07bd
00000330: dc5a 833f c3b2 78bc 916d 0142 6608 4740
00000340: 2cae 4440 0f2c 0940 1696 1540 6c80 0a40
00000350: 2186 4d3f ac8c 6140 0839 d73f 42c8 fb3f
00000360: 8c78 8bbd 1010 a3be 584b 6f3f 6301 54be
00000370: 3912 a940 e0e5 5ab4 ba14 05be c0fb 5a40
00000380: be58 d1a8 3d20 c640 44d4 8a40 d071 adbd
00000390: 7aa4 43be df4a 1ebd b03e 87be 0a23 4440
000003a0: 4887 b4b9 ec36 d9b5 0533 04bc e3d8 1540
000003b0: 62e3 95bb 2c8e b2b9 d87e b7bd d8a8 a1be
000003c0: 360a 4540 3c1f dd42 f738 2dbc 27f9 2dbe
000003d0: b7e9 6542 b73a 6ea9 a63e b93f 4b19 2e40
000003e0: f050 a894 f27a 853f 586b 82ab 1d03 d3bc
000003f0: 70d0 5440 87a9 bc40 8951 9a40 58ba 6bbe
2.5239422 -1.718476e-05 -0.20447831 4.3222632 5.680441 -0.25427258 6.0233564 -0.00048235912
-0.019317098 -0.040151563 -0.046918098 -0.18972123 -0.041697063 -0.033794742 39.210495 1.4439079
-0.004081258 90.92229 -0.06939485 -0.050539643 4.7613344 3.5272775 -0.0005709161 -1.6860566e-20
-0.14829582 86.686104 -0.20694114 8.805745 2.2962956 -0.00239847 -4.4750983e-10 5.2818956
-2.259066e-05 4.067829 -0.02751057 -0.005007808 -0.00039231978 -3.978562e-07 1.0348986 -9.208243e-07
3.3818064 -3.169026e-05 -0.13854043 -0.022044895 -0.029070577 2.3498602 -4.5350256e-14 3.73206
-6.137762e-11 -0.021528766 3.634677 -0.055363394 2.542895 3.950111 -0.00021119053 -0.013642436
-0.0009240652 1.733506 -0.040789846 -0.09852487 -1.7481934e-08 1.0311757 -0.0005057651 -0.33812124
-0.12223245 -0.16142325 -0.27637702 -0.015063949 4.3330574 -0.00010339075 -0.0014764802 95.78188
-0.12400863 -0.21326882 6.8367786 0.15359609 -0.103481986 0.17162384 33.859493 -0.41847256
-0.28255516 -0.21396624 3.9479754 5.2406487 -0.05487493 125.031525 3.8626773 -0.27540132
-0.022487687 4.8888316 -0.02720754 2.7142649 2.049203 -0.0016382247 -8.489417e-19 13.374322
-0.0017744334 -0.1697972 5.394347 0.5566837 -0.00024406443 10.017996 -0.17295921 3.3302746
-0.10454754 -1.496937e-21 -0.26991594 3.705442 64.6959 -2.5562352e-25 -0.02051284 3.553777
-0.31458646 -0.00396653 -2.3357465e-09 75.08731 -0.2132543 -4.115933e-20 -0.20160995 -0.3158248
3.3506684 2.3831656 -0.0022893576 3.4392424 -0.31351167 -1.459026e-18 -0.1389234 -0.023160538
58.380825 -0.033947524 -0.2595927 -0.010946951 -0.015601904 -0.1654458 3.6647084 2.7719333
1.098202 5.2094646 -0.059963707 -1.0548564e-16 -0.21340142 -0.23779821 4.58212 -0.007113184
-3.5097183e-24 -1.5843126e-07 -1.405946e-14 -0.22291505 10.0973015 -0.109556384 -3.6134884e-10 -7.592272e-08
-8.905367e-05 -0.12673107 -0.30631843 -0.14474003 -0.41416797 3.9212177 7.324025 7.330156
-0.043865327 -0.32618713 1.923543 2.50182 0.8634684 3.7236595 -3.3021787e-25 3.6466415
-2.6032156e-05 4.7809315 -0.27998376 -0.26564926 5.5102086 4.4351497 -0.23088856 -0.113377556
-0.08412882 3.4345217 5.6710443 4.2496724 -0.26927164 40.978043 -2.8049762e-06 3.452528
3.412325 0.4210029 -3.3557907e-14 -0.018549038 1.1069244 -0.3585591 3.5099325 4.1398716
-3.3789227e-05 1.0502691 -1.7761721e-07 0.40460494 -2.6545405e-11 -0.030275596 3.575979 4.9931054
-0.011629892 -0.08595121 -0.028921036 -0.033188816 1.0262103 -0.015179339 32.357 3.1098876
3.0731306 2.1433141 2.3372855 2.1640882 0.8028279 3.524211 1.681428 1.9670489
-0.06810102 -0.31848192 0.9347434 -0.20703654 5.2834744 -2.038646e-07 -0.12996188 3.4216156
-2.3242147e-14 6.1914353 4.3384113 -0.08468974 -0.19105712 -0.03864562 -0.26415014 3.0646386
-0.00034433068 -1.6183744e-06 -0.008068805 2.3413627 -0.0045742253 -0.00034056732 -0.089597404 -0.3157413
3.0787482 110.561005 -0.0105726635 -0.16989575 57.478237 -5.2897543e-14 1.4472244 2.7202938
-1.6995589e-26 1.0428145 -9.266849e-13 -0.02575832 3.325222 5.8956943 4.822453 -0.23020303

fc2.weight f4 [14, 256]
00000000: d714 1c3e beae 3600 a3d0 70be 2163 82bd
00000010: 2c13 0c3d e8dd 9cbe dcbe 20bd 987d 03aa
00000020: 5739 4c80 7df1 753c 1da2 8abe b2e2 65be
00000030: 2689 523a 8cbc 3c80 31fc 6fbc 520f 2d3d
00000040: 334c 2e00 897a 12bd 3736 79a7 30ba ea3d
00000050: 8b1e dc3c f498 63be 1235 90be c113 3739
00000060: 7212 32be b95b 4c37 96c3 7abe 2bbd a03d
00000070: 4112 3a3e 4c0f 1b80 00f3 8838 7e39 bfbc
00000080: 7c91 0c00 d448 f6bc a160 e13b f6fb 31be
00000090: 5601 81be 3294 8fbe 74aa 123e 8533 0d00
000000a0: 9044 2fbb c3fc 0500 551c 8fbe e2bb 043d
000000b0: ad3f 2b3e ae05 a83d 874c cfbc 4e5e 4c3c
000000c0: 9fa7 0ebe 9346 813e eb6c ccbc cdd1 71bc
000000d0: f498 4f3e f3e0 b8bd 878b a320 e01d 0c80
000000e0: 3619 1b80 7384 d43d cd50 41bd dfae 053d
000000f0: 99d0 57be fc7b d63d 00f0 1400 549c 99bd
00000100: 127d 8a3d 586e 11b5 67b9 a1be bd0f 1133
00000110: 73af 303d e17f 1d80 e10f 2180 e2b7 f1ba
00000120: a48f 923e 321e 393e 0451 2cbe ffa9 1dbe
00000130: 9c8b 04ba 1a7c 6c3e b72c 4a3b fa01 5bbe
00000140: 3c5f 96be 14dd 543e 6b26 843e 5c22 0dbd
00000150: 505c eb3d bacd 2fb9 522c 90be c2ac 41be
00000160: 03a1 60bd f47e babc dbb9 cabd 2947 7d3d
00000170: e25e 513e 84e7 79be 6de0 3ebe a095 043d
00000180: 6c7c 92be 3fee 63be e120 11bd 44ef d33d
00000190: 925c 1200 b338 9ebb 0b3c 92be 41f6 353d
000001a0: b33d ffbc 7788 34be 0d89 a2be 2dcb 7f3d
000001b0: 475b 26b9 e2c6 1580 20f8 193e 72ed 1bbe
000001c0: bb73 92be 4b62 1100 f533 89af 565e 0ebc
000001d0: 5243 7b3e 13a1 1600 8a44 91be 7773 92be
000001e0: d1f3 e1bd 9679 a23b d0e0 903e 32ea 963d
000001f0: 5971 973e 47c1 0dbc 3b56 97be f02e d9bb
00000200: 28e2 dfb9 2f27 a2be 8059 783e ed10 63be
00000210: 8f5b 09af e6a6 923e f4ea 75bd 62e0 04bd
00000220: cde2 8d3e 4d1d bd3c c4fe 53be fc1c 0900
00000230: ad86 d8bd 325a 273e 5196 85be b3de 66be
00000240: c55b 2900 38e5 3480 ef78 1280 1104 873e
00000250: b5a1 093a 580a 49be 0b81 903e 5e00 1f80
00000260: 8ad2 8fbe eb6b df38 0897 8a3d a689 67be
00000270: 70a8 043e 53a2 8dbe b34a 3fbd 2ed7 5abe
00000280: a140 38b9 15c6 803e 9951 5c3b 5e2e 73be
00000290: 17b2 09be 20e1 0a3e 3adb 1980 d002 8ebe
000002a0: 0acb 322b 25f5 983c 59ec 05b2 7562 3780
000002b0: 7eb0 f2bb 4682 073e dbe9 81be 1236 e13d
000002c0: 3062 72be fd6a c33d 0a01 253e d4b3 053e
000002d0: d8f6 02b9 a894 523c d8b2 091e c6ab 793e
000002e0: 134e 5a3d 50ea 203e 43bf 5722 4998 0f3d
000002f0: d79d 613e 7a61 3dbe 09da 5c3c e7cb 3bbd
00000300: d514 1b80 87b3 583e bdf3 803e 1351 2ebe
00000310: 1535 0900 d55e 0780 484a 8b3e 7c0c 37bd
00000320: 61f2 1e00 604d 22be 14b1 29bd 0d30 13be
00000330: 2b3b 273e ae90 923e 7a48 933c 5e0d 973e
00000340: 5f8f 9ebc 0671 25bd f7d3 16bd e0af ebbd
00000350: 1abe 843e 9622 173e e3d7 903d 9185 a43d
00000360: bf94 8abe 3824 d6bb 515f 79be cd96 7429
00000370: 28d0 86bd 880b 9cbe cd62 1abe c380 493b
00000380: d90b 753a c424 043e a30b a0bb 54a0 dd37
00000390: 489a 57be 4d84 8c3e 2352 9fbe 4653 42be
000003a0: 84d1 5c2b c65b 9bbb d033 f9bd abdd 81bd
000003b0: 1d40 0406 d5cf 0c3e a084 7bbd 5057 15be
000003c0: c48e 2bbe 4a00 bfb8 3624 31ab 855c f1bc
000003d0: 6624 863c 667e 5e3d 21c0 ae3d 42b9 35be
000003e0: a3b3 0e80 e83d 3bbd 9d14 1480 5048 da27
000003f0: a017 a0bd 50cf 833c 1381 a93d 8712 973d
0.15242325 5.021802e-39 -0.23517089 -0.063665636 0.03419797 -0.3063805 -0.039244518 -1.1678711e-13
-7.000067e-39 0.015011189 -0.27076808 -0.22449759 0.0008031301 -5.577768e-39 -0.014647529 0.04225094
4.251768e-39 -0.03576139 -3.4585082e-15 0.11461294 0.026870033 -0.22226316 -0.2816549 0.00017459599
-0.17389849 1.2180703e-05 -0.24488673 0.07848581 0.18171026 -2.485046e-39 6.5302476e-05 -0.023342844
1.154216e-39 -0.030064024 0.006877974 -0.17381272 -0.25196332 -0.28042752 0.14322835 1.212343e-39
-0.0026743747 5.49851e-40 -0.27951303 0.03240574 0.16723509 0.08204208 -0.025305046 0.012473656
-0.1393113 0.25249156 -0.02495428 -0.014759493 0.2027319 -0.09027281 2.7705606e-19 -1.112743e-39
-2.488602e-39 0.10376825 -0.0471962 0.032637473 -0.21075667 0.10472867 1.922806e-39 -0.0750052
0.067621365 -5.417728e-07 -0.31586763 3.3774757e-08 0.04313607 -2.709104e-39 -3.036268e-39 -0.0018441642
0.28625214 0.18077925 -0.1682778 -0.1539688 -0.0005056204 0.23094216 0.0030849406 -0.21387473
-0.29369533 0.2078746 0.2581056 -0.034456596 0.114922166 -0.0001676594 -0.28158814 -0.18913558
-0.054841053 -0.022765614 -0.0989873 0.06183544 0.20446351 -0.24404722 -0.18640299 0.032369256
-0.2861055 -0.22258852 -0.035431746 0.10348371 1.686247e-39 -0.0048285364 -0.28561434 0.0444243
-0.03115735 -0.17630182 -0.31745186 0.062449623 -0.00015864997 -1.999891e-39 0.15036058 -0.15227297
-0.2860392 1.596464e-39 -2.4957073e-10 -0.008689484 0.245374 2.078163e-39 -0.28372604 -0.28603718
-0.110328324 0.004958342 0.28296518 0.07368888 0.29578665 -0.008652038 -0.29557976 -0.00662791
-0.00042702374 -0.3167052 0.24252892 -0.22174425 -1.2492606e-10 0.28642958 -0.060038522 -0.03244055
0.27712098 0.02308526 -0.20702654 8.36917e-40 -0.10572562 0.16343 -0.26091245 -0.2254589
3.798176e-39 -4.857674e-39 -1.696422e-39 0.2637029 0.00052502315 -0.19632852 0.28223452 -2.847032e-39
-0.28090316 0.0001065357 0.06767088 -0.22611102 0.12954879 -0.27662906 -0.046702098 -0.21371147
-0.00017571684 0.25151125 0.0033617972 -0.23748156 -0.13446842 0.13562441 -2.374531e-39 -0.2773652
6.3520077e-13 0.018671582 -7.795358e-09 -5.086272e-39 -0.0074062934 0.13233289 -0.2537373 0.10996641
-0.23670268 0.09541891 0.16113678 0.1305688 -0.00012489723 0.012852825 7.289704e-21 0.24381933
0.053297114 0.15714383 2.9239186e-18 0.03505734 0.22032867 -0.18494216 0.013479718 -0.045848753
-2.487032e-39 0.21162234 0.25185958 -0.17023115 8.45562e-40 -6.76868e-40 0.2720511 -0.04468964
2.842014e-39 -0.15849829 -0.04142864 -0.14373799 0.16331165 0.28626007 0.017978895 0.29502386
-0.019355474 -0.04039099 -0.03682324 -0.11508155 0.25926286 0.14759287 0.07072427 0.08033288
-0.2706661 -0.0065350793 -0.24352767 5.4309682e-14 -0.065826714 -0.30477548 -0.15076752 0.0030746914
0.0009347774 0.1290465 -0.0048841997 2.6419912e-05 -0.21054947 0.27444687 -0.31117353 -0.18977079
7.845046e-13 -0.004741165 -0.121680856 -0.06341108 2.4873544e-35 0.13751157 -0.061405778 -0.14584088
-0.1675368 -9.1076436e-05 -6.2933285e-13 -0.029463062 0.016374778 0.05431976 0.085327394 -0.17746451
-1.350138e-39 -0.045713335 -1.844105e-39 6.0585556e-15 -0.07817006 0.016090065 0.08276572 0.07376581

fc2.bias f4 [14]
00000000: 5554 e13f f79d 8942 8153 2041 b66a bc40
00000010: 807c 4a41 07f7 5c40 11ed c33f 3316 fb3f
00000020: 1616 a53f e1ea 6f43 9e4f bc43 e57c 743f
00000030: a742 1640 63da cc3f
1.7603861 68.808525 10.020387 5.888026 12.6553955 3.4525774 1.5306722 1.961615
1.2897365 239.9175 376.622 0.95503074 2.3478181 1.6004146
